saved_models/AdvancedCNN.pth (torch, 429722 bytes, 45 tensors)

weight f4 [32, 3, 3, 3]
000000 1b 85 1a be cd 26 f6 bd 7f 15 f6 bd 46 10 c0 bd
       -0.15089838 -0.120191194 -0.12015819 -0.09378104
000010 e2 7e dc 3d 50 3a 15 3d 7f 6f 38 be fb e3 1f be
       0.107663885 0.036432564 -0.18011282 -0.15614311
000020 e3 da 3f be 78 64 27 3e 89 8e 24 3e 52 ab 9d bc
       -0.18735842 0.1634692 0.16069998 -0.019246731
000030 6d bc 36 3e 9d 57 99 3c 26 ed ee 3d 12 a6 0b 3e
       0.17845316 0.018718535 0.11666326 0.1363757
000040 07 52 93 3d 5b e0 8b bd c3 e9 e9 3d d3 7e a5 3d
       0.0719338 -0.06829902 0.1142154 0.080808304
000050 2b 8e 26 3e 0e b1 1b 3e 5c e5 94 bd fc 74 19 3e
       0.1626517 0.1520426 -0.07270309 0.14986032
000060 da b8 7a bd 81 59 4b 3d 84 16 72 bb bf 45 da bb
       -0.061211444 0.049645904 -0.003693969 -0.0066611464
000070 d0 c4 27 bd 49 eb b9 bd a9 36 40 3e 74 f2 a7 3d
       -0.04095918 -0.0907808 0.18770851 0.08200541
000080 9e 0b 22 be 24 5f 04 3d 6c ed 0d be 7e 54 c2 3c
       -0.15824744 0.032317296 -0.138601 0.02372193
000090 79 ec 28 3e 64 fd 0c be 99 b4 1c 3e 2c 6d e2 3d
       0.16496457 -0.13768536 0.15303268 0.11055979
0000a0 d1 80 5f 3d 46 0e f0 bd a7 29 0d be 77 c7 0c be
       0.05456621 -0.117214724 -0.1378542 -0.13747965
0000b0 de bf 80 3d 77 f8 f6 3d 1f 4e 41 3b 4c 84 0e 3e
       0.06286596 0.1205911 0.0029496027 0.13917655
0000c0 7e 0e 40 be 92 3e 3b 3e 69 57 1a 3d ba 4d f3 3d
       -0.18755528 0.18285587 0.037681017 0.118800595
0000d0 a5 63 31 3e fe 1e 10 be d3 a2 fb 3c 98 78 e2 3d
       0.17323168 -0.14074323 0.03071729 0.11058158
0000e0 75 6c a3 bd 3d 70 6b bc 7c 39 f8 bd 36 59 04 be
       -0.07979671 -0.014370021 -0.12120339 -0.12924656
0000f0 31 66 44 bd 6e d6 6c bd 0c ca 17 3e cd f6 31 be
       -0.04794902 -0.057821684 0.14823169 -0.17379303
000100 72 fd 0d 3e dc af 74 3d c2 75 2e 3e dc 81 b2 bd
       0.13866213 0.059738025 0.17037109 -0.08716175
000110 d5 77 1a 3e c0 82 2f 3e 82 f5 49 3e e3 98 e3 3c
       0.15084775 0.17139721 0.1972256 0.027782863
000120 49 f7 a5 3d a8 1c 1f 3e 4a 38 36 3e e4 45 f0 bd
       0.081038065 0.15538275 0.1779491 -0.117320806
000130 c1 79 f2 bd f8 fc 1b 3d dc f5 1c be 8c b7 2a be
       -0.11839629 0.038083047 -0.15328163 -0.1667158
000140 45 e6 02 be 04 02 32 be 20 68 bf 3d a5 14 d9 3d
       -0.12783153 -0.17383581 0.09346032 0.10599641
000150 91 d6 d4 bd 36 af 3c be 05 17 34 3d 68 63 ea bc
       -0.10392488 -0.18426213 0.043967266 -0.028611854
000160 e9 17 71 3c 2d 6e 3d be a4 02 aa bb 2a c5 d0 3d
       0.014715173 -0.1849906 -0.005188303 0.10193856
000170 c1 d6 2a bd 46 c7 c2 bc 17 9d 8a bc ae 79 e1 3d
       -0.04170871 -0.023776662 -0.01692061 0.11009537
000180 5e 9b e9 3c 08 12 b3 3d a0 8a ef bd 1b f6 24 3d
       0.028516468 0.087436736 -0.116963625 0.040273767
000190 b7 82 97 3a 0c c4 9b 3d e5 ff 3a 3e f2 1c 7f 3d
       0.0011559342 0.07605752 0.18261679 0.062283464
0001a0 ec 38 24 3e 96 94 ec 3d aa d5 35 3d 91 36 89 bd
       0.16037339 0.11551778 0.04439322 -0.06699861
0001b0 c4 08 c5 bd 15 e6 2c be b8 5e 88 3d 8b 13 b4 3d
       -0.096208125 -0.16884644 0.06658691 0.0879279
0001c0 ed 7d 26 be a8 2b 2c 3e 4e 98 43 be a1 74 bb 3d
       -0.16258974 0.16813529 -0.19101068 0.091531046
0001d0 e4 dd 95 3d cd a5 59 bc 47 44 b0 bb fa df 7d 3c
       0.07317713 -0.013284159 -0.005379233 0.015495295
0001e0 97 eb 3e bd 3c 7f 29 3e da a2 81 bd 18 67 41 3e
       -0.046611395 0.16552442 -0.063298896 0.18886983
0001f0 ea a8 76 bd eb cc 2f 3e ef cc 8e bc 51 d5 13 3e
       -0.060219683 0.17168014 -0.017431704 0.14436843
000200 f9 5d d4 3d 68 60 2f 3c 89 1a 02 be 86 c3 26 3d
       0.10369486 0.010704137 -0.12705435 0.04071381
000210 13 9f 9f bc 70 fa 1c 3c 60 37 f0 3d 90 09 09 be
       -0.019485032 0.009581193 0.11729312 -0.13382554
000220 3a 90 fe bd d1 b0 f1 bd ef d1 8f bd 1d c7 43 3e
       -0.12429853 -0.11801303 -0.070224635 0.19118924
000230 f4 91 f0 3d e9 dc 47 bd cc 6d a7 bc e2 8f c1 bd
       0.11746588 -0.04879466 -0.020438097 -0.094512716
000240 45 78 34 be 12 22 db 3c 39 b9 3c 3e 99 80 b9 3d
       -0.17624004 0.026749644 0.18430032 0.09057731
000250 fd 73 b9 3c 0f 42 02 be 36 8d 97 3d 39 a9 17 be
       0.022638315 -0.12720512 0.07399981 -0.14810647
000260 f9 80 82 3d b9 a0 f7 bc ea 83 13 be cc 71 89 3d
       0.06372256 -0.030228006 -0.1440579 0.06711158
000270 44 15 91 bd 76 4a 81 bd ef 7a 41 3d 6b cc 2b be
       -0.07084134 -0.063130304 0.04723638 -0.16777198
000280 b9 7d 15 3e a4 98 a5 bd d9 84 7c 3d 6b 2b 9f bd
       0.1459874 -0.080857545 0.06165013 -0.07771953
000290 15 76 2e be 25 11 22 be 2f d1 f5 bb 80 10 ff 3d
       -0.17037232 -0.15826853 -0.0075017433 0.12454319
0002a0 0f 19 10 3e 92 4f 3e 3e fb a9 06 be e5 7e 3f 3e
       0.14072059 0.18585041 -0.1315078 0.1870075
0002b0 fc 65 21 be 0b 6e 95 bc 54 d2 c2 3d 97 37 01 be
       -0.1576156 -0.01824095 0.09512773 -0.12618862
0002c0 7f 45 3c 3d 5b a7 08 bd c4 3d 13 3d cc d1 34 3d
       0.045964714 -0.033362728 0.035947576 0.04414539
0002d0 77 8f 5c 3d 24 38 2a 3c 4a a4 32 bc a2 90 b3 bd
       0.053847756 0.0103893615 -0.010903427 -0.08767821
0002e0 ec 76 0c 3e ce 5f cd 3d 82 9c 22 be 6c 91 da bd
       0.1371724 0.10028039 -0.15880015 -0.10672268
0002f0 93 64 20 be 6c 52 06 3e e8 63 38 be e5 21 0d be
       -0.15663366 0.13117379 -0.18006861 -0.13782461
000300 fb f2 42 be 7f ac f9 bc cf b8 fb bd e1 85 1f be
       -0.19038002 -0.03047776 -0.12291109 -0.15578414
000310 70 9d e4 3c 43 27 10 be c8 70 93 bc a8 d4 44 3d
       0.027907103 -0.14077477 -0.017998114 0.048054367
000320 40 82 c7 bd a7 c9 06 3d 43 44 10 be 52 1d 40 3e
       -0.0974164 0.032907154 -0.1408854 0.18761185
000330 e7 cf 21 be f7 e6 c1 bc 70 ae 38 be ca ce 1f be
       -0.15801965 -0.023669703 -0.18035293 -0.15606228
000340 8a 1f a6 bc ce 8e 92 3d 33 c3 6c bd c2 a0 3d bd
       -0.02027871 0.07156144 -0.057803344 -0.04629589
000350 af 2b f8 3d 4d 71 1d bc b7 bf 32 be a2 5e 23 3e
       0.12117707 -0.009609533 -0.17455946 0.15954068
000360 3b cc f7 bd 5d 8a 0b 3e 81 b1 a2 bb 80 d6 cf bd
       -0.12099501 0.13627 -0.004965008 -0.101483345
000370 e9 d4 b1 3d 94 43 3a 3e 9b e7 18 bd d6 5f 01 3e
       0.086831875 0.18189842 -0.03733025 0.12634215
000380 67 f1 92 bd 56 97 0d bc 1b 70 c1 bd 83 54 6e 3d
       -0.0717495 -0.008642038 -0.094452105 0.058186065
000390 6c 54 34 be 72 9d 20 be 13 be d1 3d 44 41 3b 3e
       -0.1761033 -0.1568506 0.10241332 0.18286616
0003a0 8e 96 e2 3c ce 6c 83 3d 1b e1 5c 3d b9 fb 36 3c
       0.02765968 0.06417237 0.053925615 0.011168414
0003b0 72 da 21 3e 29 13 40 3d 8a c0 40 be 8d 12 6e bd
       0.15805987 0.046893273 -0.18823448 -0.05812316
0003c0 ab f9 46 bd 2d f5 86 bd 28 cf 17 3d 24 d8 1e be
       -0.048577946 -0.06589732 0.037062794 -0.15512139
0003d0 36 7b 3f 3e fc 14 1f 3e 29 e5 28 3e 2b 46 8a 3d
       0.18699345 0.15535349 0.16493668 0.06751665
0003e0 19 89 32 be 85 31 cd bd e6 d9 23 bd 06 1d 62 bd
       -0.17435111 -0.10019211 -0.040002726 -0.05520346
0003f0 a5 02 9c 3d 59 ca 02 3e fc 35 09 3d d3 5d 3c 3e
       0.07617692 0.12772502 0.03349875 0.18395166

weight f4 [32]
000000 d9 14 80 3f ba 33 80 3f 7a 21 80 3f a3 4d 80 3f
       1.0006362 1.0015786 1.0010216 1.0023693
000010 c8 15 80 3f 2f fb 7f 3f fa e1 7f 3f 2b ff 7f 3f
       1.0006647 0.9999265 0.9995419 0.9999873
000020 02 f7 7f 3f af 64 80 3f 17 f1 7f 3f 57 fa 7f 3f
       0.9998628 1.0030726 0.9997725 0.99991363
000030 ee a5 7e 3f c5 ee 7f 3f 30 7d 80 3f cd 96 7f 3f
       0.9947194 0.9997371 1.0038204 0.9983948
000040 d9 00 80 3f f0 9f 7f 3f 45 15 80 3f 39 0a 80 3f
       1.0000259 0.9985342 1.0006491 1.000312
000050 0c d6 80 3f df fe 7f 3f 01 11 80 3f 2d 00 80 3f
       1.0065322 0.9999828 1.0005189 1.0000054
000060 33 ff 7f 3f cd 0b 80 3f d4 f7 7f 3f e9 f4 7f 3f
       0.9999878 1.0003601 0.9998753 0.9998308
000070 aa e9 7f 3f 72 00 80 3f a0 06 80 3f ec e5 7f 3f
       0.9996592 1.0000136 1.0002022 0.9996021

bias f4 [32]
000000 f2 84 ea b9 54 c6 d5 39 c2 f7 73 ba 89 d9 f7 ba
       -0.0004473101 0.00040774292 -0.0009306633 -0.0018909435
000010 1c b1 20 ba fb c7 7a b8 1a 31 32 38 fe 01 d0 39
       -0.0006129907 -5.979089e-05 4.2484236e-05 0.00039674336
000020 70 57 19 3a d2 c3 31 bb 4d 63 f6 37 5a f3 bc 39
       0.0005849516 -0.0027124775 2.9371726e-05 0.00036039465
000030 2e 7e 3b 3b 69 5c 12 38 19 d7 38 3b 25 46 d5 3a
       0.0028609145 3.4895176e-05 0.002820438 0.0016271515
000040 47 0a 21 39 5a 5f 21 3a 39 68 bb 39 0b 0a 2c 3a
       0.00015357985 0.0006155871 0.0003574507 0.0006562776
000050 50 b5 5b bb 9f 91 06 39 d2 6c 19 ba 02 70 9b 38
       -0.0033524819 0.00012833484 -0.00058527023 7.411839e-05
000060 7b 38 14 b9 6e 32 9f 3a 26 e3 94 38 91 f7 12 39
       -0.0001413542 0.0012145767 7.0994996e-05 0.0001401587
000070 57 ee c5 b9 e0 a0 6c b9 ba ef 06 3a ab 44 26 b8
       -0.00037752345 -0.00022566644 0.00051474164 -3.9641436e-05

running_mean f4 [32]
000000 96 d7 b5 3e 25 4d 8a 3e 40 35 54 3e 08 d9 80 3e
       0.35516042 0.27011982 0.20723438 0.25165582
000010 79 7e cd 3e 5c bb ed be 6b e5 17 be 58 6a 84 bf
       0.40135553 -0.46432006 -0.1483361 -1.0344954
000020 98 ec fa 3d b0 04 d9 3e 97 a2 3b bf 08 ef 6d bf
       0.12252158 0.4238639 -0.7329497 -0.9294286
000030 35 13 25 3f 9e 28 0e bf 50 d8 9c 3d 5a 6b 37 3f
       0.6448243 -0.55530727 0.07658446 0.7164818
000040 e3 52 cf 3e 90 6c 40 3f 85 be 1a bc f5 4b c2 be
       0.40492925 0.75165653 -0.009444837 -0.37948576
000050 03 8c 1d 3e 24 82 05 bf 43 a5 59 3d 52 77 77 bd
       0.15385441 -0.52151704 0.05313612 -0.060416527
000060 e6 1d bc 3e a7 74 1e 3d ba d2 da be a3 13 4f 3d
       0.3674156 0.038685467 -0.42738897 0.050555836
000070 c7 3f 39 3e d6 08 5e 3d 9c 94 c0 be 7e f2 10 3f
       0.18090735 0.054207645 -0.3761338 0.56620014

running_var f4 [32]
000000 ae a9 02 3d ba 2c 89 3c 23 42 51 3c a3 7f 5f 3c
       0.0319001 0.01674496 0.012772116 0.013641271
000010 dd fb b0 3c 6a b4 07 3d b9 f1 82 3b cd fc e4 3d
       0.021604473 0.03313104 0.0039961007 0.111810304
000020 34 fe cc 3b 54 f0 bd 3c 05 58 8c 3d 2e 64 d2 3d
       0.0062558893 0.023185886 0.06852726 0.10273014
000030 63 c9 51 3d f4 c3 17 3d f2 9c 80 3b eb a3 5d 3d
       0.051217448 0.03705211 0.0039249593 0.054111402
000040 3c 30 ae 3c fd 55 85 3d 82 44 b4 3b e0 69 02 3d
       0.021263234 0.065105416 0.005501331 0.03183925
000050 c7 5d cf 3b 83 69 1d 3d bb a4 7f 3b bb 74 87 3b
       0.006328318 0.038430702 0.00390081 0.0041337884
000060 00 bd a8 3c 6b 4f c0 3b ef 8a ac 3c 5d 1d 28 3b
       0.020597935 0.0058688424 0.021062342 0.0025652268
000070 3a 59 94 3c 71 e1 be 3b 86 1d 98 3c 25 75 37 3d
       0.018108953 0.0058252146 0.018568765 0.044789452

weight f4 [32, 1, 3, 3]
000000 ef 93 99 be 70 5f 6b 3e 87 87 8e 3d 5f 46 3c be
       -0.29995677 0.22985625 0.069594435 -0.1838622
000010 1a fb 24 3e e0 b6 e3 3b 8c 68 bf 3d 80 85 34 be
       0.16111413 0.0069492906 0.093461126 -0.17629051
000020 a2 86 3c 3e 85 b3 84 bd d9 7c 8b be 94 24 36 be
       0.18410733 -0.06479553 -0.2724369 -0.17787391
000030 85 e0 ad 3d 00 7f 7e 3e ea 65 a7 be b8 c4 95 3e
       0.08490089 0.24853134 -0.32694942 0.29251647
000040 bd 7d 8f 3d ae 58 54 3e 4f fb 6e be 03 1e 82 bc
       0.070064045 0.20736954 -0.23338054 -0.015883451
000050 32 03 66 3d 36 59 33 bd eb 4b 13 be 67 82 f2 3d
       0.05615539 -0.04378625 -0.14384429 0.118412785
000060 17 78 10 3e 6d a8 88 3d 7a 90 68 3e 58 86 92 be
       0.1410831 0.0667275 0.22711363 -0.2861812
000070 7d e7 38 3e d6 48 49 3e d2 9d a5 3e 8e 67 84 be
       0.18057056 0.19656691 0.3234697 -0.25860256
000080 ec 99 24 bd 0f 8c 9b be 6b 61 62 3e 52 42 f3 3d
       -0.040185854 -0.30380294 0.22107475 0.11877884
000090 f1 ce 99 3d 0d 5c 5c 3e d7 49 95 be 8f 05 58 3e
       0.07510174 0.2151949 -0.29157898 0.2109587
0000a0 37 88 2b 3e fb cc b2 3d 79 cf 52 3e 6c a5 8e 3e
       0.1675118 0.08730503 0.20586957 0.27860582
0000b0 85 13 9b 3e 9c 9e c1 bc 5e 1b b8 3c 6b 1b a6 be
       0.3028833 -0.023635201 0.022473987 -0.32442793
0000c0 d2 9b 3b be cd 94 79 be 33 7c 23 be 85 b5 87 be
       -0.1832116 -0.24373169 -0.15965347 -0.26505676
0000d0 44 c3 fa bd 63 e2 23 3e 47 ff 8f bc b4 a7 90 be
       -0.12244275 0.16004328 -0.01757778 -0.28252947
0000e0 2c 74 f0 bd 2f 43 c8 bd 1c 62 02 3e 30 6f 87 be
       -0.11740908 -0.09778439 0.12732738 -0.26452017
0000f0 98 2f 2b bc 8f d9 09 3e d8 50 2a be 6d 63 0a 3e
       -0.010448359 0.13461898 -0.16632402 0.1351449
000100 34 ca b0 bd 87 a1 63 3d 87 57 3e 3d 42 b5 91 3e
       -0.08632317 0.055573966 0.04647019 0.284586
000110 4c e9 5b be e9 82 57 bd 5f e7 a5 be ad 4e 56 be
       -0.21475714 -0.05261508 -0.32403085 -0.2092845
000120 30 85 16 3e a9 0a a6 3e e5 68 4c 3e d4 dc 0d be
       0.14699244 0.32430008 0.19961889 -0.1385377
000130 af 98 83 3e 1c 58 ce 3d 83 48 02 be 55 55 3e 3d
       0.25702426 0.10075399 -0.12722974 0.046468098
000140 9b ca 95 3e 05 9a 81 be 3e 5d 72 3e 39 ee 25 be
       0.29256138 -0.2531282 0.23668382 -0.16204156
000150 eb b3 2a be 2b f0 92 3e 68 83 7b be bd 78 a5 3d
       -0.16670196 0.2869886 -0.24561846 0.080796696
000160 aa 2a 8f bb 3f 7d 47 3e d0 b1 88 bd 00 c0 43 3d
       -0.0043690996 0.19481371 -0.0667454 0.047790527
000170 9d da 06 be 2b 91 9b 3e c5 36 86 3e ab d5 0f 3e
       -0.13169332 0.30384192 0.2621366 0.14046352
000180 9c 0c 18 3d bb eb f2 bd ee d4 9f 3e 1f 42 94 be
       0.0371214 -0.11861368 0.3121714 -0.28956696
000190 6a 01 3b bd e7 0d 26 3e d1 80 59 3e 57 2e 9c 3e
       -0.045655645 0.16216241 0.21240546 0.30504104
0001a0 1f 63 e0 bd e8 31 8e be 2c a9 b5 bc 40 f1 2b be
       -0.10956406 -0.2777245 -0.022175394 -0.16791248
0001b0 95 ec 55 3d 41 8b a6 3a c5 8a 1f 3c 63 fd 9b be
       0.052227575 0.0012706296 0.009737675 -0.30466756
0001c0 5e b3 38 bd c8 f3 82 be da a5 4a 3d 4c d2 06 3e
       -0.045092933 -0.25576615 0.049474575 0.1316616
0001d0 f1 67 a8 3e bb e5 18 be dc 5b 11 be 8e 68 60 3e
       0.328918 -0.14931385 -0.14195198 0.21914884
0001e0 06 bd 43 be f9 f9 72 3e f6 53 8f be a5 17 b9 bd
       -0.19115075 0.2372817 -0.27993745 -0.09037713
0001f0 4f 0a 8c be 7c 7f e5 3c 41 f3 6b 3e 71 b9 90 be
       -0.27351615 0.02801489 0.23042013 -0.2826648
000200 92 17 08 bd 54 54 0c 3e 1c 33 19 3e 50 b8 f6 3d
       -0.033225603 0.13704044 0.14960903 0.120468736
000210 74 17 8a be 4a d4 96 3e 58 56 2f 3e 99 9b 59 3e
       -0.26971018 0.2945884 0.17122781 0.21250762
000220 49 61 7a be d5 59 77 3e 26 8c 3b be cd 1f 53 3e
       -0.24451174 0.24155362 -0.18315181 0.206176
000230 73 9f 8b 3e b1 07 44 be 08 c9 41 3e 53 e2 84 be
       0.27270088 -0.19143559 0.18924344 -0.25953922
000240 c6 00 11 be 0c ac 8e 3e 72 f3 5c 3e 6a ca d6 bc
       -0.14160451 0.27865636 0.21577242 -0.026219565
000250 bb 3f ac 3e ac 1e 91 be 2f ee 85 be 06 7f 59 3d
       0.33642372 -0.28343713 -0.26158282 0.053099655
000260 ff da 5e 3e 55 2d ff 3d 78 b2 a7 be 9e 07 93 3d
       0.21763228 0.12459818 -0.32753348 0.07179187
000270 ce bf e2 bc 49 d7 f7 3d f2 9e 64 3d 02 21 af bd
       -0.02767935 0.12101609 0.055815645 -0.085512176
000280 42 85 76 3e 29 62 20 3d 9a 4a fd 3d bb aa 13 bd
       0.24074271 0.039156113 0.12367745 -0.036051493
000290 df 54 60 bc 8e 03 d3 3d d3 de a4 3e 03 08 89 3e
       -0.01369211 0.103034124 0.3220125 0.26763925
0002a0 37 9b 6c be fc 27 a3 3d dc 5c 13 3d 90 0c ab be
       -0.23106085 0.07966611 0.03597723 -0.33408022
0002b0 95 02 5d bd 58 aa cc bc c5 4f 18 3c fb e0 67 be
       -0.05395754 -0.02498357 0.009296362 -0.22644417
0002c0 ca 5a 8a 3d 66 23 9e 3e d5 46 5d be 70 b0 ef 3c
       0.06755598 0.30886382 -0.21609052 0.029258937
0002d0 53 ef 88 be 50 e0 91 3e d4 f2 56 3e 97 a6 2e 3e
       -0.2674509 0.2849145 0.20991069 0.17055736
0002e0 f5 10 ab 3e dd 42 03 3e 0a 8f 6e be fb 45 8f 3e
       0.33411375 0.12818475 -0.23296753 0.27983078
0002f0 3b d7 7a be 0c 19 94 be 0f ff 17 be c1 d9 45 3e
       -0.24496166 -0.2892536 -0.14843391 0.19321348
000300 e0 57 3d be c2 bf 50 3e 3f 63 87 be b2 30 2b be
       -0.18490553 0.2038565 -0.26442906 -0.16717795
000310 6a 9b 5e be 49 cf 9c 3e 3c 34 61 3e c4 fd 39 3e
       -0.21738973 0.30626896 0.21992582 0.1816321
000320 66 2d 84 be 15 25 22 3e f1 96 9b 3e b9 e6 dd 3d
       -0.25815886 0.15834458 0.30388597 0.108350225
000330 69 9b dc 3d f8 a2 7b be ee 0e 92 bb 00 8c 9a bd
       0.1077183 -0.24573886 -0.004457346 -0.07546234
000340 fd a1 34 bd 6e e5 38 be 31 4c 6b 3e a8 ef 24 be
       -0.044099797 -0.1805627 0.22978283 -0.16107047
000350 6a 05 9e be a0 45 09 be 71 9e 90 3e e9 44 df bd
       -0.30863506 -0.13405466 0.2824588 -0.109018154
000360 df 3f bd 3d 6a d0 ec 3c 1d db 2d 3d 47 fe 2a be
       0.09240698 0.028907973 0.04244529 -0.16698562
000370 9b 93 9e 3e a2 61 31 3e 13 cc 5f be 78 d5 ce 3d
       0.3097199 0.173224 -0.21855192 0.1009931
000380 14 07 8c bd fd 94 9d 3e 41 94 da bd 2e fc fc 3a
       -0.068372875 0.30777732 -0.106728084 0.001930123
000390 2a 47 34 3e 71 b1 c1 bd 43 6e 92 be df 41 8c be
       0.17605272 -0.094576724 -0.28599748 -0.27394006
0003a0 2b 77 56 be 7b 13 91 3d ef c7 52 3e ab 25 10 be
       -0.20943896 0.07083794 0.20584081 -0.14076869
0003b0 85 66 49 3e a8 bc 97 3e df eb 09 3e fd 98 f1 bd
       0.19668014 0.2963612 0.13468884 -0.11796758
0003c0 17 f5 42 3e 2e 72 4f 3e 4a a9 f7 bd e3 4f 31 be
       0.19038807 0.202584 -0.12092836 -0.1731563
0003d0 15 b3 05 be 54 64 3f 3c 83 a4 64 3e f9 93 a0 3e
       -0.13056596 0.011681635 0.22328381 0.31362894
0003e0 26 38 a2 bd 70 a3 a7 be ea 48 4f be b7 94 1e be
       -0.07920866 -0.3274188 -0.20242658 -0.15486418
0003f0 45 6b 05 be ae 25 7f 3e 43 13 84 ba 36 0c 1a 3d
       -0.13029201 0.24916717 -0.0010076541 0.0376093

weight f4 [32]
000000 26 57 80 3f da 44 7e 3f b3 f7 7f 3f 8b f9 7f 3f
       1.0026596 0.9932381 0.99987334 0.9999015
000010 e1 23 80 3f 58 ee 7f 3f e7 06 80 3f ba d9 7f 3f
       1.0010949 0.9997306 1.0002106 0.999416
000020 9d ef 7f 3f 0e 99 80 3f d1 3c 7f 3f 18 7e 7f 3f
       0.99974996 1.0046709 0.99702173 0.9980178
000030 f8 fc 7e 3f a7 c5 7f 3f 8a 99 80 3f ff aa 7f 3f
       0.9960475 0.9991097 1.0046856 0.99870294
000040 1e 42 7f 3f d4 65 7f 3f 7c fd 7f 3f fe 43 7f 3f
       0.9971026 0.9976475 0.9999616 0.9971312
000050 bb 6e 81 3f bc 72 7f 3f a6 82 80 3f 15 3d 7f 3f
       1.0111917 0.99784446 1.0039871 0.9970258
000060 50 79 80 3f e9 10 7f 3f b8 13 80 3f 5c be 7f 3f
       1.0037022 0.9963518 1.0006018 0.9989984
000070 ff 19 80 3f 09 28 80 3f a2 32 7f 3f 38 ba 7f 3f
       1.0007933 1.0012218 0.99686635 0.9989352

bias f4 [32]
000000 00 dc b3 b8 c0 22 30 ba 5c a8 a1 ba 06 25 f0 b9
       -8.576363e-05 -0.00067190453 -0.00123335 -0.00045803952
000010 31 06 0d 39 45 97 cb 39 8f 54 74 3a 5e 46 7d b5
       0.00013449114 0.00038831882 0.00093204615 -9.435224e-07
000020 13 eb 17 b8 b5 63 91 3a d5 f3 68 ba 30 32 a0 ba
       -3.6220135e-05 0.0011092337 -0.00088864315 -0.0012221988
000030 ae 8a 14 ba c4 1e 4d ba c2 f3 1e 3b 1e ba c4 39
       -0.0005666417 -0.0007824714 0.0024254178 0.000375227
000040 a7 11 c1 ba 85 64 d7 ba 8b 34 75 39 e7 3c 90 39
       -0.0014729992 -0.0016433155 0.00023384595 0.00027511196
000050 df 38 cd 3a 9d 40 70 ba b9 33 08 3a 53 57 04 ba
       0.0015657208 -0.00091649016 0.00051956956 -0.0005048413
000060 d2 9f ca 3a 15 7f 87 ba 15 b6 33 3a 24 72 95 39
       0.0015459007 -0.0010337556 0.00068554404 0.00028504536
000070 86 5b b1 38 47 de f4 39 30 4d ab b8 b6 48 ae b9
       8.457065e-05 0.00046704916 -8.168293e-05 -0.0003324204

running_mean f4 [32]
000000 f9 e6 ae 3c 74 9f 51 3c c5 1d a5 3c f5 60 d3 3c
       0.02135037 0.012794364 0.020155797 0.025803069
000010 60 9d 48 3e c6 88 27 be f0 46 ef bd 4f 88 3e bd
       0.19591284 -0.16360769 -0.11683452 -0.046516713
000020 61 a2 fd 3d 83 3e 9f 3b d9 47 e5 3d ca 72 1d bd
       0.12384487 0.004859747 0.111953445 -0.03843955
000030 67 01 b0 39 d0 b0 b9 bd 7e a2 87 3d 1a c7 1b 3d
       0.0003357038 -0.090669274 0.0662279 0.038031675
000040 cd d6 88 3d 00 b2 00 3d 0b c5 9f 3d 92 69 90 bd
       0.06681595 0.031419754 0.07801255 -0.07051386
000050 a3 15 e0 3d 6d e2 bd bd 52 28 b9 3d 63 18 ae bd
       0.10941627 -0.09271703 0.090408936 -0.08500745
000060 6a 11 32 3d d0 6d e8 bc f2 ee 08 3e 6e d2 66 bd
       0.04347364 -0.028372675 0.133724 -0.056353025
000070 89 42 4e 3d 8d f5 1f bb be 2e c2 bc 6d 57 a7 3d
       0.05035642 -0.0024407834 -0.023703929 0.08170972

running_var f4 [32]
000000 06 b0 0e 3c 39 a6 ad 3c 3e c3 0d 3c 63 8c 52 3c
       0.008708959 0.021197425 0.008652506 0.012850854
000010 5b 43 e8 3d 09 0d c6 3e fe 04 2b 3e a2 6b bb 3d
       0.11340972 0.3868182 0.16701123 0.09151389
000020 35 36 3e 3e 47 f9 13 3c 9d 24 8d 3e 6d fe 2f 3d
       0.18575366 0.0090316 0.27566996 0.04296725
000030 82 91 e5 3b 1a 35 2e 3e 33 01 e8 3d d4 0e 32 3c
       0.0070058713 0.17012444 0.11328354 0.010867793
000040 01 c2 9d 3c f8 97 b1 3b b5 5b 02 3e 4f 1e 9d 3d
       0.019257547 0.0054197274 0.12730296 0.076717965
000050 0c c2 89 3d 54 0c 1f 3e 2a d3 b5 3d ec d3 ec 3d
       0.06726465 0.15532047 0.08878167 0.115638584
000060 2a 61 cb 3c ae 72 ca 3d 2a 96 a3 3e 6c 92 8c 3d
       0.024826605 0.09885155 0.31950504 0.06863865
000070 54 35 ee 3d 44 6e 7b 3d 30 4f 4e 3d 3c 9e ee 3c
       0.11631265 0.061384454 0.050368488 0.029128186

weight f4 [64, 32, 1, 1]
000000 e7 3c f7 3d 95 96 d3 3d cc 83 e8 bd f7 26 2c be
       0.12072163 0.103314556 -0.11353263 -0.16811739
000010 8c c6 ec 3d d9 1f 1f 3e 84 42 0b 3e 18 2a 88 3c
       0.11561307 0.15539493 0.13599592 0.016621634
000020 6a d7 e5 bc 3b e2 78 3d a8 e5 73 3c 30 8a 43 3d
       -0.028056819 0.060762625 0.014886297 0.047739208
000030 20 04 62 3d 31 b1 f7 bd 5f 4e b5 bd 5d 92 f3 bd
       0.055179715 -0.120943435 -0.08852839 -0.11893151
000040 27 a3 0f be 31 72 98 bd 8a 10 26 be 7b 69 07 bd
       -0.14027081 -0.07443655 -0.16217247 -0.03305958
000050 dd fb 1d be 09 98 a2 3d 85 d5 05 be de 00 c4 bc
       -0.1542811 0.07939155 -0.13069732 -0.023926195
000060 89 9c da 3d 8d 1a 0f be 50 e0 2d 3e 67 31 db 3d
       0.10674388 -0.13974972 0.169801 0.10702782
000070 f2 e2 fa 3b 2e df 2e 3e d5 05 09 be 5a 2b 04 3e
       0.0076564485 0.17077324 -0.13381131 0.12907162
000080 d5 a9 b0 3d a5 d7 3a bc fb f0 0c be d4 77 e8 3c
       0.08626143 -0.011403953 -0.13763802 0.028377451
000090 68 60 a2 3d 23 08 19 be 34 a7 64 bd 30 e0 1d 3e
       0.07928544 -0.1494451 -0.05582352 0.15417552
0000a0 c8 58 5b 3d 83 d6 fb 3c 9b 6a 08 3d b1 c4 bc 3a
       0.053551465 0.030741936 0.033304792 0.001440188
0000b0 98 60 a9 3d 73 74 99 bd a7 08 3a bd 52 86 2d be
       0.08270377 -0.07492914 -0.045418408 -0.1694577
0000c0 11 40 26 be f8 b0 f4 bd d7 d3 8a 3d 66 5f 20 be
       -0.16235377 -0.119478166 0.067786865 -0.15661392
0000d0 be 27 37 3d 47 1c 19 be 94 a1 a3 bd 64 58 87 3d
       0.044715635 -0.14952193 -0.07989803 0.06608656
0000e0 ab 7f 06 3e 08 32 b2 bd cb 05 09 3b d9 d2 0a be
       0.13134639 -0.08700949 0.0020907994 -0.13556994
0000f0 a5 82 ab 3d 49 13 b0 3d e7 2b 57 3d 00 2f 6e 3d
       0.08374528 0.08597428 0.052532103 0.05815029
000100 25 11 b9 3d 6a 07 2f bd 3e 8d 09 be b6 f6 28 3e
       0.09036473 -0.04273168 -0.13432786 0.16500363
000110 3a a6 98 3d ed 90 da bd fa eb 1d bc 82 d7 24 be
       0.0745358 -0.10672174 -0.009638781 -0.16097835
000120 99 53 fc bd 93 c1 6d 3d 83 e9 ca bd d5 88 9d bd
       -0.123206325 0.058045935 -0.0990782 -0.07692114
000130 35 47 13 3d ab c1 05 bc ef 1d 23 be ce c3 30 3e
       0.03595658 -0.00816385 -0.15929388 0.17262194
000140 a3 bf 32 be 68 54 27 3e 74 b6 23 3d 71 ef eb 3d
       -0.17455916 0.16340792 0.039968923 0.11520279
000150 30 db 13 be 16 8e 29 be 83 95 ad 3d ad c1 64 bd
       -0.14439082 -0.16558108 0.08475783 -0.055848766
000160 4a 26 f9 3d d5 21 cb bc 1d 98 25 be 6c 63 c0 3d
       0.12165506 -0.024796406 -0.16171308 0.09393963
000170 b4 e9 a9 3d 37 49 07 3e a5 61 c0 bd 1a 96 08 3d
       0.082965285 0.13211523 -0.09393624 0.033346273
000180 cf 0f 17 3e fa 62 dd bd a9 c2 c2 bb 5d 98 bf bd
       0.14752124 -0.10809894 -0.0059436155 -0.09355233
000190 63 86 83 3b 99 dd 95 bd 2f 1b 2e be fa ea 19 3e
       0.004013823 -0.07317657 -0.17002557 0.15031043
0001a0 8b 59 2f be 10 05 1f 3e f8 b1 04 3e e4 84 26 3e
       -0.17124002 0.15529275 0.12958515 0.16261631
0001b0 76 24 fe bd 4d 10 39 3d 65 42 ab 3b e6 e8 94 bd
       -0.12409298 0.04518156 0.0052264207 -0.07270984
0001c0 36 c8 d6 3d d6 f7 1b bd 46 09 d1 3d 17 c9 d6 bd
       0.10487406 -0.03807815 0.10206847 -0.104875736
0001d0 b9 2e 33 3e 23 d3 0e be 93 c5 01 3e 7d 91 c0 bc
       0.17498292 -0.1394773 0.12673025 -0.023506874
0001e0 fb 77 9c bd 73 e6 26 3e 26 a3 31 be b8 d3 9f 3c
       -0.07640072 0.16298847 -0.17347392 0.019510135
0001f0 ad 1e 01 be 1f d3 0f 3e a0 70 1f 3e 7d 1b d6 bd
       -0.12609358 0.1404538 0.15570307 -0.10454462
000200 76 77 77 bd 11 f0 1c be 20 1f 0f be d5 e2 10 3d
       -0.06041666 -0.15325953 -0.13976717 0.035372574
000210 28 ca 2c be ae 54 f8 bd 8d b5 96 3c 8c d4 19 3e
       -0.16873991 -0.12125526 0.018397117 0.15022486
000220 31 72 18 3e cf 74 f1 bd 57 85 2b be 52 4b 0a be
       0.1488731 -0.117898576 -0.16750084 -0.13505295
000230 86 f6 ac 3d 11 71 1a be 6b c3 5d 3d 5c 2d ad ba
       0.08445458 -0.15082194 0.054141443 -0.0013212371
000240 1b 73 1f be 4a 8e d6 ba 8c f1 b3 bc e2 ae fd 3d
       -0.15571253 -0.001636931 -0.021965764 0.12386872
000250 64 8c cf bd 60 0e f7 bd 28 38 03 3e 4f 2f ae 3d
       -0.10134199 -0.12063289 0.1281439 0.08505117
000260 1f 54 88 bd 8e 9d 09 be 8d 3a a6 3d b9 8a 7f 3d
       -0.0665667 -0.13439009 0.081166364 0.062388156
000270 56 23 c3 3d 2c fb 1d be 7d 0f 89 3d c9 79 81 3d
       0.09528224 -0.15427846 0.06692407 0.06322057
000280 49 8c 0e 3d 3f b5 20 3d 7c 17 a6 3d 1f 9b 1c be
       0.034801755 0.03923535 0.08109948 -0.15293549
000290 ca 13 ca bb b8 5b 61 bd 1e 90 e5 bd 3a 7d 29 3e
       -0.00616691 -0.05501911 -0.11209129 0.16551676
0002a0 56 7d 85 3d c9 d0 92 3d a2 dc c3 bd bf bc 02 bd
       0.065180466 0.07168729 -0.09563567 -0.031918284
0002b0 71 07 25 3e 13 58 24 be b2 5d ad 3d 9f 1f 17 3c
       0.1611612 -0.16049223 0.084651366 0.009223848
0002c0 25 66 0e 3e c8 05 9f bd 00 ab 15 3e d1 45 b2 bd
       0.13906153 -0.077647746 0.14616013 -0.08704723
0002d0 03 04 35 bd 83 05 11 3e 8e d5 21 be 15 4b 7d bd
       -0.04419328 0.14162259 -0.15804121 -0.061839182
0002e0 5a 25 90 bc d8 1c 0e be 37 50 d3 3d a2 39 ec bc
       -0.017595936 -0.1387819 0.10318034 -0.028836075
0002f0 c7 69 c0 bd 62 c7 33 3c e7 f1 2c 3e 1b d0 a2 3d
       -0.093951754 0.01097283 0.16889153 0.07949849
000300 21 50 9c 3d a8 02 55 3d e5 b8 2e be 8b 6e 1d 3d
       0.07632471 0.052004486 -0.17062719 0.0384355
000310 5a ce 3d bc bd 9d 92 3d f8 4a c7 bd 36 1d e1 3d
       -0.011584843 0.071589924 -0.09731096 0.109919
000320 8a a9 b3 bd e6 32 2a be 9f 1b 92 bd d5 09 72 3c
       -0.087725714 -0.16620979 -0.071341746 0.014772852
000330 21 a6 97 bd 80 6b 20 be fe 16 24 3e eb c5 cd 3d
       -0.074047334 -0.15666008 0.16024396 0.100475155
000340 31 00 23 be dd 85 61 bd 82 98 1a bd a1 7b 85 3c
       -0.15918042 -0.055059303 -0.0377431 0.016294302
000350 d1 b7 7b 3d de aa 56 3d ab e0 19 bc 00 38 cd bd
       0.061454598 0.052409045 -0.009391944 -0.10020447
000360 3c 9c 11 3d bf 0a 6d bb e3 4e 0f bd 64 49 2e 3e
       0.035549387 -0.0036169735 -0.03498734 0.17020184
000370 45 48 61 bd c8 f1 db bd f3 d6 f0 bd c8 68 4c 3c
       -0.055000562 -0.107394755 -0.11759748 0.012476154
000380 11 ee 11 3e 44 cc e8 3d 74 80 96 bd 26 97 c2 3d
       0.14250971 0.113670856 -0.07348719 0.095014855
000390 c6 53 e6 bd 7a 20 7e bd c7 51 b7 3d 6d 84 c2 bd
       -0.11246447 -0.06204269 0.08951145 -0.094979145
0003a0 82 1e 42 bc 2d 02 31 3e 9e ab 16 be f5 63 97 bd
       -0.011848094 0.17285986 -0.14713904 -0.07392112
0003b0 ad 08 62 3d 25 d7 15 3e 2b bd e7 bc a5 58 db bd
       0.055184055 0.14632852 -0.028288445 -0.10710267
0003c0 c1 ac 34 3e 8d a3 ae 3d 7a 9b 0b be 92 8e 33 bc
       0.17644025 0.085272886 -0.13633528 -0.010959284
0003d0 42 d3 cb 3d fc 29 16 be 04 0f 7d 3d 61 cb b9 bd
       0.099524036 -0.14664453 0.0617819 -0.090719946
0003e0 63 37 9c bd cf 88 be bd 6d 1b 9d 3c c7 63 8d bd
       -0.07627752 -0.09303438 0.019178117 -0.06903797
0003f0 d8 38 21 3e 15 23 15 3e 27 1c 0f bd ca 36 db bd
       0.1574434 0.14564164 -0.034938958 -0.107038096

weight f4 [64]
000000 0d e5 7f 3f da fe 7f 3f 46 f3 7f 3f ad f0 7f 3f
       0.9995888 0.9999825 0.9998058 0.9997662
000010 fc e4 7f 3f a2 f1 7f 3f 6a 0d 80 3f e5 00 80 3f
       0.9995878 0.9997808 1.0004094 1.0000273
000020 3a 0d 80 3f 3c 03 80 3f 8f fe 7f 3f 4a 03 80 3f
       1.0004036 1.0000987 0.999978 1.0001004
000030 fc f6 7f 3f 24 ea 7f 3f d6 f1 7f 3f ce fc 7f 3f
       0.99986243 0.99966645 0.9997839 0.99995124
000040 2d d9 7f 3f 7c ed 7f 3f 32 a9 7f 3f 35 fb 7f 3f
       0.9994076 0.9997175 0.99867547 0.99992687
000050 e8 e9 7f 3f da f2 7f 3f 34 f5 7f 3f 35 f7 7f 3f
       0.9996629 0.9997994 0.99983525 0.99986583
000060 b3 05 80 3f 80 ed 7f 3f ef d7 7f 3f 49 f1 7f 3f
       1.0001739 0.9997177 0.99938864 0.99977547
000070 8c f8 7f 3f 2f 0f 80 3f 36 09 80 3f f3 b3 7f 3f
       0.9998863 1.0004634 1.0002811 0.99883956
000080 21 e5 7f 3f 33 d9 7f 3f 3d fc 7f 3f 47 00 80 3f
       0.99959 0.99940795 0.9999426 1.0000085
000090 fe 00 80 3f 03 d7 7f 3f 9c b4 7f 3f 49 e7 7f 3f
       1.0000303 0.99937457 0.99884963 0.9996229
0000a0 5a 02 80 3f 95 fa 7f 3f 40 02 80 3f ad fd 7f 3f
       1.0000718 0.9999173 1.0000687 0.99996454
0000b0 f1 dd 7f 3f a8 01 80 3f d2 db 7f 3f 84 f0 7f 3f
       0.9994803 1.0000505 0.99944794 0.9997637
0000c0 43 e6 7f 3f 9f f2 7f 3f 51 f7 7f 3f 98 ee 7f 3f
       0.99960726 0.99979585 0.9998675 0.9997344
0000d0 8b e7 7f 3f 91 fa 7f 3f db ed 7f 3f 4a e8 7f 3f
       0.9996268 0.9999171 0.99972314 0.9996382
0000e0 71 fc 7f 3f 47 dc 7f 3f 93 ee 7f 3f ff dc 7f 3f
       0.9999457 0.9994549 0.9997341 0.9994659
0000f0 7b f3 7f 3f 3d db 7f 3f d0 f1 7f 3f 39 00 80 3f
       0.99980897 0.99943906 0.9997835 1.0000068

bias f4 [64]
000000 40 21 5b 39 a8 63 43 39 40 b0 b2 b7 38 9e 96 38
       0.00020897854 0.00018633774 -2.1301326e-05 7.182028e-05
000010 22 9b 4b b9 bc 4a 04 38 de 1a ad 39 17 94 0a b8
       -0.0001941738 3.1540854e-05 0.0003301715 -3.3039683e-05
000020 f1 74 d4 39 d4 a2 df 39 e4 5c a1 38 95 8a 46 b8
       0.0004052292 0.0004265519 7.6943805e-05 -4.7335943e-05
000030 b0 9a af 39 81 21 7b b9 02 58 97 b6 3a be 8d 39
       0.00033493852 -0.00023949707 -4.510396e-06 0.00027035346
000040 90 81 14 b7 2a 3d 20 b9 e9 d5 64 ba b0 70 24 b9
       -8.851654e-06 -0.00015281574 -0.0008729385 -0.00015682238
000050 fb 3d 84 38 4d c2 5a b9 23 c8 ae b8 0f e0 18 b7
       6.305795e-05 -0.00020862483 -8.334245e-05 -9.112074e-06
000060 87 13 a3 39 0a 7d 69 b7 a7 34 19 39 27 d9 ac 39
       0.00031104332 -1.3916995e-05 0.00014610832 0.00032968188
000070 08 f7 1d b9 d9 2c ad 39 44 5a 00 b9 d1 d9 58 ba
       -0.00015064713 0.00033030545 -0.00012240658 -0.0008272203
000080 4d 54 84 b7 8d a7 fa b9 e5 17 db b9 46 0c 11 37
       -1.5774882e-05 -0.0004780855 -0.00041788738 8.645531e-06
000090 1b 58 07 3a 33 be c2 39 f1 23 94 ba 37 4a b4 b9
       0.000516297 0.00037144273 -0.0011302215 -0.0003438757
0000a0 38 a6 aa b9 4d b7 bc 39 f9 eb c1 38 d4 4f a5 b9
       -0.0003254877 0.00035994724 9.2469105e-05 -0.0003153073
0000b0 31 c6 54 39 ef a7 31 39 06 3a 26 37 15 82 70 39
       0.00020291728 0.00016942596 9.907881e-06 0.00022936643
0000c0 c6 c4 21 b9 2e 71 92 39 f2 be 47 b8 92 91 a9 b8
       -0.0001542746 0.00027931615 -4.762313e-05 -8.0856626e-05
0000d0 f1 82 1c b9 4b f9 c5 36 23 c2 0f b8 a5 1a a8 b7
       -0.00014926099 5.900079e-06 -3.427466e-05 -2.0039568e-05
0000e0 e4 41 3b b7 80 97 91 b9 5c 65 80 b7 ca d2 eb 39
       -1.116141e-05 -0.00027769431 -1.5305988e-05 0.00044979743
0000f0 a8 78 76 b8 de 38 38 b9 93 cd aa 38 0d e7 4e b9
       -5.876334e-05 -0.00017568792 8.144523e-05 -0.00019731764

running_mean f4 [64]
000000 6c 79 27 3c e4 a0 89 bd a5 6f 54 bd ad be a8 3c
       0.01022182 -0.067201406 -0.051864285 0.020598734
000010 83 f6 0a be ab f4 12 3d cc 82 ad bd d3 4e 40 3b
       -0.135706 0.035877865 -0.08472213 0.0029343858
000020 00 2a e6 bd ac 25 12 be cd 98 be bd 41 53 4f 3e
       -0.112384796 -0.14272183 -0.09306488 0.20246603
000030 b6 79 b9 3d 98 f7 46 be bd a5 79 3c b2 65 16 bc
       0.09056418 -0.19430387 0.015237269 -0.0091795195
000040 f1 e9 94 bb be 85 b6 bc 92 93 f2 3b 27 79 c8 bd
       -0.0045444896 -0.02228057 0.0074028457 -0.09788733
000050 f4 95 24 3e b4 85 75 3c 1c f2 8e bc 60 da cd 3b
       0.16072828 0.014985491 -0.017449431 0.006282136
000060 42 b5 84 3d 88 b1 a6 bc e7 a9 2d be 52 8b 45 3d
       0.06479885 -0.020348325 -0.16959344 0.04822857
000070 2d be 1e bc 3b cb fb bd bc 5f cb bd 60 b2 da bd
       -0.009688896 -0.122946225 -0.09930369 -0.106785536
000080 d0 3e b4 3c 43 b3 62 be 38 20 c5 bd 30 3a 81 be
       0.022002608 -0.22138695 -0.09625286 -0.25239706
000090 71 85 34 3e ea 8b 02 3e 98 57 2d bd 10 1a d8 bb
       0.17629029 0.12748685 -0.042319864 -0.0065949038
0000a0 71 ed 90 3d 8c b1 cd bd 5c e1 8c bd ff c3 3f bd
       0.07076538 -0.1004363 -0.068789214 -0.046817776
0000b0 28 cb 42 3d f3 09 00 3e 6b 6e 8f bd 83 15 ab bd
       0.047557026 0.12503795 -0.070034824 -0.083537124
0000c0 58 52 82 3e cb d4 db 3d 54 da b1 3c ce 54 ae 3c
       0.25453448 0.107339464 0.021710552 0.021280672
0000d0 de ad 3a 3e 6e 5d fb 3c 78 f4 31 3d b6 a0 57 3d
       0.18230388 0.0306842 0.043446034 0.0526435
0000e0 c0 90 58 bc a7 f3 9d 3b f1 ef fb bc c4 77 0b be
       -0.013218105 0.0048203054 -0.030754061 -0.13619906
0000f0 55 49 f1 3c fd 0d 59 bd 67 2a b8 bd 01 08 4f 3d
       0.029453913 -0.052991856 -0.089924626 0.050544742

running_var f4 [64]
000000 36 92 15 3e cf e1 04 3e 0b 76 21 3e cb e5 38 3e
       0.14606556 0.12976764 0.15767686 0.18056409
000010 6c 9b 87 3d 9e c1 94 3d ec a1 b9 3d 83 60 dd 3d
       0.06621441 0.07263492 0.09064087 0.10809424
000020 a7 46 c8 3d b3 f7 92 3d 92 3c 1b 3e 06 24 4a 3e
       0.09779101 0.07176151 0.15159824 0.19740304
000030 8a 7d 0e 3e 72 60 d1 3d 8f a9 02 3e 7d fb cb 3d
       0.13915077 0.102234736 0.12759994 0.09960077
000040 f6 3a bb 3d 7a 4d b0 3d cb d7 ec 3d 6c 2d 65 3d
       0.09142105 0.086085275 0.11564597 0.05595152
000050 ad f5 e0 3d fe 6e 09 3e e9 bb 0d 3e 64 fb 9b 3d
       0.10984359 0.13421246 0.13841213 0.07616308
000060 e7 76 ce 3d 5b 65 a5 3d d2 ce fc 3d 13 e3 0b 3e
       0.100812726 0.08075973 0.12344135 0.1366084
000070 c8 a5 14 3e 39 53 a2 3d ff ba 8b 3e bc 4b b5 3d
       0.14516366 0.0792603 0.27291104 0.08852336
000080 8b ea c3 3d 67 92 f5 3d 7c d0 61 3d 50 58 9f 3d
       0.0956622 0.11990815 0.055130467 0.07780516
000090 b5 23 d0 3d d3 7b 21 3e de fa b5 3d b4 71 f4 3d
       0.101630606 0.15769891 0.0888574 0.1193575
0000a0 55 92 e4 3d 2b 85 d3 3d b0 04 b3 3d 2f 1d e7 3d
       0.11160723 0.10328134 0.087411284 0.11284863
0000b0 45 31 83 3e 65 f8 06 3e 16 0f fc 3d 88 76 f1 3d
       0.25623527 0.13180692 0.12307565 0.11790186
0000c0 26 4f 22 3e ae 1b c0 3d 85 32 9e 3d dd 92 14 3e
       0.15850505 0.093802795 0.077244796 0.14509149
0000d0 e4 83 2b 3e f6 42 9b 3d 90 70 c1 3d b1 d7 09 3e
       0.16749531 0.07581131 0.09445298 0.13461186
0000e0 5b 14 1d 3e 2c ac 53 3e 8e 77 f9 3d 6e a4 fb 3d
       0.15339796 0.20671147 0.12181006 0.12287222
0000f0 6f b6 03 3e 14 77 8b 3d 73 37 1a 3e 89 6a ae 3d
       0.12862562 0.06809822 0.15060215 0.08516414

weight f4 [64, 1, 3, 3]
000000 0b d3 f3 3d 5a cd 10 3d 23 d8 94 3e 67 2d 41 be
       0.119054876 0.03535209 0.2907115 -0.18864976
000010 76 bc 7c 3e e5 8c 18 bd 43 38 81 3d 37 91 19 3e
       0.24681267 -0.037243742 0.06309559 0.14996801
000020 4d 4e 60 3e 40 80 67 3d 8d ac 24 be db b6 9a 3d
       0.2190487 0.056518793 -0.16081448 0.07554408
000030 e8 77 87 bd 47 df 8e be 3f 7c e0 3c 61 db 35 3e
       -0.06614667 -0.27904722 0.027402995 0.17759468
000040 32 1c 8c 3d 88 c1 9f 3e a4 fa 21 3c a2 ac cb bc
       0.06841315 0.3120234 0.009886418 -0.024862591
000050 0f b7 e9 bd e7 14 83 3d a2 eb 2a be 99 92 2d bd
       -0.11411869 0.06400471 -0.1669145 -0.042376135
000060 0d 0d 68 3e e8 32 89 be 30 93 4b 3e 52 b5 e8 bd
       0.22661228 -0.2679665 0.19880366 -0.11362709
000070 b6 11 1a 3e 89 58 68 be 3f 92 90 3e f8 60 63 3e
       0.15045819 -0.22690023 0.28236577 0.2220496
000080 d6 15 a8 bc fe fc 34 be 50 af 4d 3e 75 a0 85 3e
       -0.020518225 -0.17674634 0.20086408 0.26098981
000090 87 7a 2e 3e 55 c5 94 be 93 b5 c9 3b e7 24 99 be
       0.17038928 -0.29056802 0.0061556785 -0.29910967
0000a0 2b be 49 3e 9e 1a 8a 3e d7 1e 75 bd f4 ae 2f 3d
       0.1970145 0.26973432 -0.059843864 0.042891458
0000b0 ac 42 88 be fc a8 69 bd 1d 5c 46 be 68 e4 57 be
       -0.26613367 -0.05704592 -0.19371076 -0.21083224
0000c0 34 ce 75 bd 2b 49 88 be a3 d6 47 3c d9 7f 83 3e
       -0.060011104 -0.26618323 0.0121971695 0.25683478
0000d0 36 a3 40 3c 1f 5e 64 be 99 47 13 3e d6 51 3c 3e
       0.0117576625 -0.2230153 0.14382781 0.18390593
0000e0 89 9a 2d 3e ab a3 21 be 02 cd 19 bc 00 77 54 bd
       0.16953482 -0.1578509 -0.009387257 -0.0518713
0000f0 1a dd 54 be 7f 82 9c 3e 2e 56 a0 3e 51 b0 e1 3d
       -0.20787469 0.3056831 0.3131575 0.11019958
000100 53 75 91 bd 46 ac 37 be 6a 67 9b be 1c a7 90 bd
       -0.07102456 -0.17936811 -0.30352336 -0.070631236
000110 be 3d 72 bd b5 39 0f 3e 5d 0f 49 3e 2d 30 a5 3e
       -0.059140913 0.13986857 0.19634767 0.32263318
000120 80 dc 4f 3d 5a 19 00 bc 88 db a9 be 18 0e 65 3e
       0.050747395 -0.007818544 -0.33175302 0.22368658
000130 43 a4 89 3d 7f e4 36 3d 19 cc db 3d ab cf a0 3d
       0.067207836 0.044651505 0.10732288 0.078521095
000140 ea e9 2b bd 6a 8b ff bb 43 43 23 be 9b c7 5c 3e
       -0.041971125 -0.007798602 -0.15943627 0.21560518
000150 bd c7 33 3d 56 9d 61 3e 7c af 4e bd 35 0f a5 be
       0.043891657 0.22032675 -0.050460324 -0.32238165
000160 56 75 88 bd 55 13 cc bd d2 29 92 be f7 af a3 be
       -0.06663005 -0.09964625 -0.2854753 -0.31970188
000170 45 b6 29 bd d3 ae eb bd ae f9 6e bd d0 eb 9d bd
       -0.04143359 -0.115079544 -0.05834358 -0.07710993
000180 8a 83 a4 be 9d 58 b8 ba 68 2f 38 3e fa 46 a6 be
       -0.32131606 -0.0014064495 0.17986834 -0.32476026
000190 99 0c 6b 3e 4f 7d 10 3e 7f 6e a8 3d f4 82 02 3e
       0.22954024 0.14110301 0.082242005 0.12745267
0001a0 e3 6d f3 bd 6f fb 9d bd f7 48 9f be 38 a9 e1 bd
       -0.118861936 -0.07713973 -0.31110355 -0.11018604
0001b0 24 63 99 bd 2e 81 74 bd 28 65 7c be ed 12 9e 3e
       -0.07489613 -0.059693508 -0.24647963 0.30873814
0001c0 6d 3a 95 be 48 d0 0c 3d 64 9a 25 3e 99 41 06 3e
       -0.29146138 0.03437832 0.16172177 0.13110961
0001d0 b4 b0 5a 3d a0 a1 69 3d a5 7b 88 be ca cc 80 be
       0.053391173 0.057038903 -0.26656833 -0.25156242
0001e0 ad b0 91 3e d6 0e bb 3c 42 c2 00 3c af ea 80 be
       0.28455105 0.022834223 0.007858815 -0.2517905
0001f0 c4 aa 54 3e 9d 22 eb 3d 77 28 05 bd ac 61 ce bd
       0.20768267 0.11481211 -0.032509293 -0.10077223
000200 55 e0 e1 3d 96 f6 8c 3e 16 ec 83 3e 97 64 9d 3e
       0.11029116 0.2753188 0.25766057 0.30740806
000210 30 84 07 3e 06 1c 14 3e 6a 56 90 be f8 d3 22 3e
       0.1323402 0.14463815 -0.2819093 0.15901172
000220 3e c1 73 be 2a 36 6e bc db ed 42 3e fb 78 bc 3d
       -0.23804185 -0.014539281 0.19036047 0.09202763
000230 f2 4d 97 bd f2 79 1f 3d b5 5a f9 3d c4 88 2b 3e
       -0.07387914 0.038934655 0.12175504 0.1675139
000240 88 81 1a 3e ab 68 92 be bd 5c 17 3d 41 37 72 3e
       0.15088475 -0.2859548 0.036953676 0.2365389
000250 d6 15 af 3d 9f c2 ff 3d 44 87 97 bd 7f 49 86 be
       0.08549087 0.12488293 -0.07398847 -0.26227948
000260 e0 61 a7 3e 1b fc 95 be fe 2e 87 3e b6 02 fb bc
       0.3269186 -0.29293904 0.2640304 -0.030640941
000270 2f a5 02 3e 81 29 07 be 41 b3 4e 3e 51 a3 21 be
       0.12758325 -0.13199426 0.20185567 -0.15784957
000280 dd 60 52 be 4f 07 95 be 62 d3 68 3e d2 53 4a be
       -0.20544763 -0.2910714 0.22736886 -0.19758537
000290 03 c9 20 be d9 57 8e 3e 6a 35 e6 bc 0d 1b 9d 3e
       -0.1570168 0.27801397 -0.028101642 0.306847
0002a0 10 9f be 3c 0e 5a 57 3e 52 c2 35 3e 07 20 45 be
       0.023269206 0.21030447 0.17749909 -0.19250499
0002b0 c6 49 00 3e cc cb a8 be 4f f5 d4 3d ff 71 c4 bc
       0.12528142 -0.32967985 0.103983514 -0.023980139
0002c0 a7 41 69 be 08 cc 71 be 89 8c 9e be 9c 6a fb 3c
       -0.2277895 -0.23612988 -0.30966595 0.030690484
0002d0 4d 70 12 be 18 cb 01 3e 97 ea ca bd 7f 31 89 be
       -0.14300652 0.1267513 -0.09908026 -0.26795575
0002e0 a8 63 0c bc 44 af 89 be 89 ec 53 be 06 4b 88 3e
       -0.008568682 -0.2689153 -0.206957 0.26619738
0002f0 27 9a fc bd b8 37 36 3e 64 fe 52 3e d5 ba 92 bd
       -0.1233409 0.17794693 0.20604855 -0.07164542
000300 ce 5f 9b 3e fd 4e 25 3d 01 a7 c6 3d 33 e0 1f be
       0.3034653 0.040358532 0.09699822 -0.15612869
000310 c8 62 15 3e c2 ee 39 3e ce 16 8a be c8 cd ca 3d
       0.14588463 0.18157485 -0.26970524 0.09902531
000320 bd d6 6e 3e e0 d0 96 be 89 da b9 bc 35 2d 15 bc
       0.23324104 -0.29456234 -0.022687213 -0.0091050165
000330 0f 77 54 3e da c7 2c 3e 19 92 31 3e 4b ae 0e be
       0.20748542 0.16873112 0.17340888 -0.13933675
000340 5f 75 49 3e 21 31 08 3e 86 d5 a2 3e 6c 3d 52 bd
       0.1967368 0.13299991 0.3180353 -0.051328108
000350 24 aa fa 3c f2 5c 41 3e ec 78 c1 bd 95 8f 4d be
       0.030598707 0.18883112 -0.09446892 -0.20074303
000360 37 34 38 be 7a a8 26 3e 5c 70 08 be 55 ad 1c be
       -0.17988668 0.16275206 -0.13324112 -0.15300496
000370 9c 2f 23 bc 8c a2 d8 bd 3b b1 c4 bd 6f 12 d9 3d
       -0.009960081 -0.10577878 -0.096041165 0.10599219
000380 17 da 62 3e cd 2f 2a 3d 86 3f ec bb 57 16 9a 3e
       0.22153507 0.041549493 -0.007209721 0.3009517
000390 af 56 5d 3e c0 4b 52 be a3 fb 82 be 09 b7 6a be
       0.21615098 -0.20536709 -0.2558261 -0.22921385
0003a0 e1 ac 7b 3d 24 77 40 3d e9 63 37 bd b2 d2 16 3e
       0.061444167 0.04698862 -0.044773016 0.14728811
0003b0 a4 12 83 bd ca d5 87 3d d8 fa 10 3e 36 31 83 3e
       -0.0640004 0.06632574 0.1415819 0.25623482
0003c0 30 48 ce 3d 1c fa 0c be f8 50 02 be d9 65 a5 be
       0.100723624 -0.13767284 -0.127262 -0.32304266
0003d0 d1 d7 8f 3d 32 08 a9 3e 05 2b 8d be 05 54 e8 bd
       0.070235856 0.33014065 -0.27571884 -0.113441505
0003e0 63 a8 96 3d b3 7f ce 3c 14 c7 9b be 2f 54 26 be
       0.07356336 0.025207376 -0.30425322 -0.16243051
0003f0 72 3a 38 be cc 01 0d 3d e5 9c 33 be ca 86 ee 3d
       -0.17991045 0.03442554 -0.1754032 0.11646803

weight f4 [64]
000000 54 96 7f 3f 22 0b 80 3f 08 97 7f 3f 55 00 80 3f
       0.9983876 1.0003397 0.9983983 1.0000101
000010 0b 08 80 3f cb e6 7f 3f 5a 3c 80 3f fc 45 7f 3f
       1.0002455 0.9996154 1.0018418 0.9971616
000020 35 12 80 3f e8 d2 7f 3f 37 ee 7f 3f 16 9d 7f 3f
       1.0005556 0.9993119 0.9997286 0.9984907
000030 c3 b8 7f 3f 65 15 80 3f 25 b4 7f 3f 8a 45 7f 3f
       0.998913 1.0006529 0.99884254 0.99715483
000040 b9 a0 7f 3f 3a f3 7f 3f 48 b9 80 3f e9 0d 80 3f
       0.9985462 0.9998051 1.0056543 1.0004245
000050 57 e9 7f 3f 30 a2 7f 3f bf e4 7f 3f df ea 7f 3f
       0.99965423 0.99856853 0.99958414 0.9996776
000060 c9 9a 7f 3f 13 f0 7f 3f fc 55 7f 3f 4d df 7f 3f
       0.9984556 0.999757 0.99740577 0.99950105
000070 d3 dd 7f 3f df 87 80 3f 00 b7 7f 3f 5c 5f 80 3f
       0.9994785 1.0041465 0.9988861 1.0029101
000080 c5 ba 7f 3f 84 93 7f 3f a0 42 80 3f a5 0f 80 3f
       0.9989436 0.99834466 1.0020332 1.0004774
000090 73 13 80 3f df 02 80 3f 69 be 80 3f 0a 1d 80 3f
       1.0005935 1.0000876 1.0058109 1.0008862
0000a0 b2 4b 80 3f bb 15 7f 3f 23 f6 7f 3f e4 c9 7f 3f
       1.00231 0.99642533 0.9998495 0.99917436
0000b0 d1 dc 7f 3f 0a fb 7f 3f e5 41 7f 3f 8f 14 80 3f
       0.99946314 0.9999243 0.9970992 1.0006274
0000c0 22 46 80 3f 4b 0d 7f 3f 0e f3 7f 3f 28 cb 7f 3f
       1.0021403 0.9962966 0.9998025 0.99919367
0000d0 49 8c 7f 3f a0 d8 7f 3f 26 e7 7f 3f 37 03 80 3f
       0.99823433 0.9993992 0.9996208 1.0000981
0000e0 20 ee 7f 3f b0 a8 7f 3f 89 72 7f 3f 99 a2 7f 3f
       0.99972725 0.9986677 0.9978414 0.9985748
0000f0 47 d1 7f 3f c6 32 80 3f d5 12 80 3f 30 46 80 3f
       0.99928707 1.0015495 1.0005747 1.002142

bias f4 [64]
000000 be dc fa b9 b1 80 7d 39 a0 cd e0 b9 c6 e9 ba b8
       -0.00047848182 0.00024175901 -0.00042877812 -8.912715e-05
000010 cf 8e d7 39 1c 58 2b ba fa 64 59 3a b2 96 ae b9
       0.00041114396 -0.00065362616 0.000829294 -0.00033300143
000020 26 fa 10 3a 6e a1 93 b9 04 58 34 3a 98 36 12 ba
       0.0005530439 -0.000281583 0.00068795704 -0.0005577593
000030 4f 79 a5 b9 6b b8 de 39 3b 85 06 b9 55 de c4 b9
       -0.00031561634 0.00042480542 -0.00012828868 -0.00037549683
000040 24 66 bd b9 b1 e6 61 ba f4 0e 41 3a b3 61 a7 39
       -0.0003612499 -0.00086174445 0.0007364594 0.00031925514
000050 31 2a 24 38 b4 10 d4 b9 31 9f 95 b9 36 2a 30 b9
       3.913994e-05 -0.00040448236 -0.00028538101 -0.00016800393
000060 56 5b 6c b9 d4 d4 69 b9 20 2e 25 ba 09 5b e4 b9
       -0.00022540739 -0.00022299896 -0.00063011236 -0.00043555375
000070 71 32 99 38 75 e8 58 3a 79 36 f6 b8 a9 e3 4d 3a
       7.305004e-05 0.0008274385 -0.000117403404 0.00078540534
000080 52 12 7e b9 9b 7f 80 ba 5e cc db 39 26 4b 3a ba
       -0.00024230152 -0.0009803654 0.000419232 -0.0007106535
000090 79 c7 f7 39 3b ee e1 38 9e 96 99 3a 00 bc 8c 39
       0.0004726013 0.0001077321 0.0011717861 0.00026842952
0000a0 39 4a 0e 3a 65 af 72 ba 8d ca 89 39 7e 95 70 b9
       0.000542793 -0.0009257703 0.00026281588 -0.00022943874
0000b0 a5 0c 7a b9 e0 e1 f6 38 2f 6f 0d ba f6 fe 1e 3a
       -0.00023846568 0.000117722666 -0.0005395291 0.0006065214
0000c0 d6 81 f2 39 ba af 73 ba 67 07 2a b8 e0 be 2f b9
       0.00046254572 -0.00092958997 -4.0538052e-05 -0.00016760407
0000d0 a6 70 0e ba a3 d0 7b 3a 3f 11 4c b9 71 fa e4 b8
       -0.0005433656 0.00096059794 -0.0001946138 -0.000109185356
0000e0 d8 94 aa b9 9f c4 29 ba 96 7c 6f ba b7 4b d7 b9
       -0.00032535824 -0.0006476137 -0.0009135691 -0.00041064408
0000f0 9c 24 08 ba c3 f1 40 38 6a 3a 30 3a 02 c0 80 36
       -0.00051934435 4.6001525e-05 0.00067225716 3.83705e-06

running_mean f4 [64]
000000 2e 71 83 3e ca ba c7 bc 13 44 97 bd 87 fd 69 3e
       0.25672287 -0.02438106 -0.07386031 0.2285062
000010 de 10 d8 bd c2 a0 97 be 97 46 68 3e f3 ff 9c bd
       -0.10550092 -0.29614836 0.22683178 -0.07666006
000020 2e 15 8c 3d 1b 23 39 bd 4c cf c2 be 54 03 ea bd
       0.06839977 -0.045199495 -0.3804878 -0.11426416
000030 3b cf c6 bb 40 0c 89 bc 5c d6 9d 3e 4c eb 1e 3e
       -0.0060671843 -0.016729474 0.30827606 0.15519446
000040 4e f3 bf 3d 40 44 28 be fa db 98 3e e7 6a d0 be
       0.093725786 -0.16432285 0.2985533 -0.4070656
000050 36 2b 49 be 19 d7 b4 3e b5 31 1d 3c 9e 7d 18 3e
       -0.1964539 0.35320356 0.009594371 0.14891669
000060 3c 2b c4 bd b4 2b d9 bc 42 34 ce 3d 16 5c 2a be
       -0.09578559 -0.026510097 0.10068561 -0.1663669
000070 77 a7 a9 be 46 64 aa bc 41 b5 91 bd 4d 59 31 3d
       -0.33135578 -0.020799767 -0.071146496 0.043298054
000080 ff be 35 3f 8c 08 9d 3d 2c c4 ec 3e 4c c4 d5 bc
       0.7099456 0.07667646 0.46243417 -0.026094578
000090 9d 56 37 bb 41 82 19 be 6f d2 57 3d dd cc b4 bd
       -0.002797521 -0.14991094 0.05269092 -0.08828137
0000a0 67 4e 63 3d 7a 93 aa 3e d5 44 ca 3e 1f 7b 97 be
       0.055494692 0.3331564 0.3950564 -0.2958612
0000b0 1b b7 c2 be 45 cb 06 3d 80 7c 12 3d 0b c0 2d be
       -0.38030323 0.032908697 0.035763264 -0.1696779
0000c0 53 b7 a4 3e 85 31 04 3e d7 34 7c be 06 4d 28 3e
       0.32171115 0.12909515 -0.24629532 0.16435632
0000d0 a5 43 4c bd 7a a4 36 be 6c 42 8b be a9 0e 2d be
       -0.0498692 -0.1783618 -0.27199113 -0.16900124
0000e0 b8 4c 14 3e bd b0 00 be a5 49 00 3e 5b 84 fd be
       0.14482391 -0.1256742 0.12528093 -0.49515042
0000f0 8e 43 95 be 22 c4 f5 3c d8 ed 03 be ec 0c fe 3d
       -0.29153103 0.03000075 -0.12883699 0.124048084

running_var f4 [64]
000000 40 38 09 3e 42 fd 5f 3e 94 e3 b2 3d b3 fb 88 3e
       0.13400364 0.21873954 0.08734813 0.2675453
000010 ae b8 c1 3d 7a 23 f4 3e 72 50 2f 3e 30 7a 7d 3e
       0.09459053 0.47683316 0.17120531 0.24753642
000020 de 30 10 3e aa 8e a7 3c 04 85 8a 3e 05 4f 16 3e
       0.14081141 0.02045377 0.27054608 0.14678581
000030 00 92 33 3e a4 fe 04 3d e7 ea 41 3e 65 02 14 3e
       0.17536163 0.032469407 0.18937264 0.14454038
000040 e8 c7 ac 3d 9c cf 25 3e a1 3b 39 3e 0a b5 89 3e
       0.084365666 0.16192478 0.18089153 0.26895934
000050 a9 64 fb 3e 73 1e 89 3e cf 48 66 3e c1 14 e1 3d
       0.49100235 0.26781043 0.22488712 0.109902866
000060 19 ed 0d 3e 7f f8 95 3d da 62 a7 3c 11 ca 64 3e
       0.13859977 0.073227875 0.020432878 0.22342707
000070 f8 27 b5 3e a0 b9 22 3d 85 e7 ea 3c cd ec 24 3d
       0.35382056 0.039727807 0.02867485 0.040264893
000080 f0 53 08 3f 58 0d 26 3d c8 b7 5c 3e 23 35 cb 3c
       0.5325308 0.04054007 0.21554482 0.024805611
000090 14 df 2d 3e e8 27 e9 3d fe cd bb 3d 21 1e 4e 3d
       0.16979629 0.11384565 0.09170149 0.050321702
0000a0 ff 2c e7 3d 82 00 01 3f bf 08 16 3f 71 0b 4b 3e
       0.11287879 0.503914 0.58607095 0.19828583
0000b0 66 f2 f2 3e 6e 7b a7 3d 09 5a f0 3d fe 1c 16 3e
       0.4745056 0.08177839 0.11735923 0.14659497
0000c0 cd 67 b5 3e 1c ad a8 3e 07 9f 3e 3e 27 58 11 3d
       0.35430756 0.32944572 0.18615352 0.03548446
0000d0 9c 5b 5a 3e de 5a 5e 3e 0f f3 be 3e ba 95 96 3e
       0.21324009 0.2171435 0.37294814 0.29411107
0000e0 39 d7 ee 3c f0 fd 4a 3d 11 1d a3 3d 45 01 91 3e
       0.02915536 0.04955858 0.07964528 0.2832128
0000f0 e5 4a 83 3e ba 80 ce 3d 42 f9 17 3e 95 5b 2d 3e
       0.25643077 0.100831464 0.14841178 0.16929467
