saved_models/BasicCNN.pth (torch, 408940 bytes, 20 tensors)

weight f4 [32, 3, 3, 3]
000000 ba 92 bc bd 26 b9 56 3e 4f 45 24 3e a4 1f b3 3d
       -0.09207673 0.20969066 0.16042064 0.08746269
000010 e9 e1 e2 bd 2c f6 3e 3e 37 fe 59 bd 34 6b f5 bc
       -0.11078245 0.18648595 -0.053220954 -0.029958345
000020 65 92 1e 3d 42 5f 87 bd e0 95 26 be dc 0b 58 bc
       0.03871383 -0.06609966 -0.1626811 -0.013186421
000030 ac f9 21 3d ce 25 68 3c 1d 1b 19 be 15 56 3a be
       0.039544746 0.01416917 -0.14951749 -0.181969
000040 e4 f7 33 3e e2 cd a5 3d f3 94 08 be 4b 6c 20 be
       0.17575032 0.0809591 -0.1333807 -0.1566631
000050 e6 64 31 bd 44 84 30 3e 3d 5a 0e 3e 21 b6 40 be
       -0.043309115 0.17237955 0.1390161 -0.18819477
000060 ce e8 cd bd 44 51 b1 bd 2d 4c 07 bd e6 12 ee bd
       -0.100541696 -0.08658078 -0.03303163 -0.11624698
000070 4b 52 b0 bd af 28 ba bd 04 fc 08 bc f2 e2 55 bc
       -0.08609446 -0.09089791 -0.008360866 -0.013054596
000080 c7 05 26 3e d3 d6 06 3e ad 34 92 3d 15 85 31 3e
       0.16213141 0.13167886 0.07138953 0.17335923
000090 bc 4d e0 bd 66 8f 08 3e 09 08 0e 3e e3 fc 5d 3e
       -0.10952327 0.13335952 0.13870253 0.216785
0000a0 fd d1 28 3e e0 41 4e 3d 5c c9 92 bd 97 54 48 be
       0.16486354 0.050355792 -0.071673125 -0.19563518
0000b0 bf 19 18 be c5 88 1b 3e 21 95 cf 3d c8 82 75 3d
       -0.14853571 0.15188892 0.10135866 0.059939176
0000c0 f6 b1 2a 3e 04 bc 79 bd 66 f9 6e 3e ae ed 84 bd
       0.16669449 -0.06097032 0.23337325 -0.06490646
0000d0 fb a4 97 bd 37 9f 0e 3e ab 7b 12 3c e5 07 3b be
       -0.074045144 0.13927923 0.008940618 -0.1826473
0000e0 c0 86 f3 bc 40 59 a4 bd 16 66 ae 3d eb f2 67 bd
       -0.02972734 -0.080248356 0.08515565 -0.05662815
0000f0 a6 87 38 be 70 f6 1a be 48 3c a8 3d 0e 09 01 bd
       -0.18020496 -0.15133071 0.08214623 -0.031502776
000100 26 56 f4 bd 51 d5 34 be e9 b0 94 bd e2 62 0f bd
       -0.11930494 -0.17659499 -0.072603054 -0.03500641
000110 02 60 c6 3d 72 b4 27 be c8 0c 29 3d 20 e7 b7 bd
       0.09686281 -0.16377428 0.041271955 -0.089796305
000120 6a 5d f7 bd 02 34 1d bc fe a5 54 3c 1f a0 2e 3b
       -0.12078364 -0.009594919 0.012979029 0.0026645733
000130 6f 10 63 bc bf b8 fc 3d 8f 67 3e 3b 15 f5 37 be
       -0.013858899 0.12339925 0.0029053425 -0.17964585
000140 b4 98 7c bc a6 b6 b0 bd c2 19 2c be 8d 41 9c bd
       -0.015417267 -0.086285874 -0.16806701 -0.0762969
000150 de ef 51 3e 07 f4 0b be a0 e8 29 be c7 ad 2e 3e
       0.20501658 -0.13667308 -0.16592646 0.17058478
000160 7d 76 20 be 3b ea 1e be 31 a0 99 bd 5d f0 15 3e
       -0.156702 -0.1551904 -0.07501257 0.14642473
000170 8f b7 d7 bd 56 35 4f 3e e0 14 33 3e 36 f2 13 3e
       -0.10533058 0.2023519 0.17488432 0.14447865
000180 33 47 2e be a6 8a 24 be 62 73 cb 3d 7b 86 f0 3d
       -0.17019348 -0.16068515 0.09934117 0.117444
000190 ba a4 9f 3c 7b d2 87 bd 8a 66 15 be f6 5b c8 3d
       0.019487727 -0.06631943 -0.14589897 0.09783165
0001a0 59 ce 1a be 06 8d a6 3d 79 f1 88 bd 10 cf b5 3d
       -0.15117778 0.08132367 -0.06686682 0.08877385
0001b0 f0 c5 2f be c4 73 a3 bc 9c 2e 4f 3d dc 80 3e bd
       -0.17165351 -0.019952662 0.05058156 -0.04650961
0001c0 b5 ac 35 3d a3 df 3e be 55 c8 20 bd cc b2 1f 3e
       0.04435416 -0.18639998 -0.03925355 0.1559555
0001d0 df 2d 19 3d f1 ab 13 3e 72 06 0c be fa c5 f4 bd
       0.03739726 0.14421059 -0.13674334 -0.119518235
0001e0 75 82 e5 3d 51 27 06 be a3 44 10 3d dd dc 20 3e
       0.11206523 -0.13100936 0.035221707 0.15709253
0001f0 a0 1c 5d 3d b4 70 c6 bd 1a 98 9c 3d a2 65 40 bd
       0.053982377 -0.09689465 0.076461986 -0.046971925
000200 85 9a 72 bd 84 78 b4 3d 15 00 f4 bd 8f 8e c2 3d
       -0.059229393 0.08812049 -0.11914078 0.09499847
000210 04 cd da 3d 5a c2 b0 3d aa 48 33 3e 04 b2 78 bd
       0.10683635 0.086308196 0.17508188 -0.060716644
000220 1c 10 a1 bb 5c 3c 85 bd 59 5f 11 be 0c 53 39 3d
       -0.0049152505 -0.06505653 -0.14196528 0.045245215
000230 be eb ec 3c 12 89 7a bd 67 cb b7 3d 1b 6c 36 3e
       0.028921004 -0.061165877 0.08974343 0.17814676
000240 56 03 d8 3d 3c ab 05 3e 72 57 b3 3c 31 1d 7a 3d
       0.10547511 0.13053602 0.021892283 0.061062995
000250 e4 a2 78 3c 9d 6d 3c be c0 a4 81 bd c2 74 13 3c
       0.015175555 -0.18401189 -0.06330252 0.009000005
000260 24 af 1a be 78 44 4b 3e c3 a2 06 3e fe 6e 69 3e
       -0.15105873 0.19850338 0.13148026 0.22796246
000270 96 0b c2 bb 66 1c a9 bc 34 aa 5d 3e 78 4a 86 bb
       -0.0059217913 -0.020643424 0.21646959 -0.004098233
000280 54 3c cd 3d ee 41 ed bc d9 d7 50 3d c1 c2 03 3e
       0.10021272 -0.028962102 0.0509871 0.12867261
000290 be fb 16 3e 95 ef 28 3c 73 b8 49 be 54 31 42 bc
       0.1474447 0.010311027 -0.19699268 -0.011852581
0002a0 cf 87 c4 3d 51 72 11 be de d1 27 be 76 aa 86 3d
       0.09596216 -0.14203764 -0.16388652 0.065754816
0002b0 a6 c3 2a 3e f1 a8 bd 3d a5 95 11 3e 33 b9 2b 3e
       0.16676196 0.09260739 0.14217241 0.16769867
0002c0 0e 42 05 3c 2d 5c 0c 3d 09 f2 05 3d 33 11 19 be
       0.008133424 0.034267593 0.032701526 -0.14947967
0002d0 ae fb b2 bd 1d a6 c6 bd 49 d6 23 3e 0a 52 14 bd
       -0.0873941 -0.09699652 0.15999712 -0.03621105
0002e0 52 27 d7 bd f4 dd 3b 3e 90 2a 09 3e cb a3 f2 3d
       -0.10505547 0.18346387 0.13395143 0.11847647
0002f0 90 87 48 be e6 23 b8 bc 5c 1e 69 3d 63 e8 1a be
       -0.19582963 -0.022478055 0.05691372 -0.15127711
000300 3b 75 b6 3d 5e eb 6d bd 20 6a 3f 3e a6 d1 fb bd
       0.08909079 -0.05808579 0.18692827 -0.12295847
000310 cc 0f 22 3e 52 6e fe 3d cb 88 92 bd cf 73 23 be
       0.15826339 0.12423386 -0.071549974 -0.15962146
000320 0b 5a 6c 3c 69 a6 1c be 81 25 59 bc d2 e8 36 3e
       0.014425765 -0.15297855 -0.0132535705 0.17862251
000330 ab bf 1d be 57 85 1c be be fe 06 be a5 c5 48 be
       -0.15405147 -0.1528524 -0.13183114 -0.19606645
000340 0d b2 2b be e9 c8 bd bd 7b 98 3d be ab 03 32 3d
       -0.1676714 -0.09266836 -0.18515198 0.04346053
000350 b3 8a fd 3b 9f 61 24 bb 65 df 24 3e 4f 3f c1 3d
       0.0077374815 -0.00250826 0.16100843 0.09435903
000360 04 fa 5a 3d bf b2 0c 3e f6 9a cb 3d c0 11 c6 bd
       0.05346109 0.13740061 0.09941666 -0.09671354
000370 ee f2 b2 3d 3e d0 fa bd a1 f8 6f 3d 7f bf c8 bd
       0.087377414 -0.1224675 0.05858672 -0.0980215
000380 56 bb ef 3d d2 2e 89 bd 1a e1 e6 bd eb df fa bd
       0.11705653 -0.066983834 -0.112734035 -0.1224974
000390 63 ce 02 3d c1 7a d1 3d 15 9d ed 3d 7a e4 24 3d
       0.031935107 0.102284916 0.11602227 0.040256955
0003a0 60 cd 2c 3c ff 01 32 3e fe a3 3f be ca e8 fe 3d
       0.010547012 0.17383574 -0.18714902 0.12446745
0003b0 6b de 91 bd 47 a0 0a 3e cb dd 06 be 52 46 2f 3e
       -0.07122501 0.13537703 -0.13170545 0.17116669
0003c0 42 e2 86 bc c1 03 c0 bd 27 82 53 3d 84 c3 00 3d
       -0.01646531 -0.09375716 0.051637795 0.03143646
0003d0 46 8e d4 bc 7b 23 f9 3d 25 92 07 3e ae 71 2a 3e
       -0.025946748 0.121649705 0.13239343 0.16644928
0003e0 c0 d3 2b 3e 70 d1 cc 3d 8e 7f 0e be 54 1d d6 bd
       0.16779995 0.100008845 -0.13915846 -0.10454813
0003f0 55 24 84 bd e4 50 16 3e 2d b5 21 3e c0 d7 eb 3c
       -0.06452242 0.14679295 0.1579177 0.028789401

bias f4 [32]
000000 18 4a c4 3d 04 86 e1 3d 68 66 2a be 8f d6 93 bd
       0.09584445 0.110118896 -0.16640627 -0.07218658
000010 4f 49 7c bd d5 d9 c0 3d 3a df e4 bd 3f 7d 71 bd
       -0.06159335 0.09416548 -0.111753896 -0.058957335
000020 80 1c 6f 3d 41 d3 08 be df 8d 12 3e f8 93 9a bd
       0.05837679 -0.13361837 0.14311932 -0.07547754
000030 af 7b 50 3d e9 4d 2a 3e 7d 2e ce bc 4f 08 f1 bd
       0.050899204 0.16631283 -0.025168652 -0.11769163
000040 fb f8 11 3e 24 08 11 3e 08 52 92 3d 94 07 44 bd
       0.14255135 0.14163262 0.071445525 -0.04785879
000050 c7 3f c5 bc bb d6 2c be 88 92 3b 3e fa 40 38 3b
       -0.024078263 -0.16878788 0.18317616 0.00281149
000060 71 db 62 3c 19 39 22 be cb 3e ec 3d 04 8b f9 bd
       0.013846264 -0.15842094 0.11535414 -0.12184718
000070 99 50 2b 3e bf e9 50 3d 72 8e 50 3d 15 24 19 be
       0.16729964 0.051004168 0.050917096 -0.1495517

weight f4 [32]
000000 3d d6 77 3f a9 3d 81 3f 50 bd 7b 3f b2 ff 77 3f
       0.96811277 1.0096942 0.9833574 0.96874535
000010 f5 c1 87 3f be 3f 81 3f b8 ad 82 3f 31 b5 7a 3f
       1.0606066 1.0097578 1.0209265 0.97932726
000020 8c e7 85 3f 12 ed 86 3f 21 0f 7c 3f a1 1d 72 3f
       1.0461287 1.0541098 0.98460585 0.9457646
000030 68 e8 7c 3f 6a 49 7e 3f 6a 5b 7a 3f bd 8b 81 3f
       0.98792124 0.9933077 0.97795737 1.012077
000040 85 4d 7a 3f 04 35 82 3f bc 41 7f 3f a4 e3 82 3f
       0.97774535 1.0172429 0.9970968 1.022572
000050 db 1a 84 3f c6 8b 7c 3f 2f 8b 87 3f fd b6 7b 3f
       1.0320696 0.9865078 1.058935 0.9832609
000060 57 c1 82 3f 3e f5 82 3f 52 42 85 3f d3 af 7d 3f
       1.0215253 1.0231092 1.0410864 0.9909641
000070 5b 45 84 3f cc 5e 84 3f f3 d8 82 3f 68 a8 78 3f
       1.0333666 1.034143 1.0222458 0.9713197

bias f4 [32]
000000 5a 5e bf 3c 4c 21 0b bd 78 aa 2f 3c 3b f3 6b 3d
       0.02336042 -0.0339673 0.010721795 0.05760501
000010 02 49 27 3c a3 bc ce bc 74 84 0e bd 77 87 61 3c
       0.0102102775 -0.025236433 -0.034794286 0.0137652075
000020 11 a5 2e bd c2 c9 4a bd f3 0f 6e bc c2 d9 94 3d
       -0.04263789 -0.049508817 -0.01453017 0.072680965
000030 3c aa bc 3d f7 c1 10 3d 45 97 af 3d cb 9e fc bc
       0.09212157 0.03534123 0.08573774 -0.030837437
000040 52 ac c9 3b 9b 8f dd 3c 19 f6 4f 3d a7 14 21 3d
       0.0061545754 0.027046015 0.050771806 0.039326336
000050 5c 64 c9 bc 06 39 b0 bb 2f 8b c8 bc c0 62 bf 3d
       -0.024583988 -0.0053778915 -0.02448043 0.09345007
000060 5c 34 f8 bc a7 e3 93 3b 0f 3f 9d bc f2 91 b9 3c
       -0.030298404 0.0045132223 -0.019195108 0.0226526
000070 f8 6d 3a bd 75 56 f3 bc 6c 51 de bc 52 e3 95 3c
       -0.04551503 -0.029704312 -0.027138434 0.018296871

running_mean f4 [32]
000000 0f d5 fd bd 8a ae 7a 3f f9 89 97 bf c5 f5 bd be
       -0.12394153 0.97922575 -1.1838981 -0.3710157
000010 5e fe 04 3e 86 10 37 3f e0 65 a4 3e ae 62 1b bf
       0.12987658 0.7150959 0.32108974 -0.6069745
000020 9c 9b cb 3e 43 3d 5d 3f a4 a2 bd 3d 06 39 66 be
       0.39767158 0.864216 0.09259537 -0.2248269
000030 f0 a0 ba be b0 1b ff be 85 33 8d be 94 4a 1f 3f
       -0.3645091 -0.4982581 -0.2757837 0.6222317
000040 33 78 66 bf 89 61 6c 3f b5 98 9c 3d d0 cf ad 3b
       -0.9002716 0.92336327 0.07646314 0.005304314
000050 e4 bb 89 3f bc 40 92 bf e1 10 48 3f 92 a1 5c be
       1.0760465 -1.1426005 0.78150755 -0.21546009
000060 de 67 25 3f 5e 5b bb bc 97 3d 56 3f cd af ad bf
       0.64611614 -0.022870716 0.8368773 -1.3569275
000070 c3 44 5d 3f a6 b0 8d 3e f5 8f 3c 3e b9 5f 2c be
       0.8643305 0.27673835 0.1841429 -0.1683339

running_var f4 [32]
000000 17 38 64 3c 10 34 a0 3d 8a 7d e9 3d e8 be 81 3c
       0.0139293885 0.0782243 0.11400898 0.015838102
000010 6e e2 88 3c 06 35 54 3d 01 b7 12 3d ec bc 90 3d
       0.016709533 0.05180838 0.035819057 0.07067284
000020 92 f3 56 3c 92 67 d8 3d c3 86 12 3c 3a 88 45 3c
       0.013119595 0.105666295 0.0089432625 0.012056405
000030 94 78 fa 3c 2e b6 46 3d 51 25 88 3c ab 53 5d 3d
       0.030575074 0.048513584 0.016619356 0.05403487
000040 64 86 ec 3d 3e ff 7a 3d 9b 81 bc 3b 68 b5 a9 3b
       0.115490705 0.061278574 0.005752755 0.005179096
000050 80 79 04 3e 6d c8 c8 3d d9 af 2d 3d 25 8d e2 3c
       0.12936974 0.09803853 0.04240403 0.027655194
000060 bd 02 34 3d c5 9c fc 3b 36 a8 76 3d ac 21 2a 3e
       0.043947924 0.007709118 0.060219012 0.16614407
000070 f5 9f 43 3d f9 17 2d 3c 8f 07 ba 3b d6 67 08 3c
       0.04775997 0.010564798 0.0056771706 0.008325538

weight f4 [64, 32, 3, 3]
000000 53 99 e2 bb ea 14 00 3b 74 4e 67 bc 6b 90 26 3d
       -0.0069152503 0.0019543716 -0.014117826 0.04066507
000010 e2 d2 50 3c db 4f 0c 3d 68 cc 76 3c 63 bf ca bc
       0.012745591 0.034255844 0.015063383 -0.024749463
000020 f6 d6 3f bc 4d 8e af bb e5 b8 e1 3c 28 44 7c bc
       -0.0117089655 -0.0053575397 0.027553985 -0.015397109
000030 a2 13 f5 bb 8b d2 af bc 95 d5 b5 3c 62 79 84 bc
       -0.007479147 -0.0214627 0.02219657 -0.016171161
000040 e8 89 a9 bc 27 59 89 bc 75 fe 18 3d 0a b3 1d 3d
       -0.020695642 -0.016766144 0.037352044 0.038500823
000050 69 ea 46 bc 1d 42 4e 3d 19 fb 0f 3d 1d 97 b9 bc
       -0.012140849 0.05035602 0.035151575 -0.022655064
000060 33 81 d9 3a 4d 25 4e bc 6a a7 b7 3c ae 14 d3 3a
       0.001659429 -0.012582135 0.022418696 0.0016104185
000070 37 fc 12 3d 77 ca f6 3c f4 bf ca 3c c1 b5 d8 3c
       0.035885062 0.03012584 0.024749734 0.026453855
000080 6a 73 ab bc eb bb 05 bd b5 24 2a 3c 0d 56 bd bc
       -0.020929057 -0.032649916 0.010384728 -0.023112321
000090 51 76 a4 3c 3a 24 a4 3c c5 c5 b5 ba e3 db c6 3b
       0.020075949 0.020036805 -0.0013868144 0.006068693
0000a0 47 57 41 bc ad f1 1f 3d 0c ed 77 bd 3d 76 03 3d
       -0.011800594 0.03904884 -0.0605288 0.032095183
0000b0 94 31 29 3c 2f 61 ab 3c 4d 8e 02 bb 13 8c b3 3d
       0.010326762 0.020920364 -0.0019921244 0.087669514
0000c0 ea a1 83 3d af 36 00 3d 07 b2 cc 3c 82 6f 28 3d
       0.06427367 0.03130215 0.024987234 0.041121967
0000d0 a6 91 bd bc 6d 36 65 3d 20 cf 8d 3d f6 83 08 3c
       -0.02314074 0.055960108 0.069242716 0.008332243
0000e0 ea 4d 65 3c 11 5f 2b 3d f1 bb 76 bc 9a da 3b 3d
       0.013995627 0.04183871 -0.015059457 0.04586277
0000f0 b8 ed 92 3c f1 c2 43 3c b2 ed 36 3c 19 a6 16 3d
       0.017935619 0.011948333 0.011165069 0.036779497
000100 09 a5 af 3c 7b ef ce ba a4 43 ba bc 42 50 4f 3c
       0.021441 -0.0015787923 -0.022737332 0.012653412
000110 b4 7d ae 3b 0e ba 1e bd d9 a0 0a 3d 92 0e cc 3c
       0.0053250436 -0.038751654 0.033844803 0.024909291
000120 b3 a1 91 3c 23 02 59 bc 21 22 38 bd 24 e9 39 bd
       0.0177773 -0.013245138 -0.044954423 -0.045388356
000130 4e 3e e2 bb f0 30 65 bd 46 a2 3b bc ed 1a 31 bd
       -0.0069044 -0.055954874 -0.011452263 -0.04323857
000140 46 40 d9 bd 25 86 92 bc 85 e1 63 bc e2 2c 76 3d
       -0.10607962 -0.01788623 -0.0139087485 0.060101397
000150 db 8d e4 39 6c 08 04 bd 33 01 90 3c c6 aa ac bc
       0.0004359324 -0.032234594 0.017578697 -0.021077525
000160 e1 45 83 bd 4c 64 5d bd 1d 98 0a 3d 33 0f 73 bc
       -0.06409813 -0.05405073 0.033836473 -0.014835167
000170 52 36 13 3c d0 ce 13 3d a7 02 b6 3c fb 98 d8 39
       0.008985119 0.036085904 0.022218062 0.0004131271
000180 42 91 45 3d ce 57 bb 3c 15 85 4f bc 23 52 01 3c
       0.04823423 0.022869017 -0.012666007 0.007893118
000190 fa f4 ae bc b1 73 df bc 41 d2 3b 3c 3d 77 79 3d
       -0.021357048 -0.027276846 0.011463703 0.06090473
0001a0 bc ef 43 3a 4a 49 dc 3b e9 cc 3e bb b4 79 83 3d
       0.0007474383 0.006722604 -0.0029113835 0.064196974
0001b0 35 57 a9 3c 18 dd 5b 3d 45 75 5a bc ba 39 ca 3b
       0.020671466 0.05367765 -0.013333623 0.0061714323
0001c0 2b 86 fd bb 93 d4 08 3d e5 dd 68 bc 93 ba c5 3c
       -0.0077369413 0.03340585 -0.01421306 0.024136817
0001d0 ed 6d ef 3c 31 d2 0c bd 8c b6 3a bd 5e 84 10 bd
       0.029227221 -0.03438014 -0.045584247 -0.035282485
0001e0 51 fc 69 3c 81 7b 10 3c 08 b3 fa 3c 63 d1 03 3d
       0.014281348 0.008818508 0.030602947 0.03218211
0001f0 83 35 a8 bc fd 92 a2 3c 79 8c 01 3d 66 e2 02 bd
       -0.020533329 0.01984548 0.031628106 -0.03195419
000200 ae 49 d5 3c 63 b3 f4 3b 8a 6a 22 bc fd 30 0b bd
       0.02603611 0.0074676736 -0.009913096 -0.033982266
000210 c5 ea 02 3d b2 44 42 3d 2c 51 16 3d 1a 59 95 3c
       0.031962175 0.047428794 0.036698505 0.018230963
000220 17 fc 9d 3d 1d a5 6e ba e3 c6 b6 bb c6 bf 7c 3d
       0.07714098 -0.0009103583 -0.0055779084 0.061706327
000230 51 59 37 bd a3 17 4a bc cc e2 bd bc 30 c4 55 bd
       -0.044762913 -0.012334737 -0.023179434 -0.052189052
000240 ba 0f 0e bd c0 c8 c8 bc be 5b 2a 3d 5a 27 c3 3c
       -0.034682967 -0.024509788 0.0415914 0.023822475
000250 2e 81 f2 3c f1 68 81 3b 65 d6 c7 3a a2 08 b7 bc
       0.029602613 0.0039492776 0.001524639 -0.022342984
000260 42 95 bb 3c c9 30 b4 3d 72 6d 95 3d cb 1e b3 3b
       0.02289832 0.087983675 0.07296266 0.0054663173
000270 da 18 10 bd c8 75 b4 bc 3a 21 6e bc 9b 09 47 bd
       -0.03517995 -0.022028819 -0.014534289 -0.048593145
000280 6c 4c 31 b9 ed ed 69 3c c8 0c 47 bc 0c 87 92 3c
       -0.00016908505 0.014277917 -0.012149043 0.017886661
000290 6b ad 33 3c 90 33 d4 bc 30 70 33 3b 37 79 10 bc
       0.010966639 -0.025903493 0.0027380101 -0.008817962
0002a0 9f c0 6a 3c 91 39 e5 bc 1a 29 51 bd 75 a4 dc bd
       0.014328151 -0.027981551 -0.051064588 -0.10773555
0002b0 98 40 62 bd b4 c2 81 bd bc db 74 bd fa 9d 1b 3d
       -0.055237383 -0.06335965 -0.059779868 0.037992455
0002c0 f3 29 89 bd d0 ea 90 bd a8 e7 aa bc 0e 15 aa 3c
       -0.06697454 -0.07076037 -0.020862415 0.020761993
0002d0 47 ce 76 bb 37 c4 c1 bc 74 6d ac 3d f7 9a 35 3c
       -0.0037659572 -0.023653133 0.08419314 0.01108431
0002e0 61 ee df ba 87 a5 2a 3d 5b 3b e6 3c ff a3 8b bd
       -0.0017084592 0.041661765 0.028104475 -0.06818389
0002f0 6b 15 a0 3c b1 e3 de bb ce 2a 3c bd 31 71 14 3d
       0.019541463 -0.0068020453 -0.04593926 0.03624076
000300 4e 34 81 bc 23 f4 c7 bc be 52 74 bd 6b af 82 bc
       -0.015772011 -0.024408406 -0.05964922 -0.015952786
000310 af cf be 3c 98 ec 08 3d 8a 05 34 3d 57 56 c5 3c
       0.02329239 0.03342876 0.043950595 0.024089022
000320 ee bc 7b 3d 09 77 ba bc 77 fe 96 3c bb 73 87 3c
       0.061459474 -0.022761839 0.018431885 0.016534677
000330 c7 77 dc bc e6 c8 a5 bd 5c 5f 96 bd 8e 60 e0 3c
       -0.026912583 -0.08094959 -0.07342407 0.02738979
000340 18 84 3b 3d 0a b3 9b bc 18 d1 e5 bc bc 13 a3 3b
       0.04578027 -0.01900627 -0.028053805 0.0049767178
000350 29 dc f6 3c 62 99 ed 3c a2 81 a6 3c 63 7a b7 bc
       0.030134277 0.029003803 0.020325486 -0.022397226
000360 b4 61 5e 3d 09 3d a8 bc 79 87 a1 bc 36 94 54 bb
       0.054292396 -0.020536916 -0.019717919 -0.0032436973
000370 db cb 80 3d 62 90 80 3d 95 50 23 bd cf 0c 3d 3b
       0.06288882 0.06277539 -0.03987177 0.0028846746
000380 6a 3c 18 bd b7 2e 8d 3d d8 74 2f 3d 28 0b 27 3c
       -0.03716699 0.06893676 0.04283604 0.010195531
000390 f2 59 01 3d 3e 41 61 bc 7b 39 16 bd a1 67 28 3d
       0.03157992 -0.013748465 -0.03667591 0.041114453
0003a0 40 d2 e0 3c b2 b9 e4 3c d0 3d 52 bc 2e 22 e8 3c
       0.027444005 0.027920578 -0.01283212 0.02833661
0003b0 79 82 0c 3d 89 6c 10 3d 32 15 5d bc a7 12 c6 bc
       0.034304116 0.035259757 -0.013493823 -0.024178816
0003c0 14 fb 1e bd 03 97 97 bd 9e 2d 11 bd a3 58 e3 bb
       -0.038813666 -0.0740185 -0.035443895 -0.0069380566
0003d0 eb d7 76 3d 23 e9 67 3b 93 a1 c4 bb 1e fc 92 3c
       0.06026451 0.0035386763 -0.0060007065 0.017942484
0003e0 32 19 21 bc 04 cc 1d ba 5a 86 1f 3d d8 a3 04 bc
       -0.009832667 -0.00060194754 0.038946487 -0.008095704
0003f0 a5 9c 94 3d 97 b2 98 3d 4d 89 19 bd e1 2d 01 bd
       0.0725644 0.07455938 -0.037484456 -0.031537894

bias f4 [64]
000000 35 22 f8 3b 3e f0 61 3c c5 67 ee 3c 18 eb 45 3c
       0.007572437 0.013790188 0.029102216 0.0120799765
000010 bd 02 37 bc ad 05 31 bd b8 8f 69 3c d0 cb 0a bd
       -0.011170086 -0.043218303 0.014255457 -0.033885777
000020 6b 2a 87 bc 80 44 15 bd b4 09 6d 3c 9e 1f 05 3d
       -0.016499719 -0.03644228 0.014467645 0.032500856
000030 e1 9a 39 bc 02 62 6d bd 2c c5 81 3d 23 ff ff 3b
       -0.01132843 -0.057954796 0.06336436 0.007812397
000040 e4 20 29 3d 24 a8 04 bd 36 bd ca bc a3 a5 c6 3c
       0.041291133 -0.032386914 -0.024748426 0.024248904
000050 92 d5 7c bc 6f e9 05 3d 07 fe 1f 3d 74 36 3e ba
       -0.0154317785 0.032693323 0.03906062 -0.0007256039
000060 0c c3 03 bd 77 3f 86 b9 d9 a2 36 bd b4 4c 3d 3c
       -0.032168433 -0.00025605757 -0.044588897 0.011553932
000070 8b a8 30 bb 43 e4 e7 bc 36 44 8a bc 1a 3f af bc
       -0.0026955928 -0.028307086 -0.016878229 -0.021392394
000080 80 aa 8e bc 5b fa 19 bd ba 36 f6 3c b8 18 10 bd
       -0.017415285 -0.037592273 0.030055393 -0.035179824
000090 39 18 10 3b 8b f2 99 bc f7 1a 01 3d 02 c7 d2 ba
       0.0021987094 -0.018792411 0.031519856 -0.0016081037
0000a0 a5 45 01 bd b3 43 4a bd 60 d6 6a bc d3 94 7e bd
       -0.03156056 -0.04938097 -0.014333338 -0.06215365
0000b0 03 2b aa 3a d1 11 0f 3d 1a c1 5d bc 29 0a 9f bc
       0.0012982789 0.0349291 -0.0135348085 -0.019414024
0000c0 c8 2a 59 3d 79 45 95 3c 44 53 e8 bc 1b e8 ae bc
       0.053019315 0.018221604 -0.028360017 -0.02135091
0000d0 ea 55 b9 3b c4 cb 3f bd 5e ef 91 bc 0c 87 80 3c
       0.0056559937 -0.046825185 -0.017814334 0.015689395
0000e0 f5 80 8e 3b 14 56 00 bc e1 b4 27 bd 3d cb bb bc
       0.004348869 -0.007833023 -0.040943984 -0.02292406
0000f0 5d 2a df bc f9 95 6d 3d d5 c3 85 3d f5 40 d0 3c
       -0.02724188 0.058004353 0.065314926 0.025421599

weight f4 [64]
000000 7f 92 76 3f f0 16 86 3f 5d 42 77 3f c1 e9 83 3f
       0.96317285 1.047575 0.9658564 1.0305711
000010 4f 38 85 3f 7b 28 83 3f 65 a1 7f 3f e3 2a 73 3f
       1.0407809 1.0246729 0.99855644 0.94987315
000020 e7 5e 7b 3f 16 df 80 3f 18 a5 79 3f cc b8 80 3f
       0.98191684 1.006808 0.9751754 1.0056396
000030 e0 bd 82 3f e1 db 7e 3f 05 ce 71 3f d6 4d 79 3f
       1.0214195 0.9955426 0.94454986 0.97384393
000040 f9 c4 7c 3f b3 a9 84 3f 36 61 81 3f 36 ef 7d 3f
       0.98738056 1.0364288 1.0107791 0.9919313
000050 e4 b0 7f 3f bb 32 81 3f e5 4e 81 3f d7 2b 80 3f
       0.9987929 1.0093607 1.0102202 1.0013379
000060 48 e1 7a 3f c5 ba 79 3f 3c 2b 80 3f 04 86 84 3f
       0.98 0.9755061 1.0013194 1.0353398
000070 72 07 79 3f 1b 69 86 3f 23 ce 82 3f 63 75 80 3f
       0.97276986 1.0500826 1.0219158 1.0035824
000080 52 86 7d 3f a6 4c 82 3f 0f d1 87 3f c3 4e 83 3f
       0.9903308 1.0179641 1.0610675 1.0258411
000090 5f d1 78 3f 7b 5d 79 3f 8e 38 85 3f 84 fd 76 3f
       0.97194475 0.97408265 1.0407884 0.96480584
0000a0 41 a7 84 3f 70 b6 80 3f d9 4f 80 3f 56 e7 81 3f
       1.0363542 1.0055676 1.0024368 1.0148723
0000b0 55 0b 80 3f 3d 72 75 3f 74 4a 7e 3f d9 9c 73 3f
       1.0003458 0.9587744 0.99332356 0.95161206
0000c0 b8 af 83 3f 3c bd 73 3f 86 b1 76 3f 3b 9b 7f 3f
       1.0288 0.95210624 0.9636463 0.9984624
0000d0 95 97 7c 3f 0b dc 86 3f 3a 76 84 3f 6a 0c 81 3f
       0.98668796 1.0535902 1.034858 1.0081913
0000e0 db aa 83 3f 5a b9 83 3f 01 2b 7e 3f a5 fe 76 3f
       1.0286516 1.029094 0.9928437 0.96482307
0000f0 59 9b 82 3f c8 20 83 3f 29 23 89 3f ce 02 7e 3f
       1.0203658 1.0244379 1.0713855 0.9922303

bias f4 [64]
000000 96 dc d3 3c 2c 46 cc bc aa 98 b5 bc 84 f9 0f bd
       0.02586202 -0.024935804 -0.022167522 -0.035150066
000010 46 3e 3d bd b0 19 99 bd 77 1f 3c bd f0 14 63 bd
       -0.046201967 -0.074756026 -0.045928445 -0.05543989
000020 f5 f6 a1 bc 77 74 5a bc 90 b4 2f bd 75 e6 47 bd
       -0.019771079 -0.013333431 -0.042896807 -0.048803765
000030 34 52 ff bc 16 5c 36 bc b8 3e 93 bd 1c 05 91 bc
       -0.031167127 -0.011130353 -0.07189697 -0.017702632
000040 e8 ae a4 bc 9e 7b 04 bd ff 67 03 bd 25 5e 11 bd
       -0.020102933 -0.032344453 -0.0320816 -0.035490174
000050 ad 55 8e bc 63 5d 49 bc 7f 3b 96 bd f0 8b 41 bd
       -0.017374838 -0.012290332 -0.07335567 -0.047252595
000060 41 bc 92 bd 67 f7 9c bd 4f dd c4 3c 90 9e 92 bb
       -0.07164813 -0.07664376 0.02403131 -0.0044744685
000070 e6 71 1a bd 1a 8a dc bc 2b 54 2e bd a6 12 0a bb
       -0.03770628 -0.02692132 -0.042560738 -0.0021068244
000080 1a 74 22 bb 80 db 1d bd 16 25 c8 bd b1 31 65 bd
       -0.002478844 -0.03853941 -0.097726986 -0.055955593
000090 19 f1 56 bb 31 6d b8 bd b6 2d 1c bc f2 59 98 bd
       -0.0032797514 -0.090052016 -0.009532383 -0.07439031
0000a0 64 79 96 bc 56 75 1a 3c ec 89 93 bb 04 75 34 bd
       -0.01836843 0.009427389 -0.0045025256 -0.044056907
0000b0 84 07 05 bc d3 9a 16 3c 27 d9 cf bc 6f ec 2b bd
       -0.008119468 0.009192186 -0.025372101 -0.041973528
0000c0 28 03 9b bc 77 29 86 bc 14 b7 ad bc 82 00 02 bd
       -0.018922403 -0.016377194 -0.021205463 -0.031738766
0000d0 1b 56 01 bd fe 7b 9a bd 13 4b 5a bc 0f 03 33 bd
       -0.031576257 -0.07543181 -0.013323563 -0.04370409
0000e0 30 d9 76 bd a5 6c d1 bd 57 53 97 3c 53 3b d2 3a
       -0.06026572 -0.102258004 0.018472357 0.0016039409
0000f0 56 a6 15 3b 1d 35 40 3b da c0 f4 bd bb 55 2c bd
       0.002283474 0.0029328533 -0.11950846 -0.042073946

running_mean f4 [64]
000000 4a d1 e1 3e 79 5b 84 bc 5e 0a bd be 9a d2 b7 3d
       0.44104987 -0.016156899 -0.36921972 0.08975716
000010 95 e2 7c bd 09 c8 a7 3e f1 8c 11 be 76 e1 b2 bd
       -0.061739523 0.32769802 -0.14213921 -0.087344095
000020 6d b1 b1 be 22 3c 35 bd 18 3e 77 be 82 3d 2a 3d
       -0.34705678 -0.0442468 -0.2414478 0.041562565
000030 c0 17 90 be 9f 42 9b bc b8 26 01 be ca 9d 48 bc
       -0.2814312 -0.018952666 -0.12612426 -0.012244651
000040 b1 b5 0b bf 91 c7 0e bf 65 5c 80 3e 2b e9 a8 bd
       -0.54574114 -0.55773264 0.2507049 -0.08247598
000050 4c 20 e5 bd b7 88 07 3e 22 dd 1e be c2 60 89 3a
       -0.11187801 0.13235746 -0.15514043 0.0010481107
000060 d9 03 23 be 4f 97 25 3e 3d 06 eb 3d 6e 60 0d 3f
       -0.15919437 0.16171001 0.11475799 0.55225265
000070 68 00 ec be 8b f2 5d 3e 52 0c 0a be ec 26 bb be
       -0.4609406 0.21674554 -0.13481262 -0.36553133
000080 3f 07 3c bd cc 0c 2d be c6 f1 eb 3e 26 c1 2c be
       -0.045905348 -0.16899413 0.46082896 -0.16870555
000090 a0 5e ab be 88 dc 07 be a1 6d ac 3d 4f 48 9f be
       -0.3347063 -0.1326772 0.084193476 -0.31109855
0000a0 3d 4f 17 3d 90 c1 37 be 7b 77 25 bf 73 0c 64 3e
       0.036940802 -0.17944932 -0.6463544 0.22270374
0000b0 6e 82 12 3d 93 c3 79 bd 91 7b c6 be 74 74 88 bd
       0.03576892 -0.06097753 -0.3876615 -0.06662837
0000c0 24 fa 74 3e 65 88 5e be 42 d6 e6 bd 6a da 48 3d
       0.23923546 -0.21731718 -0.11271335 0.04903642
0000d0 23 58 c2 3e 6d 46 b5 3e b7 59 b8 be 09 95 ca bd
       0.37957868 0.35405293 -0.36005947 -0.098917075
0000e0 8f d1 c0 3d 68 c6 e6 3e a5 14 5a be 62 fa 84 bd
       0.0941497 0.45073247 -0.21296938 -0.06493069
0000f0 d6 af 07 be bf 10 41 be 68 0f af 3e e4 0b c2 be
       -0.1325067 -0.18854044 0.34191442 -0.37899697

running_var f4 [64]
000000 d7 b4 2e 3e 13 7d 4c 3d 54 09 27 3f b4 e4 c9 3d
       0.17061172 0.049923968 0.6524861 0.09858075
000010 7b cd e8 3d b1 05 94 3d 82 d2 79 3e 08 35 8f 3e
       0.11367317 0.07227648 0.24396709 0.27970147
000020 8f d9 19 3e 2b a7 9a 3d 2f c1 20 3e 01 c7 92 3d
       0.15024398 0.07551416 0.15698694 0.07166863
000030 11 9c 03 3e 60 54 ce 3d ec 11 c4 3d 57 f8 a8 3d
       0.12852503 0.10074687 0.09573731 0.08250492
000040 22 15 b3 3d a5 09 b0 3d 92 c5 c2 3d 5a 7a ca 3d
       0.08744265 0.085955895 0.0951034 0.09886618
000050 a1 28 c7 3d d8 b2 32 3e c7 73 50 3d 71 79 c3 3d
       0.09724546 0.17451036 0.050891664 0.095446475
000060 09 58 1a 3e 17 2f e1 3d bb e5 c7 3d 1f b0 28 3e
       0.15072645 0.1099531 0.097606145 0.16473435
000070 82 a2 df 3d d7 6e 5c 3d 2f b1 b2 3d dd 35 15 3e
       0.10919668 0.053816643 0.08725201 0.14571328
000080 3d 7d 43 3e ec 4b 05 3e e9 15 86 3d ab 26 ac 3d
       0.19090743 0.13017243 0.06547148 0.08405813
000090 63 4f db 3d d3 95 16 3e 84 97 77 3d a6 94 e7 3d
       0.10708501 0.14705591 0.06044723 0.11307649
0000a0 39 df c4 3d 1c 4c e6 3d a6 f5 22 3e 02 91 db 3d
       0.09612889 0.112449855 0.1591402 0.107210174
0000b0 78 f3 21 3d e4 75 0a 3e 1e 5e 83 3e a1 4f b4 3e
       0.03953883 0.13521534 0.25657743 0.35217002
0000c0 37 4d 8f 3d 2c d8 79 3d a9 da 94 3d 84 b6 4d 3d
       0.069971494 0.060997173 0.072682686 0.05022289
0000d0 3a c9 af 3d f0 0f 54 3d fe 5e a7 3d 3f a6 07 3e
       0.08583303 0.05177301 0.08172415 0.13247012
0000e0 55 3f c6 3d 44 f4 9d 3d 1d 84 fe 3d ac 59 96 3e
       0.096800484 0.077126056 0.12427542 0.2936529
0000f0 72 f2 84 3d 18 06 4b 3e 29 aa 86 3d 36 41 58 3d
       0.06491555 0.19826543 0.06575424 0.052796565

weight f4 [128, 64, 3, 3]
000000 f1 dc 79 3c 4e 54 4d 3d d8 a2 8e bb ef 2e c1 3c
       0.01525043 0.050129227 -0.0043529086 0.02358195
000010 e0 37 5c bc 5f 51 a5 3c c5 01 66 3d f6 3f ae bb
       -0.013441056 0.020180402 0.05615403 -0.0053176833
000020 71 b2 4a 3d e4 f5 73 3c c7 ec 2a 3d 79 87 82 3c
       0.04948658 0.014890168 0.041729715 0.015933739
000030 be c8 f6 3b 52 46 c2 bc c9 a1 e7 bb c5 8e 3c 3c
       0.0075312546 -0.023715172 -0.007068847 0.011508648
000040 0e ed 16 bc cb da 19 bd fe 99 6d 3d c6 f2 3a bc
       -0.009211792 -0.037562173 0.058008187 -0.011410421
000050 b7 07 12 3d 99 60 40 bb 5d 71 d8 bc 2d b5 0a 3d
       0.03565189 -0.0029354452 -0.026421243 0.03386419
000060 2a 03 dc 3c c8 e9 98 bc 1c 46 0e bd 66 68 a0 3a
       0.026856977 -0.018666163 -0.03473483 0.0012238144
000070 f5 71 1c bd a0 24 38 bd 18 3d 85 bc a3 87 f6 ba
       -0.038194615 -0.044956803 -0.016264483 -0.0018808733
000080 74 e8 14 3b 15 93 8e 3c 05 23 23 bc 62 2c 46 3b
       0.002272156 0.017404119 -0.00995708 0.0030238857
000090 f0 3f c7 bc 64 58 1f bd ce f7 41 bc f1 09 19 bc
       -0.02432248 -0.038902655 -0.011838866 -0.009340749
0000a0 cd 47 ec bb e9 a1 86 bc 18 e3 c7 bc 62 e2 13 ba
       -0.0072107078 -0.016434627 -0.024400279 -0.00056413386
0000b0 01 9e f5 bc a6 dc 6d 3a 69 6d 18 3d 36 45 5e 3b
       -0.029982569 0.00090737117 0.037213717 0.0033915765
0000c0 d0 09 5d bc 7d c3 9b 3c 05 4b 74 bb db 0f c5 bc
       -0.013491109 0.019014115 -0.003727616 -0.024055412
0000d0 57 9c 4a bc 80 81 53 bb e2 72 6d 3c ce 85 ac 3c
       -0.012366376 -0.0032273233 0.014492722 0.021059897
0000e0 e3 e8 1b 3d 96 a2 b3 3c cc 84 92 bc 1b 45 55 3c
       0.038063895 0.021928113 -0.017885588 0.013016964
0000f0 e8 d2 80 bc 8e b3 93 bc 20 9a 4e 3d d7 1b 20 bd
       -0.015725568 -0.018029954 0.050439954 -0.03908905
000100 23 5a 2f bd 50 b2 8d bc 20 9e ab bc dc 0c bb 3c
       -0.04281057 -0.01729694 -0.020949423 0.02283328
000110 94 0e 9b bc ef d2 95 bc e0 ca 60 3c 05 70 e8 b9
       -0.01892785 -0.018289058 0.013720244 -0.0004433395
000120 f6 0e a6 bc 2d 3f 16 bc a8 1a 53 bd 85 b9 e9 bc
       -0.020270806 -0.009170336 -0.051539093 -0.028530845
000130 38 4b 7c 3c 49 06 15 bd db d5 cd bc 91 0f d8 3c
       0.015398793 -0.036382947 -0.025126388 0.02637461
000140 20 ba 81 3b af 18 17 3c 0a eb 32 bc 98 88 9e bb
       0.0039589554 0.009222194 -0.0109202955 -0.0048380606
000150 17 e8 02 3d fa aa 8e 3c 06 97 a0 3c 67 77 22 3d
       0.03195962 0.017415512 0.019603264 0.039664652
000160 a0 e3 86 3c 82 56 b7 3b 06 0c 6a bc 2c c5 22 3d
       0.016465962 0.0055950293 -0.014285093 0.03973882
000170 5f 6d 4c 3c 76 36 cf 3c 56 10 e2 bc 3a f9 e5 ba
       0.012477248 0.025294524 -0.02759568 -0.0017545589
000180 15 ea 01 3d 49 b4 ed 3c 1d 6c 52 3c 3e e8 06 bd
       0.03171738 0.02901663 0.012843159 -0.032936327
000190 ee f6 c6 bc 74 e4 fb bb 2f 97 cc bc ba 15 2e 3c
       -0.024287667 -0.007687146 -0.024974434 0.010625297
0001a0 60 e4 8a 3c 24 dd 6a bc eb 30 80 bc 4b 59 2d bc
       0.0169546 -0.014334951 -0.015648326 -0.010580371
0001b0 f8 6d 1e bd c7 c1 05 bd e0 e8 d8 bc e2 8b 7c 3b
       -0.038679093 -0.032655504 -0.026478231 0.0038535525
0001c0 b8 35 36 3d 82 38 f7 3a 44 26 e1 bb 8e d4 a4 bb
       0.044484824 0.0018861445 -0.0068710167 -0.0050302213
0001d0 4a df 1b bc 1d 54 46 bd 9d be ea bb 63 73 de bc
       -0.0095136855 -0.04842006 -0.007163836 -0.02715463
0001e0 96 c1 c3 3b 2f 8b 19 3d 90 9c 65 3c db 2f 85 bc
       0.005974005 0.03748625 0.014014378 -0.01625817
0001f0 18 9b 2f bc de 73 2c bc 14 a5 26 3c b8 47 06 bc
       -0.01071813 -0.010525672 0.010171194 -0.00819581
000200 ba 7b 08 bd 73 b3 3e 3c 7f 62 94 bc e6 33 00 bc
       -0.03332112 0.011639464 -0.018113373 -0.007824874
000210 3a 2e e7 bb 76 05 ee ba f4 64 43 3c ef 95 f2 3c
       -0.007055071 -0.0018159586 0.011925925 0.02961251
000220 91 84 01 3d f0 7f 14 3d fa 6a b4 3a 2b e2 01 3d
       0.031620566 0.036254823 0.0013764792 0.03170983
000230 ab 8c 6b 3c 37 c9 db 3b d5 35 5a 3c 4b 47 20 3d
       0.0143768 0.0067073363 0.013318499 0.03913049
000240 a1 0c f9 bc a8 e6 25 bc bd 91 28 3c 79 fa 8a 3b
       -0.03040153 -0.0101257935 0.010288653 0.0042412844
000250 f8 dd 46 3d 1a 80 45 bb 58 f2 eb 3c ac 1b 2c 3d
       0.04855153 -0.003013617 0.028802082 0.042018577
000260 8f 9b 2d 3d 8a 9b b3 3c 82 c9 1a bc c6 ff 94 3c
       0.04238468 0.021924753 -0.009447457 0.018188369
000270 71 ca 6a bc 2f 69 12 3a e8 54 f7 bc f9 96 13 bc
       -0.014330492 0.00055851316 -0.030191854 -0.009008163
000280 b7 f3 2b bc fb c2 16 3d e4 6b bc bc 09 9d 49 bb
       -0.010495118 0.03680704 -0.023000665 -0.0030763766
000290 6c 06 08 bd 24 ca 5d bc 44 1d d8 bc 72 4c b4 bc
       -0.03320925 -0.013536964 -0.026381142 -0.022009108
0002a0 03 1d e3 bb 0c 41 b6 bc 58 69 ca 3b 33 36 ea 3c
       -0.0069309487 -0.022247814 0.0061771087 0.028590297
0002b0 18 fe 89 3a a1 fd 09 3c 5e 48 e9 3b a5 3e 96 3c
       0.0010527996 0.008422286 0.0071192225 0.018340418
0002c0 74 31 82 3c 81 66 50 3b cc 08 01 3c d0 3d f0 3a
       0.015892722 0.0031799378 0.0078756325 0.0018328968
0002d0 5d ed aa 3b b4 02 a8 bc e9 b8 8d 3c 08 bb 0b 3c
       0.005216284 -0.020509101 0.017300086 0.008528478
0002e0 0d 4c 82 bc dd 1e ff bc b0 3b 3e 3c 03 15 04 3c
       -0.015905404 -0.031142646 0.01161091 0.00806165
0002f0 41 91 0b bd 50 80 7b 3d ae ee 3b 3d c2 19 51 3d
       -0.03407407 0.061401665 0.04588192 0.051049955
000300 6e 95 47 3c ba ce a5 bc a1 8f 7a 3c a0 38 83 3c
       0.012181623 -0.020240176 0.015293033 0.016018212
000310 3d b7 b7 3c ea bc 15 3d 7b 87 08 bd 52 ba fc bc
       0.022426242 0.036557116 -0.03333233 -0.030850563
000320 06 d5 8e bc f7 ad 1a 3c d2 30 c0 bc e4 46 ea bc
       -0.017435562 0.0094408905 -0.02346078 -0.028598256
000330 40 89 4f bd 83 91 16 bd 51 f6 ae bc c9 e5 24 3d
       -0.050668 -0.036759865 -0.021357687 0.040258203
000340 6a 4c 66 3d 08 04 b8 3c 83 db e3 3a 76 c3 cc 3c
       0.056225218 0.02246286 0.0017384145 0.024995547
000350 e9 8c 89 ba 03 69 b4 3c f2 d3 2b 3d 03 50 84 3c
       -0.0010494265 0.02202273 0.041950174 0.016151434
000360 1a 0c bb bc b1 81 0d 3a f8 2f 06 3b 36 5b 0d 3d
       -0.022832919 0.00053980487 0.002047537 0.034510814
000370 c6 24 89 3c e6 ab ca bb 64 7d 83 3c cc d9 2c 3d
       0.016741168 -0.0061850427 0.016051002 0.042199895
000380 1a e5 10 3d 8b c4 0e 3c f6 37 08 3d 96 84 cc 3b
       0.03537474 0.008713852 0.033256494 0.0062413914
000390 b9 56 1b bd 91 1e e4 bc 55 57 ed bc 73 b2 75 bc
       -0.037924502 -0.027846606 -0.028972307 -0.014996159
0003a0 2b 81 b1 bc ac b6 14 bc 5b c2 2f 3d 6f 09 b8 3d
       -0.021668037 -0.0090767555 0.04290996 0.08986174
0003b0 35 6f d3 3d ac 34 a6 3c 5d 6f 12 3d 7e 61 14 3d
       0.103239454 0.020288788 0.035750736 0.03622579
0003c0 54 74 4c 3d 4c 17 db 3c 53 c6 24 3d 05 9a ec bb
       0.049915627 0.026744507 0.0402282 -0.007220509
0003d0 14 57 d0 3c 49 05 b1 3a 07 8f 9a ba d0 31 8d 3c
       0.025432147 0.0013505603 -0.0011791893 0.017235667
0003e0 45 2d cc 3c 24 8f f2 bc 3c ed 9c 3c 6b 62 bb bb
       0.02492393 -0.02960927 0.01915609 -0.0057185194
0003f0 17 57 12 3c 83 48 04 bd ca 2f cf bc 11 29 8f bc
       0.008931897 -0.032295715 -0.025291342 -0.017475637

bias f4 [128]
000000 9e 24 11 ba b7 17 28 3d f4 5e 86 bb 40 27 25 bd
       -0.00055367674 0.04103824 -0.0041006748 -0.040320635
000010 ba 35 02 3d 5b 8d 05 bd ba a4 1b 3c 6b 45 98 3c
       0.03178952 -0.03260551 0.009499723 0.018587789
000020 3e 02 82 bc 58 93 e0 3b ce 1a 4b 3d d2 4c d9 bc
       -0.01587021 0.0068535022 0.04958611 -0.026525889
000030 3f a7 09 bd f2 33 11 3d f1 af 05 3d d3 e4 31 3d
       -0.033606764 0.03544993 0.032638494 0.043431114
000040 1f 45 14 3c 07 29 64 3a 23 43 85 bc 5d 37 90 bc
       0.009049683 0.00087036233 -0.016267365 -0.017604524
000050 e7 7e 99 bc 32 21 62 3c 9e ec 17 bd b8 00 46 3d
       -0.01873727 0.01380186 -0.03709089 0.04834053
000060 6e db 33 3d 6d 6d de 3c 95 6c 04 3d 1e fc 9e bc
       0.043910436 0.027151788 0.032330114 -0.019407328
000070 6f 4f 5c bc 21 24 91 bc a7 80 bd bc 8e b3 d9 bb
       -0.013446673 -0.017717423 -0.023132635 -0.006643719
000080 e7 32 c7 3b 24 49 2e 3d e6 9d 8e 3c 5b 90 c3 3a
       0.006079066 0.04255022 0.017409276 0.0014920341
000090 df 2e ae bc de 1f 0a bd 44 7a b8 3c 1a d6 8f 3c
       -0.021262584 -0.033721797 0.022519238 0.017558146
0000a0 48 2e b9 3a 97 4e ec bc fa 3e ca 3c e8 3c 4d 3d
       0.0014128173 -0.028846068 0.024688233 0.050106913
0000b0 32 65 2d 3d 49 fa bb 3c ec b1 e4 ba 62 86 8f bc
       0.042332835 0.022946494 -0.0017448044 -0.017520133
0000c0 8e 04 17 bc 7b ca 86 3b f8 24 95 bc 10 7c 2e bc
       -0.0092173945 0.004113493 -0.018206105 -0.010649696
0000d0 93 f5 aa b9 6e 50 f9 bb 91 5c 5b 3d b2 bb c4 3c
       -0.00032607894 -0.007608465 0.053555075 0.024015281
0000e0 b5 3a 26 bd 76 38 23 3d 8c cf 6a 3d d2 9f 31 bb
       -0.04058333 0.039848767 0.05732684 -0.0027103317
0000f0 49 b7 3b bd c7 e1 36 3d 91 a4 06 3d 6c 28 70 3d
       -0.04582909 0.04464891 0.032871787 0.0586323
000100 1d 20 b9 bb 6e 7c 93 3a 58 ff e8 3b 0f 54 5c 3d
       -0.00564958 0.0011252293 0.0071105175 0.053791102
000110 3a 80 86 3d 8b c7 41 bd 3d 23 c5 3b cd b2 a3 bc
       0.06567426 -0.04730944 0.0060161636 -0.01998272
000120 fb a4 40 3d 6c e6 1f bc 10 3c ab bb 51 57 01 bc
       0.047032338 -0.009759527 -0.005225666 -0.007894353
000130 8f 80 0a bc b7 02 61 bd 7a 2d 1f bc 82 2a 85 3d
       -0.008453502 -0.05493423 -0.009715432 0.06502248
000140 6e c0 a5 bc 44 04 02 3d f9 82 a3 3b 0d 23 81 bc
       -0.02023336 0.03174235 0.0049899784 -0.015763784
000150 24 13 96 bb 7b 04 87 bb 94 13 4e bd b0 56 10 3c
       -0.0045799185 -0.004120407 -0.05031164 0.00880973
000160 13 58 8b bc 09 3d ae 3c c3 3a 3e bd d7 84 e7 3c
       -0.01700977 0.021269338 -0.04644276 0.028261585
000170 1c 0c 91 bd 6c b0 46 3d ef 8e 37 3d cf e9 74 bd
       -0.07082388 0.048508093 0.044814046 -0.05979329
000180 32 47 3e 3d e9 ae 74 3c f0 d0 95 bb a3 42 71 3d
       0.046454616 0.01493428 -0.0045720264 0.05890144
000190 0b 97 55 bd 2f 1f dd 3a 42 fd c7 ba d8 77 b0 bc
       -0.052146 0.0016870255 -0.0015257972 -0.021541521
0001a0 b3 4b 82 3a 1e c2 75 bd aa ba bd 3c 1f 61 fc bb
       0.0009940773 -0.059999578 0.023160297 -0.0077020074
0001b0 b1 2f ef 3b da d0 b7 3b 36 41 f7 3b 39 8e 17 bd
       0.0072993864 0.005609614 0.0075456155 -0.03700087
0001c0 72 3f 38 3c 18 59 f9 bc ea b1 41 bd 2e 0c a8 bb
       0.011245595 -0.030437991 -0.047288813 -0.005128405
0001d0 2d 50 c6 3a c3 5d ad bc e3 57 59 3b 73 4f 1e 3d
       0.0015130095 -0.021162873 0.0033163957 0.038649987
0001e0 3f 24 c0 bb 66 90 96 bb 9c f6 c4 3b 46 e2 2d bd
       -0.005863696 -0.0045948504 0.0060108434 -0.04245212
0001f0 a3 ca ea bb 14 5a a6 bd 1d ea 51 3d 49 fc 24 3c
       -0.0071652695 -0.0812265 0.05124866 0.010069915

weight f4 [128]
000000 f6 5b a5 3f 26 8e 9d 3f c8 46 a6 3f 1c bf a4 3f
       1.2918689 1.2309005 1.2990351 1.2870822
000010 59 dd a2 3f b8 b1 a5 3f 8a 47 a7 3f 9b d8 9f 3f
       1.27238 1.294486 1.3068707 1.2487978
000020 65 90 9c 3f c8 1d 9f 3f 8e e2 9e 3f 65 19 99 3f
       1.2231566 1.2430964 1.2412889 1.1960875
000030 99 5c a6 3f 29 33 9d 3f 4f f3 a3 3f 32 c0 9d 3f
       1.2997009 1.2281238 1.2808627 1.2324278
000040 4a b9 9e 3f 0d e0 a4 3f f7 44 a1 3f 01 80 9f 3f
       1.2400296 1.2880875 1.2599171 1.2460939
000050 08 13 a3 3f 14 60 a0 3f f1 10 a4 3f 4b 18 a7 3f
       1.2740183 1.2529321 1.281767 1.3054289
000060 b2 b6 a3 3f dd 46 a2 3f bc d7 a4 3f 30 2e a2 3f
       1.2790129 1.2677876 1.2878337 1.2670345
000070 42 49 a5 3f 45 c8 a4 3f ba 15 a6 3f 87 11 a7 3f
       1.2912982 1.2873617 1.297538 1.3052224
000080 58 ae a1 3f 76 1f a5 3f ac 36 9f 3f 17 55 9e 3f
       1.263133 1.2900226 1.243856 1.2369717
000090 7a 6f a3 3f bc f3 a0 3f eb 3a a9 3f 01 33 a3 3f
       1.2768395 1.2574382 1.3221105 1.274994
0000a0 4e c8 a2 3f 63 d7 9f 3f 06 b7 a8 3f 0f 6b a4 3f
       1.2717378 1.2487606 1.3180854 1.2845172
0000b0 a9 a2 a3 3f 1d 33 a6 3f 39 5e a1 3f 6c 6a a3 3f
       1.2784015 1.2984349 1.260688 1.2766852
0000c0 6e c6 a3 3f ac 5f a1 3f 92 16 a2 3f ae 65 9f 3f
       1.2794931 1.2607322 1.2663138 1.2452905
0000d0 35 b1 9e 3f 90 02 a3 3f 88 66 a3 3f 95 a1 a1 3f
       1.2397829 1.2735157 1.2765665 1.2627436
0000e0 97 94 a4 3f 82 59 a3 3f 5f b9 a5 3f c6 90 a0 3f
       1.2857846 1.2761691 1.2947196 1.2544181
0000f0 b0 86 a4 3f ba 81 a5 3f 4e d3 9e 3f 26 28 a5 3f
       1.2853603 1.2930214 1.2408235 1.2902877
000100 94 55 9d 3f b3 ac 9f 3f 97 36 a7 3f d3 bb a0 3f
       1.2291741 1.2474579 1.3063534 1.2557319
000110 fe 5d a3 3f 1d 3d a2 3f d2 c5 a2 3f c1 eb 9e 3f
       1.2763059 1.26749 1.271662 1.2415696
000120 fe 3a a4 3f 13 6d a5 3f 34 64 a2 3f 15 2d 9f 3f
       1.2830503 1.2923912 1.268683 1.2435633
000130 2e 6e a2 3f a1 e8 a6 3f 16 b4 a5 3f 45 2f a2 3f
       1.2689874 1.3039743 1.2945583 1.2670676
000140 ae 6c a5 3f a0 bb a5 3f 5a a0 a3 3f 6a a7 a2 3f
       1.2923791 1.2947884 1.278331 1.2707341
000150 33 36 a0 3f 01 e3 a5 3f ab 3d a1 3f 61 82 a6 3f
       1.251654 1.2959901 1.2596945 1.3008538
000160 fd 01 a6 3f 7e ff a1 3f 4c a2 9e 3f 89 85 a3 3f
       1.2969357 1.2656095 1.2393279 1.2775127
000170 3d ed a2 3f 69 cf a2 3f ef 25 a2 3f 62 23 a0 3f
       1.2728649 1.2719547 1.2667826 1.2510798
000180 a8 1e a0 3f fd 78 a2 3f dd 07 a8 3f f0 ba a1 3f
       1.2509356 1.2693173 1.31274 1.2635174
000190 e5 9a a8 3f 82 8e 9f 3f cd 2b a7 3f 91 f4 a0 3f
       1.317227 1.2465365 1.3060242 1.2574636
0001a0 96 4b a2 3f 58 a1 a1 3f ed 6b a5 3f 05 8f a3 3f
       1.2679317 1.2627363 1.2923561 1.2778021
0001b0 2c 64 a0 3f 91 41 a1 3f c6 c5 9f 3f 28 2a a2 3f
       1.253057 1.2598134 1.2482231 1.2669115
0001c0 43 6d a6 3f 5e e8 a1 3f 4c 32 a3 3f 66 1c a3 3f
       1.3002094 1.2649038 1.2749724 1.2743042
0001d0 b8 a2 a4 3f a9 3c a6 3f eb 2a a7 3f e9 57 a6 3f
       1.2862158 1.2987262 1.3059973 1.2995578
0001e0 52 67 a5 3f 5c c0 a4 3f a0 26 a3 3f e2 b9 a2 3f
       1.2922156 1.2871203 1.2746162 1.2712977
0001f0 51 81 a1 3f 90 60 a4 3f be 4b a1 3f dc 3e a0 3f
       1.2617589 1.2841969 1.260124 1.2519183

bias f4 [128]
000000 f5 8c ca 3d da bf cf 3d d9 c9 c6 3d f8 65 f3 3d
       0.09890167 0.10144015 0.09706468 0.11884683
000010 21 97 b6 3d 57 a8 35 3e 18 0d 16 3e 7b 63 c4 3d
       0.08915544 0.17739998 0.14653432 0.09589287
000020 40 f7 f0 3d 4c 7b a0 3d ff 7d 94 3d c1 6e b7 3d
       0.11765909 0.07836017 0.07250594 0.089566715
000030 c1 ea 0a 3e 6a 52 e2 3d 89 0d cc 3d a4 01 5f 3d
       0.13566114 0.110508755 0.09963519 0.054444924
000040 ec 7c 05 3e 54 1f f0 3d e9 93 e5 3d 60 1d da 3d
       0.13035935 0.11724725 0.11209852 0.10650134
000050 9f 0d 07 3e 2f 08 ca 3d 6b 1d 14 3e e1 96 0c 3e
       0.1318879 0.09864842 0.14464347 0.1372943
000060 38 3b 10 3e 72 91 14 3e f5 b8 f0 3d e1 d1 20 3e
       0.1408509 0.14508608 0.11754028 0.15705062
000070 17 f6 01 3e 04 b8 6a 3d d1 c8 1c 3e a2 fd fb 3d
       0.12691532 0.057304397 0.1531098 0.12304236
000080 72 0a 06 3e f8 33 e9 3d ae 6e 27 3e ba d7 d8 3d
       0.13089922 0.113868654 0.16350815 0.105880216
000090 1b 56 f3 3d 2a 98 eb 3d 66 f9 2e 3e 1c f9 bd 3d
       0.11881658 0.11503632 0.17087325 0.092760295
0000a0 61 51 35 3e e0 7e cb 3d a5 f5 28 3e 3c eb 0a 3e
       0.17706825 0.09936309 0.16499956 0.13566297
0000b0 72 ef 02 3e 62 9d ae 3d c7 0b 59 3d 86 c8 e0 3d
       0.12786654 0.08526112 0.052989747 0.10975747
0000c0 c6 93 13 3e db 83 bc 3d 13 7e 09 3e 12 5d 9c 3d
       0.1441184 0.09204837 0.13427 0.07634939
0000d0 3b e6 84 3d 48 05 03 3e bc 02 b2 3d ff 5c ea 3d
       0.064892255 0.12794983 0.08691928 0.11443519
0000e0 c5 b7 c0 3d 8a fd 24 3e 78 92 ae 3d 7f e5 a5 3d
       0.09410051 0.16112342 0.085240304 0.081004135
0000f0 b0 00 d1 3d e4 d6 dd 3d b1 02 0d 3e 49 23 38 3e
       0.10205209 0.10832003 0.13770558 0.1798221
000100 d7 3d de 3d fb 0f 91 3d 21 2b de 3d 52 d5 9b 3d
       0.10851639 0.07083126 0.1084807 0.07609047
000110 07 4e 0b 3e 8d e4 9d 3d 11 af d9 3d 1b b6 ae 3d
       0.13603984 0.07709608 0.106290944 0.085308276
000120 c6 c7 cd 3d df 2d 3a 3e e0 ce f5 3d cb 27 d7 3d
       0.100478694 0.18181561 0.12002349 0.10505637
000130 06 0d ca 3d 77 5b d4 3d c2 df 17 3e a0 4e f0 3d
       0.09865765 0.10369008 0.1483145 0.117337465
000140 4f e4 ed 3d 4b 03 18 3e c9 9a e3 3d 4c 43 e8 3d
       0.11615812 0.14845006 0.11113507 0.11340961
000150 7d 10 12 3e 63 03 58 3d 17 69 34 3e 0b e6 df 3d
       0.14264102 0.052737605 0.17618214 0.10932549
000160 c5 8a 29 3e 2e fc 9a 3d fb 06 29 3e eb c2 ff 3d
       0.16556843 0.07567631 0.16506569 0.124883495
000170 2a 90 41 3e f5 7f c7 3d b5 e9 a3 3d f0 73 1a 3e
       0.1890265 0.09741203 0.080035605 0.15083289
000180 6b a4 a5 3d 4a 07 7e 3d 44 74 e9 3d a7 e8 d9 3d
       0.08088001 0.06201867 0.11399129 0.10640078
000190 c9 bc 0f 3e 20 ab b6 3d 87 c7 d8 3d a2 a9 08 3e
       0.1403686 0.08919358 0.10584932 0.1334596
0001a0 e2 22 7c 3d 8c 5e 19 3e cb f9 aa 3d a1 b7 2c 3e
       0.061556704 0.14977473 0.083484255 0.16866924
0001b0 dc ec a1 3d 3c 05 af 3d 93 23 dc 3d f4 79 df 3d
       0.079065055 0.0854592 0.10748973 0.109119326
0001c0 51 ea 2c 3e 7b 1f 81 3d 10 01 ba 3d a7 c6 49 3d
       0.1688626 0.063048325 0.09082234 0.049261715
0001d0 57 52 b1 3d 61 ff ca 3d de b9 e7 3d 99 03 04 3e
       0.08658283 0.09911991 0.11314748 0.12891997
0001e0 c0 34 e0 3d 6f 05 f5 3d 39 1e 01 3e 35 40 cc 3d
       0.10947561 0.11963927 0.12609185 0.09973184
0001f0 9b 4f d1 3d f8 4a 0d 3e fb bd d5 3d 2f c7 b4 3d
       0.10220262 0.1379813 0.104366265 0.08827054

running_mean f4 [128]
000000 3f 15 d9 be 7d 06 db 3e 76 5a 9e bc 12 43 26 bd
       -0.42399022 0.42778388 -0.019330245 -0.040591307
000010 13 00 34 3f 64 8f 13 bf b5 9e 06 3f 10 f7 81 be
       0.70312613 -0.5764067 0.5258592 -0.25383806
000020 f6 e0 00 3f 3c 22 16 bf f6 5a e6 3e 4e 98 33 3e
       0.50343263 -0.5864599 0.44991273 0.17538568
000030 ed 44 fb be d2 8b 10 3f de 3d 50 3e 14 f4 c6 3e
       -0.49076024 0.5646335 0.203361 0.38858092
000040 62 42 18 bd d2 82 70 3f ca ed cd bd 8f 3e f7 3e
       -0.037172683 0.93949616 -0.1005512 0.48289916
000050 cc 9c 8e 3e bd a3 11 3f bb ad fe be d3 42 ba 3e
       0.27854002 0.5689047 -0.4974192 0.36379108
000060 f1 2a c4 3e 00 78 dd 3e 3a ba 44 3e bd 81 eb bd
       0.38314012 0.43255615 0.19211665 -0.11499355
000070 20 59 42 3c 57 37 66 be 92 9f ea 3e eb 73 82 be
       0.011862069 -0.22482048 0.45824867 -0.25479063
000080 4f fe 9a 3d 78 e7 be 3e a9 49 29 bf 98 10 d5 3d
       0.07568037 0.37285972 -0.6612802 0.10403556
000090 42 6f f1 be 44 68 23 bf 80 0b b4 3e 0d 3e 6c 3e
       -0.47155195 -0.6383097 0.35165024 0.23070545
0000a0 55 d7 40 bf 51 45 06 bf 50 e7 b6 3d 5e 06 cf 3e
       -0.7532857 -0.5244952 0.08930838 0.40434545
0000b0 d9 45 11 3f 49 47 59 3d ff a6 39 be f3 3c 34 be
       0.56747204 0.0530465 -0.1813011 -0.17601375
0000c0 f4 55 95 be 0e 4d 80 be 67 7b f4 be 64 43 1d be
       -0.2916714 -0.25058788 -0.477504 -0.15357739
0000d0 37 10 1f 3e 63 c0 9c 3e ec af 86 3e 70 ea 0d 3f
       0.15533529 0.3061553 0.26306093 0.5543585
0000e0 96 66 51 be 0b da 09 3f 41 38 0d 3f 20 b3 2d 3e
       -0.2044929 0.5384833 0.5516396 0.16962862
0000f0 a5 39 bc bd cf 26 c9 3e 24 49 01 3f d4 a8 b8 3e
       -0.09190682 0.3928742 0.5050223 0.36066306
000100 90 bf 0a 3f f7 6e b0 3e 85 c0 41 3f 76 53 2c 3f
       0.5419855 0.3445966 0.75684386 0.6731485
000110 d4 42 27 3f 60 08 fc be 65 e6 4a be 9d cf c8 3e
       0.65336347 -0.4922514 -0.19814451 0.39220896
000120 82 2f 22 3f dc 06 f5 be ad 13 32 bf 51 9e e4 be
       0.6335374 -0.47856796 -0.6956127 -0.44652036
000130 d8 71 25 3e 2b 93 25 bf 3e 9b ce 3e 36 64 56 3f
       0.16156709 -0.64677685 0.40352815 0.8374666
000140 ba 62 f6 be f6 85 c7 3e b3 27 29 3e 46 c1 1b 3e
       -0.48122197 0.38969392 0.1651905 0.15210447
000150 57 53 53 be 77 1e 71 3e 99 a8 0f bf d8 57 be 3e
       -0.2063726 0.23546778 -0.56116635 0.37176394
000160 da 3a 1b 3d 10 64 83 3e 13 93 31 bf 7b 8c ac 3e
       0.037897922 0.2566228 -0.6936504 0.33700928
000170 c7 f3 27 bf 5a e0 d9 3e df 58 63 3e 32 53 52 bf
       -0.6560635 0.4255398 0.2220187 -0.82158196
000180 06 d1 fa 3e 93 f2 ec 3e dc 77 cb bd 7e e7 cb 3e
       0.48987597 0.4627882 -0.09934971 0.39825052
000190 f4 9f 84 be 48 9c a2 3e 44 c5 da be 8e b3 5f bf
       -0.25903285 0.31759858 -0.42728627 -0.87383354
0001a0 b5 eb de bd 3c 69 25 bf ae 7c f0 3e 47 aa 22 3c
       -0.10884801 -0.646137 0.46970123 0.009928293
0001b0 bc 3a b7 bb a6 58 98 be b4 4f 1c 3f ee 10 9c 3d
       -0.0055917185 -0.29755133 0.6105912 0.076204166
0001c0 41 6a ee be 69 22 3a be f2 18 12 bf a9 17 cd bd
       -0.4656544 -0.18177189 -0.57069314 -0.100142784
0001d0 29 e3 32 be 7b 78 63 3d f8 e4 b5 3d 51 10 28 3f
       -0.17469467 0.05553482 0.08881563 0.65649897
0001e0 1d 64 16 3d b8 18 cb bd 36 bb dd 3e ac 32 06 bf
       0.03671657 -0.09916824 0.43306893 -0.5242107
0001f0 a2 d3 f8 3e 28 a2 39 bf 69 c2 08 3f ad 92 71 3e
       0.48598963 -0.72513056 0.53421646 0.23591109
