gnn_h64_l3_t2.5_lr1e-03_bs32_e10.pt (torch, 346471 bytes, 36 tensors)

atom_embedding.weight f4 [20, 64]
000000 ad ae 07 bf 9c d9 a6 bf 54 3b e3 3e 90 6e 9c 3f
       -0.5300091 -1.3035159 0.443812 1.2221241
000010 f9 0f 85 3f 22 fa 75 3f 43 bb d7 3e e8 c5 3e 3f
       1.03955 0.960848 0.42135057 0.7452073
000020 4f 61 eb bf 03 f5 9f bf b9 6c 7e be ce 2e 12 3e
       -1.8389071 -1.2496647 -0.24846162 0.14275667
000030 55 85 86 bf 6a 94 b4 3e c0 7f bb bd 1e d9 0b 3d
       -1.050944 0.3526948 -0.09155226 0.034142606
000040 16 0a 66 bf 09 37 d1 3d dc a8 29 bf e9 39 0a be
       -0.8985914 0.10215575 -0.66273284 -0.13498653
000050 ff f3 cb be 6c 04 e5 bf 64 a6 a3 3f 1b e5 aa 3f
       -0.39834592 -1.7891974 1.2785153 1.3351167
000060 31 00 9d be d9 e4 84 3f fc 59 a3 3f 74 8a 2b 3d
       -0.3066421 1.0382339 1.2761836 0.041880086
000070 06 c2 a3 bf f9 ec eb bf ba 00 5d 3f 97 a7 e3 bf
       -1.2793586 -1.8431693 0.86329234 -1.7785519
000080 ff da 4e bf 8a 9d 5f bf 67 cc 6f 3f 51 ad 9d bf
       -0.8080291 -0.8734976 0.9367127 -1.2318517
000090 db ad c3 3f bf 3d 8d be 96 cc 5c bf 06 11 44 be
       1.5287431 -0.2758617 -0.86249673 -0.19147119
0000a0 e9 1d f6 be 08 2b b5 bf 2d 51 bf 3d c0 cd 77 be
       -0.48069695 -1.4153757 0.09341655 -0.24199581
0000b0 53 d6 83 bf fd 4c 50 be 0b 2e 30 bf 37 c0 91 bc
       -1.0299782 -0.20341869 -0.68820256 -0.01779185
0000c0 f3 61 99 3f d5 69 51 bf 70 ca 3a bf 44 59 53 3f
       1.1983017 -0.8180211 -0.72965145 0.82558084
0000d0 f4 26 60 3f c8 86 97 3e 08 b0 23 3f 19 cb 9e 3f
       0.8755944 0.29595017 0.6394048 1.240573
0000e0 a8 e0 9a bf 66 b8 72 bf 8f f6 24 3f e7 04 60 3e
       -1.209981 -0.9481262 0.6443872 0.2187687
0000f0 d6 77 9c bf f9 a3 6e bf 36 2d c4 be 5a 8a b3 3f
       -1.2224071 -0.9321895 -0.38315743 1.4026597
000100 60 e6 3a 3c 76 18 6f 3f d2 80 1e bc ad e4 c6 be
       0.011407465 0.933967 -0.009674268 -0.3884634
000110 d6 9a c0 3f b7 98 8f 3b 02 8c 2a bd 38 78 a9 be
       1.5047252 0.0043822187 -0.041637428 -0.33099532
000120 e6 37 ef bd a8 61 64 bf 3f a0 69 bf b4 ac b6 3f
       -0.11680584 -0.8921151 -0.9126014 1.4271455
000130 13 af e2 bd eb d0 e9 bf 90 c6 09 3b 23 e8 ce bd
       -0.11068549 -1.8266882 0.0021022893 -0.1010287
000140 38 c4 47 3e 30 da a9 3f f4 ae a8 be 7c c4 9c bf
       0.19508445 1.326971 -0.3294598 -1.2247462
000150 4f 9e c9 3d 50 22 e2 bc 9e 20 90 3e b9 42 a9 bf
       0.09844648 -0.027604252 0.28149885 -1.3223487
000160 b3 ac 7b bd dc 7c 85 3f 2e 55 0b 3e 6c 26 90 3f
       -0.061443996 1.0428729 0.13606712 1.1261725
000170 1d 5c 68 3f 38 31 89 3d bf 7d c9 3d 8f 0a 48 bf
       0.90765554 0.06698841 0.09838437 -0.7814111
000180 47 83 9d bf a7 9e dc 3e 69 65 9a bc 77 86 82 3e
       -1.2305688 0.43089792 -0.018847184 0.25493214
000190 7a 45 91 3c 3e 30 c2 be eb 6a 02 40 2c a1 cb bb
       0.017733324 -0.3792743 2.0377758 -0.0062142815
0001a0 a8 d2 99 bf 03 93 4a 3f 06 aa a9 bf eb b2 90 3f
       -1.2017412 0.7913057 -1.3255012 1.1304601
0001b0 a7 45 95 3e d8 bc 83 3e 6e 87 d3 bd 05 f9 3a 3c
       0.29154703 0.25730014 -0.103285655 0.01141191
0001c0 03 a0 ac 3d 0d ab 92 bc e1 6e 48 3f a6 d4 4d bd
       0.08428957 -0.017903829 0.7829419 -0.050251625
0001d0 a9 cc 88 bf ed ad 9a 3b 0f 45 03 3f 79 13 59 bf
       -1.0687457 0.0047204406 0.5127725 -0.8479534
0001e0 67 15 e7 bf bc 1b f5 3d 2d de 62 3e 1b dd 1b be
       -1.8053406 0.119681805 0.22155066 -0.15221064
0001f0 17 41 6a be 71 0f 2b 3f 85 d1 17 3e be 2c 67 3f
       -0.22876392 0.66820437 0.14826019 0.90302646
000200 58 e9 89 bf b5 3d 94 bf de 38 1c 3f 98 b4 6b 3f
       -1.0774336 -1.1581331 0.6102427 0.9207244
000210 67 4f 62 be 85 b7 9d bf 81 db a9 3f 14 1e 25 bf
       -0.22100602 -1.2321631 1.3270112 -0.6449902
000220 b1 00 28 3f 89 80 e3 be 91 7f e2 3c b9 35 08 40
       0.65626055 -0.44434002 0.027648719 2.128279
000230 56 3b cf 3b 02 3a 02 3f 7a 1e bc bf 7b 86 27 3f
       0.006324212 0.5086976 -1.4696801 0.65439576
000240 ca 3c 02 be 1a d6 86 bf 37 89 6d 3f fa e0 d0 bd
       -0.12718502 -1.0534089 0.927875 -0.10199161
000250 9e 6d 82 bf 99 63 9c 3f 7b 27 ae be 1e cb c8 be
       -1.0189703 1.2217895 -0.34014496 -0.39217466
000260 96 f5 ab bf 52 64 a4 bd b5 92 ad bf 14 ba 7f 3d
       -1.3434322 -0.08026947 -1.3560396 0.062433317
000270 9b 81 be be 30 0a b6 3f 68 18 06 c0 b6 16 b7 bf
       -0.37208256 1.4221859 -2.0952396 -1.4303806
000280 46 41 86 3f b9 38 35 3f 36 93 d5 3f 68 d8 13 3f
       1.048867 0.70789677 1.668555 0.57752085
000290 2d 45 b1 be ae a6 9c 3f 09 ba f0 bc d4 8f dc 3f
       -0.3462309 1.2238367 -0.029385583 1.7231393
0002a0 0c 12 08 3e c0 b2 e3 3e c1 76 cf 3e 92 68 be 3e
       0.13288134 0.44472313 0.4052029 0.37189156
0002b0 55 11 fa be e7 61 06 3f f4 ef 14 3f 19 99 f2 3e
       -0.48841348 0.5249314 0.5817864 0.4738243
0002c0 1d e6 15 40 fb a2 15 3f 15 13 e8 3e a1 b4 78 bf
       2.34217 0.58451813 0.45327058 -0.9715062
0002d0 97 71 69 3f 50 63 93 bf 28 cc 1f bd b1 12 10 3f
       0.9118895 -1.1514683 -0.039013058 0.5627852
0002e0 22 83 9d 3e e2 33 e7 be ba 9b d0 3e 61 d3 78 3e
       0.3076411 -0.4515677 0.4074381 0.24299385
0002f0 47 44 98 be cd fa d6 3d 9f 6e bc bf 4c 51 68 bf
       -0.2973959 0.10497055 -1.4721259 -0.9074905
000300 aa 7d 31 3f 62 ec 87 bf 76 82 fd be 9c 32 ad bf
       0.69332373 -1.0619013 -0.49513596 -1.353107
000310 ff 9e b1 be f1 ef 51 bf 5a 81 52 be 29 dd 40 bf
       -0.34691617 -0.82006747 -0.20557156 -0.75337464
000320 a6 01 56 bf ee 72 25 3e a0 b0 66 3f 01 b3 d3 39
       -0.83596265 0.16157123 0.9011326 0.00040378424
000330 6b 83 4d be bf 10 bc 39 3b a9 b5 be af a1 ad 3d
       -0.20069663 0.0003587063 -0.35480675 0.08478104
000340 8e 2c 2d 3f 5f c7 70 3f 0f 88 72 be b9 70 2b 3f
       0.6764611 0.94054216 -0.23684715 0.66968876
000350 6d 80 23 3f af 2f 3f be fa f1 60 3f 62 f2 8e 3f
       0.6386784 -0.18670534 0.87869227 1.1167719
000360 41 10 87 bf 1a f4 9e 3e 37 ba 01 3e 9c 07 fb be
       -1.0551835 0.3104561 0.12668692 -0.49029243
000370 60 2f de bd a0 34 c5 3f dd 3f 44 3f 19 01 3d 3f
       -0.1084888 1.5406685 0.7665995 0.738298
000380 30 32 f2 be ec a0 c7 3e b9 48 03 40 b9 d8 3f 3f
       -0.47303915 0.3898996 2.0513136 0.7494007
000390 52 12 9c 3f f1 a9 d3 bf a1 64 81 bf a2 ee 54 bf
       1.2193091 -1.6536237 -1.0108835 -0.83176625
0003a0 5c 89 4d 3f 3a 44 b8 be c5 1a 80 3f 36 33 cc 3a
       0.8028772 -0.35989553 1.000817 0.0015579227
0003b0 30 b4 4d bf b1 92 1b bf fd c0 4b 3f 40 d6 98 bf
       -0.8035307 -0.6077071 0.7959135 -1.1940384
0003c0 ab f0 fe 3e 53 42 73 3e 5a f1 8d bf 5d cf dd be
       0.4979299 0.2375577 -1.108928 -0.43322268
0003d0 21 33 66 3f 05 83 cf 3b af 6e 5f 3e 25 a0 bf be
       0.89921767 0.0063327574 0.21819566 -0.37426868
0003e0 23 22 60 3f 34 3e 06 bf c9 82 4d bd 7f cf bf 3d
       0.8755209 -0.52438664 -0.050173555 0.093657486
0003f0 85 7f ad bf 82 00 10 3f 92 67 b2 be 04 41 4f bf
       -1.3554541 0.56250775 -0.34844643 -0.8095858

input_projection.weight f4 [64, 67]
000000 81 79 79 3c 90 3d 7b 3d cd f0 24 3d 96 8d 5b 3d
       0.015226723 0.061338007 0.040268708 0.053601824
000010 82 3c 4a 3d 21 41 c1 bd e0 6a 70 3d 14 e6 dd bd
       0.04937411 -0.094362505 0.058695674 -0.108348995
000020 88 c0 89 3d ee 65 a8 3d 10 a5 10 3d cb ce 56 3b
       0.067261755 0.082225665 0.035313666 0.0032777067
000030 0d da 76 3d d7 e0 27 bd 6a 3c 33 bd 29 4f af bc
       0.060266543 -0.04098591 -0.043758787 -0.021400051
000040 be e9 80 bd 34 0b 46 bd f5 79 fe bc f8 a9 1b 3d
       -0.06294583 -0.048350528 -0.031064013 0.03800389
000050 9d cc 7d bd 1f 34 04 bd 4d 73 a2 bd 87 46 01 be
       -0.061962713 -0.03227627 -0.07932148 -0.1262456
000060 c4 c9 4f bd b6 94 f6 bd a2 47 9c 3d f7 4c 41 3e
       -0.050729528 -0.12040083 0.076308504 0.18877016
000070 3f 5b 8e 3d d0 92 45 3d 51 ce e4 3d c2 4e 0e 3d
       0.069509976 0.048235714 0.11172164 0.034743078
000080 a3 03 47 bd d3 4d 90 3c 74 aa 8f 3d b6 40 5b 3d
       -0.048587453 0.017615234 0.07014933 0.05352851
000090 c2 db ce bc 7a 61 1d 3d a8 30 86 bd cd b1 95 3c
       -0.025251273 0.03842304 -0.06552249 0.018273259
0000a0 ce 03 b3 bd b0 dd d5 3d 66 13 1a be 5b ee be 3c
       -0.0874096 0.10442674 -0.15046462 0.023307016
0000b0 50 7c 1f 3e de 27 12 3c c3 6b 71 3c 01 48 0b bd
       0.15574765 0.008920638 0.014735165 -0.034004215
0000c0 35 c7 60 bd 6c de 03 3d 72 dc ec bc cb 95 ab bc
       -0.05487748 0.03219454 -0.02891371 -0.02094545
0000d0 30 47 f0 3d e4 d2 95 bd a8 c8 a2 3d 6b aa 8d 3d
       0.11732328 -0.07315615 0.079484284 0.0691727
0000e0 30 fe 07 bd d5 b3 b0 3d ec 62 23 bc 02 5b d1 3c
       -0.033201396 0.0862805 -0.009972315 0.025556091
0000f0 41 49 4d 3d f0 8f ac bd e6 75 43 bc c1 12 3e be
       0.05011869 -0.084258914 -0.011929965 -0.18561842
000100 cb 0c f8 be 8f 33 fe be 5b fd 0f bf 18 9a 99 bc
       -0.4844726 -0.4964871 -0.56245965 -0.018750235
000110 5e 68 de bd 8a 96 a6 3d 6b 7a d0 3c da ea 39 bd
       -0.1085975 0.08134182 0.025448998 -0.045389988
000120 ee a9 e0 bd 71 51 0d be b6 9c 8b 3d 00 7c 27 bd
       -0.109699115 -0.13800599 0.068169996 -0.04088974
000130 ff 7f 01 3e 58 86 af 3b 8f c2 82 bd 7a 10 f2 bd
       0.12646483 0.005356591 -0.06384765 -0.11819549
000140 11 4e 6d 3c 58 be c9 3d 65 a1 cf bd e4 f2 3e 3c
       0.0144839445 0.09850758 -0.101382054 0.011654589
000150 ee 4e 83 3d e6 3e 93 bd a2 03 8b 3c ab 9f d5 bc
       0.06411539 -0.07189731 0.016969506 -0.026077112
000160 a8 56 80 3d ef 20 24 bc d4 b2 9c bc 5a 1a 26 3d
       0.06266528 -0.010017618 -0.01912824 0.040552475
000170 5d b2 02 be 11 15 de 3d b5 81 9d 3d d1 af 3e ba
       -0.12763353 0.10843862 0.07690755 -0.00072741235
000180 44 7a a5 bc 9a e0 37 3b 03 ae ea 3c d4 49 a4 3d
       -0.020199902 0.0028057457 0.028647428 0.08021894
000190 16 45 ac bd c2 68 8e 3d f7 4a 1e bc 61 7d 9b bd
       -0.084116146 0.06953575 -0.009661428 -0.075922735
0001a0 32 aa 65 3c 9a 68 8b 3d 22 ee 5f 3d f0 5d 8e 3c
       0.0140176285 0.068070605 0.05467046 0.017378777
0001b0 45 ce 11 bc 87 99 04 bd 0c fc d5 3d 7c c0 4f 3c
       -0.008899276 -0.032372978 0.10448465 0.012680169
0001c0 de 7d 98 bc c0 a1 d8 bd 61 b7 1f bc 32 0c e9 3d
       -0.018614706 -0.10577726 -0.009748311 0.11379279
0001d0 98 7f 89 bc d2 fc ad bc 66 3d f6 bd 75 1e 8f bd
       -0.016784474 -0.021238718 -0.120234296 -0.06988231
0001e0 93 57 d3 3d 89 0e 3d 3a 9e 97 82 bd 6a 8b 85 bd
       0.10319438 0.0007211944 -0.06376575 -0.06520732
0001f0 1e 9b c0 bc 6c f7 08 be 89 82 0a 3d 74 b0 0a 3d
       -0.023511466 -0.13375634 0.033815894 0.033859685
000200 4d 40 68 bd a6 c5 c9 3d f3 3b 39 3b c4 5e 57 3f
       -0.056701947 0.098521516 0.0028264492 0.84128976
000210 1d 1d 50 3e 9a 06 de bd 06 4c 7f bd a9 5b 36 3e
       0.20323606 -0.10841103 -0.06232836 0.17808403
000220 26 6f 81 3d c9 21 3a 3d 5b 62 85 bd 32 f9 a8 bd
       0.06320028 0.045442376 -0.065129004 -0.08250655
000230 d9 c7 9e bd 34 91 83 bd e0 d2 09 3c a7 18 15 be
       -0.07752962 -0.0642418 0.008412093 -0.14560185
000240 08 e0 30 be 27 26 40 bd 74 77 1f bd 2e fd 0b 3d
       -0.17272961 -0.046911385 -0.03893228 0.034176998
000250 21 a6 44 bc 1a 57 f4 bd 9a 09 15 be 13 69 a8 bd
       -0.012002499 -0.11930676 -0.14554444 -0.08223166
000260 5a 83 98 bc 8f b1 3f 3d 58 cd a9 bd d8 e0 50 3e
       -0.01861732 0.046800192 -0.08291119 0.20398271
000270 1a 6c 06 3e 1f 52 06 3e 0b ca 8b 3d 0a 9e 10 3d
       0.13127175 0.13117264 0.06825646 0.035306968
000280 f2 b1 08 bc cf 8b 0a be 8e 10 9a bd c6 92 ee 3d
       -0.008343207 -0.13529895 -0.07522689 0.116490886
000290 ad dc 40 3e 65 89 14 be 38 26 38 3d e4 96 cd 3d
       0.18834181 -0.14505537 0.044958323 0.10038546
0002a0 66 ae 08 3d f9 9a 9c 3d 0c c8 2a bd c6 bc fc 3c
       0.033369444 0.07646746 -0.041694686 0.030851733
0002b0 e9 e8 1a be 4c 4d a0 3d 62 df 38 3e a4 98 c9 3d
       -0.1512791 0.07827243 0.18053964 0.09843567
0002c0 d4 6b 46 3c 9b af 8f bd 59 01 55 be 15 cf 4a bc
       0.012110669 -0.07015916 -0.20801295 -0.012378474
0002d0 b2 bd 88 3d b9 6f 24 3e fe 24 49 3e 51 06 b0 3d
       0.066768065 0.16058244 0.19643018 0.08594955
0002e0 04 1e 22 3e 8a 86 e3 bd 43 5f 66 3c a8 68 60 bd
       0.15831763 -0.11109646 0.014060798 -0.054787308
0002f0 a2 f2 00 be 5c 5c ca bd 1d 5a 5f be 19 bb 72 bd
       -0.12592557 -0.098808974 -0.21811719 -0.05926046
000300 65 c8 29 3d 36 95 00 be 77 32 70 be ea 5e 9f 3d
       0.041450877 -0.1255692 -0.23456751 0.07781775
000310 f8 25 a4 3d 7f f9 26 3e ff 19 26 3f 21 1a a2 be
       0.080150545 0.16306113 0.64883417 -0.3166056
000320 32 44 ff be bb 44 bf bc 3a 71 ba 3c 6c 7e e0 bd
       -0.49856716 -0.023348203 0.022759069 -0.10961613
000330 b2 e8 9a 3b d2 2b f8 bc 2c cf 27 3e df 99 7b bc
       0.0047274465 -0.030294333 0.16387624 -0.01535651
000340 c4 eb 43 3d a4 da b4 3d 12 f1 5c 3d d9 b5 98 bc
       0.047832265 0.08830765 0.05394084 -0.0186414
000350 35 ac b7 bd 1a 26 99 bc b3 d8 24 3d 41 f8 8e 3d
       -0.08968393 -0.018694926 0.040245723 0.069809444
000360 2f 41 14 3d bb 75 62 bd 9a 0c 39 bd 55 5c 16 be
       0.036194976 -0.055288058 -0.045178033 -0.1468366
000370 d4 0d 3d 3c 7b ba 01 3d fb bb 89 3d 2f 60 8c bd
       0.011538941 0.031671982 0.067253076 -0.06854283
000380 d4 e9 57 3d e6 ef 06 bd ee b9 5e bc 63 19 ed bc
       0.05271323 -0.03294363 -0.013594134 -0.02894277
000390 06 90 1e be fa 6c 29 be cd 18 5e 3d 8a 71 ee 3d
       -0.15484628 -0.16545478 0.05422287 0.116427496
0003a0 b1 65 0f 3d d5 66 17 be 2c fc 83 3d 96 49 cc 3c
       0.03500909 -0.14785321 0.06444582 0.024937432
0003b0 c2 b1 d3 3d d6 15 3d 3d 87 df 0a be 36 54 3a 3c
       0.10336639 0.046163402 -0.13561831 0.0113726165
0003c0 07 a0 32 bd bd 6d ee 3d e1 a9 ef bb 86 79 40 3c
       -0.043609645 0.11642025 -0.0073139523 0.011747723
0003d0 43 f7 d2 bd ed c2 f2 bd 2d 05 ff 3c ba 4d 62 bd
       -0.10301068 -0.118535854 0.031130398 -0.055249907
0003e0 8e 5e 9c bd ab 49 5a bd 76 6b 67 bd 40 a6 9a 3d
       -0.076352224 -0.05329291 -0.056498967 0.07551241
0003f0 e5 52 dd bd 67 e5 07 be cf 37 90 3b 95 22 77 3d
       -0.108068265 -0.13271104 0.004401184 0.060335714

input_projection.bias f4 [64]
000000 8b 90 0d 3e 9a b7 8a 3d c2 d2 cd bb f2 97 12 be
       0.1382467 0.067733005 -0.006281228 -0.14315775
000010 ed 92 3b 3d c2 a0 0b be d8 dc f4 bc c8 4e 51 3d
       0.045794416 -0.13635543 -0.029890463 0.051100522
000020 1a b8 32 be a5 17 04 3e 8a 61 7d 3e 87 5f 3e 3d
       -0.17453042 0.12899645 0.2474424 0.04647782
000030 35 f0 7e 3d 34 b8 e2 3d d2 b2 20 3d 70 a4 84 3d
       0.062240798 0.1107029 0.039233036 0.064766765
000040 03 a5 ac bd 97 bc 25 bd a5 98 23 3e fe 68 21 3d
       -0.08429911 -0.040463056 0.15976198 0.03940677
000050 40 21 3d bd 30 a1 d8 bd 62 14 8e 3c eb 65 d1 bb
       -0.046174288 -0.10577619 0.017343704 -0.0063903234
000060 95 c0 dc 3c a7 78 0e be 93 e5 50 3c 8c 71 76 3e
       0.026947299 -0.13913213 0.012750047 0.24066752
000070 3a 30 9a bd ca 37 69 bd 67 d1 66 3d 85 0e 4b bd
       -0.0752873 -0.05693797 0.056352045 -0.049574394
000080 6d 67 34 bd 39 71 34 bc 26 f4 8f bc 09 25 13 3e
       -0.044043947 -0.0110133225 -0.017572474 0.14369597
000090 85 6c d5 bc 9d 7e f7 bc f2 d3 fd bc 77 e8 29 3d
       -0.026052723 -0.030211741 -0.030984852 0.04148146
0000a0 57 bc d3 bc 8d 36 20 bc 33 d8 17 3e 46 ed 37 3e
       -0.025846643 -0.009778631 0.14828567 0.17961606
0000b0 16 64 97 3d db 49 e1 bd ec 9c d5 3d cd 78 87 b9
       0.07392137 -0.11000415 0.10430321 -0.0002583921
0000c0 6c 6e d8 3c f9 b4 99 bd ac 6b 6d 3d 1f 49 8b 3c
       0.02641984 -0.07505221 0.057964012 0.01700264
0000d0 b8 56 65 bc 2b 18 b8 3d ac c9 c4 3d 25 48 10 bd
       -0.013997726 0.08988985 0.09608778 -0.035225052
0000e0 d1 d8 ed 3c 69 24 03 be 5b a2 da 3d d9 ce 85 bd
       0.02903405 -0.12806858 0.10675498 -0.06533594
0000f0 b1 86 9d bd 47 83 bf 3d 2a 22 e0 bd e7 d1 2d 3e
       -0.07691706 0.09351211 -0.10944016 0.16974603

mp_layers.0.edge_mlp.0.weight f4 [64, 129]
000000 5f df 13 be 8d fb e1 3c d7 f0 4b 3e 55 e8 87 3e
       -0.14440678 0.02758577 0.19916092 0.26544443
000010 f7 cd ce bd 18 04 36 bd cf 64 a0 3e ce d9 92 be
       -0.100978784 -0.044437498 0.3132691 -0.28681797
000020 f3 e7 cc bd 02 64 bf be 74 f2 9c bd 0b e8 89 be
       -0.10005178 -0.37380987 -0.07663432 -0.26934847
000030 ce 48 05 be 5f d5 58 3d 94 e3 1c 3c e0 42 b2 be
       -0.13016054 0.05293786 0.009575743 -0.34816647
000040 d2 a6 14 3e 12 e9 72 3c 5e 90 28 be fd 2a 1c bd
       0.14516762 0.014826076 -0.16461322 -0.038126934
000050 31 42 25 be 16 8e f0 3d c3 ca a7 3d 27 34 51 be
       -0.16138531 0.11745851 0.081929706 -0.20430051
000060 ca b8 88 be 5a db 4a 3e 67 54 24 3e cd 8c 7a be
       -0.26703483 0.19810238 0.16047822 -0.24467774
000070 39 71 b9 3e 56 9f a9 3d d6 ef d6 bd e3 ab d3 3d
       0.36219195 0.08282344 -0.10494964 0.10335519
000080 2d 71 08 3e 6e ad 0d 3e b5 8e 0b 3e 89 4d cc bb
       0.13324423 0.1383569 0.13628657 -0.006234829
000090 4d be 62 3e 57 f9 d2 be f9 58 ed 3d 05 70 03 3e
       0.22142906 -0.41205856 0.11589236 0.12835701
0000a0 3c 17 21 3d af 14 20 be 75 5f 6e bd 96 45 a3 be
       0.0393288 -0.1563289 -0.058196504 -0.31889027
0000b0 b3 74 0f be f4 4b a6 3d a7 d6 4f be 16 55 b6 3d
       -0.14009361 0.08119956 -0.20296727 0.089029476
0000c0 4e a8 f9 3d 33 6d 56 3c 76 f9 9d 3d 51 2a 08 3e
       0.12190305 0.013087559 0.077135965 0.13297392
0000d0 6c bd 92 bd 92 04 24 3e ec 3d 3d be 0b 4a 6a 3e
       -0.071650356 0.16017368 -0.18480653 0.22879808
0000e0 3a f5 02 be 15 b4 db bd 1d 40 89 bd 17 a4 88 3d
       -0.12788859 -0.10727707 -0.06701682 0.06671923
0000f0 39 5e 5e 3d 54 e8 ec 3d 8e b7 d1 3d fe c3 90 be
       0.054289076 0.115677506 0.102400884 -0.2827453
000100 45 0f 50 bd 10 33 8f be ff e9 c4 3d dc c2 9e 3d
       -0.050795812 -0.27968645 0.09614944 0.0775201
000110 cc 8b eb bd 30 d1 02 be fc 8c 06 3e 0f a7 cc 3c
       -0.115012735 -0.12775111 0.13139719 0.024982003
000120 15 82 a7 bd bf be 86 bd 84 1b c1 bd f7 23 da 3a
       -0.08179108 -0.06579351 -0.09429076 0.0016642798
000130 2d 5f 0f 3e 07 0c 8c bd a9 05 a1 bd 6a a6 b6 3d
       0.1400115 -0.068382315 -0.07862408 0.0891846
000140 c5 23 95 bd 31 b9 35 be 6c 30 af bd e5 82 5d 3e
       -0.07282213 -0.17746426 -0.085541576 0.21631964
000150 f0 ef 38 bd 14 9a f7 bd c5 de e4 3d 78 46 73 3e
       -0.045150697 -0.12089935 0.111753024 0.2375735
000160 ed 70 1b be 12 c1 4e 3c 4a 14 26 bd 07 44 ec 3d
       -0.15179797 0.012619274 -0.040546693 0.11536413
000170 f7 a0 e0 3b 21 a4 9f 3e 95 f9 b8 3d 5d 40 0e bd
       0.006855126 0.31179908 0.09031979 -0.03472935
000180 76 5d 8f 3c f7 8a 67 3e 73 44 07 3d 76 67 59 be
       0.01750062 0.22611605 0.033024263 -0.21230873
000190 a2 2f de bc aa 01 09 3e 2b 86 cb 3d 94 ee ec 3a
       -0.027122322 0.13379541 0.099377 0.0018076473
0001a0 e0 9e 44 be f7 a5 20 be 2a 8c 1a be 7f da 30 be
       -0.19201231 -0.1568831 -0.15092531 -0.1727085
0001b0 80 53 20 be e0 83 60 3d 32 bc 44 be ba 23 ec bb
       -0.15656853 0.054813266 -0.19212416 -0.0072064074
0001c0 25 fd 57 bd 9c 8e 20 be 8a f3 9f bd 99 3d f1 3d
       -0.05273165 -0.15679401 -0.07810123 0.11779327
0001d0 67 f3 cb bd c7 ff b4 bd f6 e9 4e 3e 48 0b 31 3e
       -0.09958535 -0.08837848 0.20206437 0.1728946
0001e0 3a 41 61 3d 66 e5 f9 bd b9 27 c9 3a b6 d3 b2 3e
       0.054993846 -0.122019574 0.0015346921 0.34927148
0001f0 c3 45 ab 3e f8 8e ab 3e 56 5f ec 3d 3e d5 64 be
       0.3345166 0.33507514 0.115416214 -0.2234697
000200 79 da cd be 5a 17 80 3e 08 ea 20 bf 17 be e9 3c
       -0.40205744 0.25017816 -0.62857103 0.028533025
000210 03 cc 41 be 10 17 2d 3e 17 45 6e 3d cf 81 f9 3e
       -0.1892548 0.16903329 0.058171358 0.4873185
000220 36 6c c9 3c 96 1a fa be 1e cc 83 bd ed 63 d7 bd
       0.024587732 -0.48848408 -0.06435417 -0.10517106
000230 5b 40 2a be c9 43 27 3e 9c 65 26 be 77 42 0e 3d
       -0.16626112 0.16334452 -0.16249698 0.034731355
000240 26 8d 58 3e 02 7b b2 be ab e7 b9 be 63 ba f3 be
       0.21147594 -0.34859473 -0.3630956 -0.4760314
000250 2e 1a 9b bd 42 8b 33 bf 2c 71 95 be c2 20 1d bd
       -0.07573353 -0.70134366 -0.29187906 -0.03836132
000260 d6 5c 4c 3e 9d c7 c3 bc ed 8f 4a 39 7e 99 89 be
       0.19957289 -0.023898894 0.00019317838 -0.26874918
000270 65 20 99 3d d2 e2 73 3d 26 78 15 3f 6c b0 89 3d
       0.07476882 0.059542485 0.58386457 0.06723103
000280 a4 09 a0 bd 43 83 ca 3d 4b e5 b2 3e 92 52 84 3e
       -0.07814339 0.098883174 0.34940562 0.25844246
000290 69 aa d1 3d 9c a1 b6 3e b1 ae 8c be b2 87 33 be
       0.10237581 0.35670173 -0.2747703 -0.17532232
0002a0 48 29 a8 ba 35 cd dd be c9 4f 89 be 06 a7 49 3e
       -0.0012829686 -0.43320623 -0.26818684 0.1969262
0002b0 7f aa 7f bc 0d a5 e5 be c2 ba 0d be 83 28 c2 3d
       -0.015604614 -0.44852486 -0.13840774 0.09480383
0002c0 e7 6e af 3e 46 78 f4 be d7 7d 21 be 37 d7 5d be
       0.342643 -0.4774801 -0.1577066 -0.21664129
0002d0 ea 4c d7 3e 8f c9 f7 be 31 7c ad bd 43 26 97 3d
       0.42050868 -0.48395965 -0.08470953 0.07380345
0002e0 1a cd f4 bc 51 42 19 3e 28 c8 4c 3d 4e 37 84 3d
       -0.029882956 0.14966704 0.04999557 0.06455861
0002f0 d0 17 08 3d d7 0d f8 3e 66 c6 54 3f 9d ed 8d bd
       0.033225834 0.4844806 0.8311523 -0.06930087
000300 85 ff f8 be b2 54 4d bd 58 74 82 be bf 9c 9a 3d
       -0.48632446 -0.0501296 -0.25479388 0.07549428
000310 4f ca 84 3c 79 4a 10 3d 91 b0 bd 3d d3 96 41 3d
       0.01620975 0.035227273 0.09262193 0.047262978
000320 09 8f c8 bd f6 c6 21 3c c8 a2 de 3c 70 e1 0a bd
       -0.09792907 0.009874096 0.02717723 -0.0339064
000330 90 b5 ee bd fd 63 e8 3d f0 c5 b4 bd 92 e1 b5 3b
       -0.11655724 0.11347196 -0.08826816 0.0055505717
000340 2d 7e 21 3d bf 0f cf bd 88 74 f5 bd a7 2b 4c bd
       0.03942697 -0.10110425 -0.11985117 -0.049846318
000350 71 ad e3 bc 2b b4 cf bd 2b c2 2c bd 55 d9 27 be
       -0.027792664 -0.10141786 -0.04217736 -0.163915
000360 80 27 52 3e 66 f8 ae 3d 84 4c 02 3e 00 cf 07 be
       0.2052288 0.08543472 0.12724501 -0.13262558
000370 50 b9 0b be c2 67 80 3d c4 1c c9 3e c9 a9 eb bd
       -0.1364491 0.0626979 0.3927976 -0.11506993
000380 0e 34 68 bd 87 7f c8 3c d3 f0 29 3e 2e 25 27 3e
       -0.05669027 0.024474872 0.16595773 0.16322777
000390 db 4b af bd 29 08 59 bc dd 4f e0 bd f1 5b 83 bc
       -0.0855939 -0.013246574 -0.10952733 -0.016035052
0003a0 1a db 43 3e 29 87 0f be 33 b5 84 be eb dd b9 3d
       0.1912655 -0.14016403 -0.25919494 0.090755306
0003b0 09 c3 31 be ab 9c 65 3d 96 2c a5 bd 96 78 03 be
       -0.17359556 0.056057613 -0.08065145 -0.12838969
0003c0 4c 6b 1e 3e 6d da 0c be ff df ff bd 5d 1a 80 3d
       0.15470618 -0.13755198 -0.12493896 0.062550284
0003d0 c2 8d 73 3e 85 d8 c9 bd e5 54 a7 bd ca 0f a0 bd
       0.23784545 -0.09855751 -0.08170489 -0.078155115
0003e0 f5 43 66 bc d9 dd 1d 3e e3 74 fa 3d 65 0e 71 36
       -0.014054288 0.1541666 0.122293256 3.5920177e-06
0003f0 f0 32 71 3e 80 c6 96 3e 18 75 d4 3e 1b 35 9d 3c
       0.23554587 0.29448318 0.41495585 0.019190362

mp_layers.0.edge_mlp.0.bias f4 [64]
000000 70 60 71 be a7 37 87 be 5d a0 72 be 03 f3 c1 bd
       -0.23571944 -0.26409647 -0.23693986 -0.09470179
000010 bd ce 9a ba 21 ff b8 bb 8c 1c 7b be a8 0a 93 bd
       -0.001181088 -0.005645648 -0.24522609 -0.07179767
000020 89 39 93 be 13 ed 06 3e 08 33 c8 bd b4 c5 90 be
       -0.28754833 0.13176374 -0.097753584 -0.28275836
000030 5d 71 9d be b8 91 72 be dd 64 20 be e2 57 ed 3d
       -0.30750552 -0.236884 -0.15663476 0.11589028
000040 34 95 21 be 8a 2d 8d bd c3 6f a6 3d 9c 65 60 bd
       -0.15779573 -0.068934515 0.081267856 -0.054784402
000050 c3 b6 4b be eb 69 a6 be a7 95 71 3e d3 58 8d be
       -0.19893937 -0.32502684 0.23592244 -0.2760683
000060 59 67 55 bd 57 60 e2 bd 8e 05 90 be e9 15 fa 3d
       -0.052100513 -0.110535316 -0.28129238 0.1221121
000070 7e 83 22 be a8 ce 3b be e5 f7 a3 be ca ef a7 3d
       -0.15870473 -0.18340552 -0.32025066 0.08200033
000080 b7 7b 7f be 2a 45 55 3e 1f 43 bc be 1b ea 8b 3e
       -0.24949537 0.20827165 -0.3676996 0.27327046
000090 11 2e 8f bc d5 da 05 3c f7 0d 40 be 04 df c3 3d
       -0.01747802 0.008169849 -0.18755327 0.09564021
0000a0 2f cb a0 be 0b 43 56 be ae bd 48 be 78 0b 12 be
       -0.31405017 -0.20924012 -0.19603607 -0.14262187
0000b0 c5 04 e7 bd 96 bb 2e 3e 82 d5 26 be 9a e9 8c be
       -0.112802066 0.17063746 -0.16292384 -0.27521974
0000c0 a2 aa 4d be c1 9a 81 be ad d2 5a 3d 95 bc d5 be
       -0.20084623 -0.2531338 0.053423572 -0.4174544
0000d0 f7 0b 1e 3b 8e 66 84 be fa 3b 90 be f1 fd 96 3e
       0.0024116018 -0.25859493 -0.28170758 0.29490617
0000e0 bb 20 69 bd d0 f0 63 be 84 66 80 be 87 84 76 3e
       -0.05691598 -0.22259831 -0.25078213 0.24073993
0000f0 57 c7 bd be 20 35 dd bd 2e 43 43 be 52 49 05 be
       -0.37066147 -0.108011484 -0.19068596 -0.1301625

mp_layers.0.edge_mlp.2.weight f4 [64, 64]
000000 14 17 c2 3c 69 78 9c be a0 c7 9f bc 95 f4 78 3c
       0.023692645 -0.30560616 -0.019504368 0.015195032
000010 48 bd c7 bd cf 00 8f 3e d6 44 0d 3b 87 53 4a be
       -0.097528994 0.27930304 0.0021555922 -0.19758426
000020 9b 4f 09 be f7 f7 6d be b6 79 99 bd c8 1b 25 be
       -0.13409273 -0.23239122 -0.07493918 -0.16123879
000030 2c 09 d3 be dd 00 1e be 53 e1 f3 bd ad d3 86 3e
       -0.41217935 -0.15430017 -0.119082116 0.2633337
000040 7c 61 4b be 7d b7 c8 3d 0d 69 95 be 55 27 23 be
       -0.19861406 0.098006226 -0.2918171 -0.15932973
000050 08 68 f0 be 3b 4d 21 3d 6c 19 45 3d cb 92 ac bd
       -0.4695437 0.039380293 0.048119947 -0.08426436
000060 c9 8c 01 bf d9 54 09 bd 9f 7a b3 bc 78 35 29 3e
       -0.50605446 -0.033528183 -0.021909056 0.16524303
000070 2f 39 a2 be f2 1b 81 be 5c 84 a6 be 3b 0d 82 3e
       -0.31684253 -0.25216633 -0.32522857 0.2540072
000080 98 9c 25 bb 9d c4 fa be dc ff e5 be 61 4f b1 be
       -0.002527034 -0.4897813 -0.44921768 -0.34630874
000090 cc 0a db bd 19 05 b2 3d 81 de b5 be fa df 1f be
       -0.10695419 0.086923786 -0.3552132 -0.15612784
0000a0 f2 f1 4e be fe 14 3e be d8 34 ee bd 4b 3d 47 be
       -0.20209482 -0.18562695 -0.11631173 -0.19456975
0000b0 d2 7a d3 3d 22 b3 17 be b4 8a 23 bd 68 8d b1 bd
       0.103261605 -0.14814427 -0.0399272 -0.08669549
0000c0 88 ba 98 3d 58 cb 5f be 0e bc 2e 3e 10 8a 84 bd
       0.07457453 -0.21854913 0.17063925 -0.06471646
0000d0 4a b3 30 be 5e 54 95 bd d8 ef 06 bf 3d 43 2c 3e
       -0.17255893 -0.072914824 -0.5270972 0.16822524
0000e0 43 48 63 3e d5 3c 39 be 89 67 b0 bd e1 8d bd 3d
       0.22195534 -0.18089612 -0.08613498 0.09255577
0000f0 33 f7 36 bd e3 f4 84 be bb 00 9d be 0d 09 9c bd
       -0.04466934 -0.25968084 -0.3066462 -0.07618914
000100 f1 7e dd be c5 9f 11 be 42 07 bc bd be 31 64 bc
       -0.4326091 -0.14221103 -0.09181072 -0.013927875
000110 ef dd b1 be 94 0b 86 3e 62 8a 8c be 25 f6 c4 be
       -0.34739634 0.26180708 -0.27449328 -0.38469043
000120 f7 b4 df be 2e c8 4b be a2 bc de 3d 55 ec 0a 3c
       -0.43692753 -0.19900581 0.108758226 0.0084791975
000130 e4 26 c5 bd 36 21 b4 3c a2 41 03 be 57 9b 30 be
       -0.096265584 0.021988492 -0.12818006 -0.17246757
000140 3b 89 94 be 68 16 20 be 87 00 63 be be 16 90 3d
       -0.2901095 -0.15633547 -0.2216817 0.07035588
000150 9a 86 28 be f0 80 df bc 0a 96 2f 3e 8e 08 96 bd
       -0.16457596 -0.027283162 0.17147079 -0.073258504
000160 2a 31 b5 be 4f 76 43 be 98 d8 af bd c0 2c 0b 3e
       -0.35389072 -0.190881 -0.08586234 0.1359129
000170 db e2 73 bd da 10 cf bd d8 b8 01 be d0 91 92 bd
       -0.059542518 -0.10110636 -0.12668169 -0.07156718
000180 de 10 b7 bd 59 b6 83 be 73 39 32 be 57 11 97 be
       -0.08938764 -0.25725058 -0.17404728 -0.29505417
000190 1b d9 eb be 28 1d ab bb 75 6c 91 be 93 d3 a9 bd
       -0.46064076 -0.0052219816 -0.2840306 -0.08292308
0001a0 f3 6f 54 be 76 99 10 be 7f 56 5b 3e 9b 9f 07 be
       -0.2074583 -0.1412104 0.21419714 -0.13244478
0001b0 5a 58 83 3e 54 54 5f 3e df e7 95 3d 7e 81 05 3e
       0.25653344 0.21809512 0.073196165 0.13037679
0001c0 50 61 9f be fd 83 2c be 12 98 04 be be b6 a0 be
       -0.3112893 -0.16847225 -0.12948635 -0.3138942
0001d0 0e fc 86 bd 19 fd 6e be 36 25 98 3e 14 14 fa bd
       -0.06591044 -0.23338737 0.2971589 -0.12210861
0001e0 76 12 d8 3d 23 53 5e bc 70 9e 35 be f2 27 7d 3e
       0.10550396 -0.013569626 -0.1773622 0.24722269
0001f0 62 68 bb 3b 57 9f c8 3a 2b d1 69 bd 44 47 66 be
       0.0057192305 0.0015306276 -0.057084244 -0.22488123
000200 6c df 8f be 3a 8e ff be e3 63 c6 3d d0 59 5c be
       -0.28100145 -0.49913198 0.09687021 -0.21518636
000210 ce df e8 3d 9d c7 78 be 68 58 07 3e e4 25 fe be
       0.11370812 -0.24294896 0.13217318 -0.49638283
000220 c0 43 b5 be c5 93 16 3e 6c 6f bd bd 74 6c 99 3d
       -0.35403252 0.14704807 -0.09249768 0.07491389
000230 4e 36 94 be 8f 65 b3 be e4 d5 9f be 62 c2 49 bc
       -0.2894768 -0.3503842 -0.31217873 -0.012314411
000240 fe 20 18 be ad 78 1f 3e e5 f0 01 3e 76 2a 6b 3c
       -0.14856336 0.15573378 0.1268955 0.014353385
000250 be 43 a0 be 1a 80 a5 be 27 ef 42 3e 3a e2 bc 3d
       -0.31301683 -0.32324296 0.19036542 0.09222837
000260 63 85 12 3e 7e 0e 0a 3e c8 82 ae bd b4 80 a2 bd
       0.14308695 0.13482091 -0.08521038 -0.079347044
000270 1b aa 08 3e f4 0c 8d be e1 7f a0 be f0 6f 1c 3e
       0.1334614 -0.27548945 -0.31347564 0.15277076
000280 e0 d9 43 be f7 e6 4c 3e 87 76 8f bd 5a fb 4f 3e
       -0.19126081 0.20009981 -0.07005029 0.20310727
000290 da e6 e9 3c 3b 0f ae be 97 4b 92 be 37 cd 41 3e
       0.028552461 -0.33995995 -0.28573295 0.1892594
0002a0 f3 0b 5c be 5d 6a 0c 3d 21 9c 65 be 9d cb 4f bd
       -0.21488933 0.034281123 -0.2242284 -0.05073129
0002b0 d5 d6 d4 be 63 1c 4a be 2f 1d 51 be 6e 0e a8 be
       -0.41570154 -0.19737391 -0.20421289 -0.3282351
0002c0 e6 20 19 be 56 35 1e 3e 40 75 1b 3d b3 5e e1 be
       -0.14953956 0.15450034 0.037953615 -0.44017562
0002d0 18 b9 55 be 06 7a 33 be 4c 00 13 3e b6 d4 82 3e
       -0.20871389 -0.17527017 0.14355582 0.2555291
0002e0 a6 b3 67 bd 96 dd fa be ed 79 86 bd 31 c1 5c 3e
       -0.05656781 -0.48997182 -0.06566224 0.21558072
0002f0 ad 16 40 be 81 4a 1c 3e b8 e2 d9 3d 96 33 12 bf
       -0.1875865 0.15262796 0.10638946 -0.57109964
000300 6b 48 62 3e d6 00 88 be 5d e9 c9 be 41 96 89 b9
       0.22097938 -0.26563138 -0.39435855 -0.00026242624
000310 32 c4 bc 3b 0e df 78 3d 77 40 d9 be e6 a0 a6 be
       0.005760693 0.060759597 -0.42431995 -0.3254463
000320 b4 90 c2 be c0 eb e2 bd dc 9c 4f 3d 6a ca 8d 3d
       -0.38001025 -0.11080122 0.050686702 0.06923373
000330 d3 1f ad be c6 15 1c be c1 04 77 3d 24 7e ac 3d
       -0.33813342 -0.15242681 0.060307268 0.08422497
000340 d6 8e 7f be 9c 38 b1 be 0a 2d 68 bb 61 83 28 3e
       -0.24956831 -0.34613502 -0.0035427236 0.16456367
000350 4c cd 47 be 09 ba b6 3d da 75 dc bd 35 55 88 3c
       -0.19511908 0.08922202 -0.10764666 0.016642192
000360 1d 6b b3 be dc 3b 34 be ca 53 a4 3c e1 7e 8b 3c
       -0.35042658 -0.1760096 0.020059485 0.017028274
000370 44 a1 37 bd 76 98 2a be 08 a5 59 3e 7d 6a 11 be
       -0.04483153 -0.16659722 0.2125436 -0.14200778
000380 6b 59 80 be 66 cd 92 bc 4f 1c 3e be 0f 13 28 be
       -0.2506822 -0.017920207 -0.18565486 -0.1641352
000390 41 18 39 be f7 6d 00 3e d0 54 96 bd 06 5f 18 bd
       -0.18075658 0.12541948 -0.073403955 -0.037199996
0003a0 fd 96 76 3e 9c 9c 82 3e a9 2f a0 3d 41 0f 11 bf
       0.24081035 0.25510108 0.078215905 -0.566639
0003b0 ec be 86 3c 95 eb b0 3d 28 37 c8 bd 02 e4 2a 3e
       0.01644846 0.08638684 -0.09776145 0.1668854
0003c0 ed 18 5c be 47 60 35 3e 69 ed 94 bd 7d c4 6d bd
       -0.21493883 0.17712508 -0.07271845 -0.058048714
0003d0 e5 13 4d 3e 0f c2 00 be a1 99 24 3e 79 78 83 be
       0.2002712 -0.12574027 0.1607423 -0.2567785
0003e0 81 6f fe 3d 71 0e 49 3d 3e 74 09 bf a5 5f fb bd
       0.124236114 0.049086038 -0.53692997 -0.12274102
0003f0 7c ac 82 3e a8 4d 09 3d 3d 5a 04 3d 1c 8e 2e be
       0.2552222 0.033521324 0.03231262 -0.17046398

mp_layers.0.edge_mlp.2.bias f4 [64]
000000 e8 26 a3 bd 9c 4f 1c 3e 41 66 93 3e 35 4b b7 3d
       -0.07966405 0.15264744 0.2878895 0.089498915
000010 97 78 b7 3e c9 b3 a7 be 88 1d 92 be d9 bc f7 3d
       0.3583419 -0.32754353 -0.28538156 0.12096567
000020 32 61 5b be 8f 9b a2 bd 2d a1 2a be 76 87 82 be
       -0.21423796 -0.07939827 -0.16663046 -0.25493973
000030 b2 60 49 3e ba bb 54 3e 48 98 30 3e 74 53 5d bd
       0.19665793 0.20774737 0.1724559 -0.054034665
000040 2f c4 91 3e 6a 54 1c be 16 99 1e be 0d 6f 42 be
       0.2846999 -0.15266576 -0.15488085 -0.18987675
000050 0d 32 1f 3e 6c cb 94 3e 32 b1 48 bd 1a 52 d8 3e
       0.15546437 0.2906145 -0.04899711 0.4225014
000060 39 0f b2 3e ca 7f 3b be 94 d9 99 be b3 cc 9e 3e
       0.3477724 -0.18310466 -0.3004881 0.31015548
000070 d2 03 d9 3e 6e 20 08 be 1b 0d 8b be 3c ec 16 be
       0.42385727 -0.13293621 -0.27158436 -0.14738554
000080 df 02 e0 3d 7d fe 83 bd b0 5e 2c be 80 11 73 3e
       0.109380476 -0.06445024 -0.16832995 0.23737144
000090 b0 54 69 3e 18 b1 08 bf 06 2c a9 3d 61 f5 40 3e
       0.22786212 -0.53395224 0.0826035 0.18843605
0000a0 a4 4f dd be 0f 19 81 3e b0 95 1f bd dd 79 d8 3d
       -0.43224823 0.2521443 -0.038961112 0.105701186
0000b0 02 ba e3 3e 67 c5 8f 3d 94 99 28 bd 52 93 fc 3d
       0.4447785 0.070200734 -0.04116209 0.123327866
0000c0 a5 12 89 bc 62 9b 90 3d f9 f0 1a 3e f7 29 09 be
       -0.016732523 0.07060887 0.15130986 -0.13394915
0000d0 c1 d5 b9 3e 27 10 a9 3d fa c7 83 3e 29 7b ba be
       0.36295894 0.08255034 0.25738508 -0.3642209
0000e0 97 77 4a 3e c1 ea 3a be 26 d4 c4 3c 1b a7 43 3e
       0.19772182 -0.18253614 0.024026942 0.19106714
0000f0 ee 1d 58 be 38 08 86 3e b4 25 c4 3e 54 97 22 be
       -0.21105167 0.26178145 0.38310015 -0.1587804

mp_layers.0.node_mlp.0.weight f4 [64, 128]
000000 a8 80 a7 3d d2 95 dd bb 4e 96 b9 3e d0 a9 32 3e
       0.08178836 -0.0067622447 0.36247486 0.17447591
000010 b2 84 4a 3d f4 b5 72 be 8e 20 26 3d 93 45 01 3e
       0.049442954 -0.23702222 0.04055839 0.12624197
000020 5b dd 15 be 79 10 28 bd c1 8d 0b bf 67 bd 21 3e
       -0.14635222 -0.041031335 -0.54513174 0.15794908
000030 12 95 6c 3d 19 2a 03 3e 35 76 6d be 35 73 99 3d
       0.057759352 0.12809028 -0.23189624 0.07492677
000040 ee ac 0c 3e d5 30 34 3d d0 77 0e be 40 c5 2c be
       0.13737842 0.043991882 -0.13912892 -0.1687212
000050 3c d5 b8 bc 3b 83 8c 3d 45 cf 72 bd 22 86 54 3c
       -0.022562616 0.06860968 -0.0592797 0.012971433
000060 f0 cb 51 3e f6 32 97 bd e5 4c d7 bc 15 2c 5e 3e
       0.20487952 -0.07382767 -0.026281783 0.21696503
000070 07 14 8a be 7c c7 a3 3d e8 dd 13 3d be 25 ae 3e
       -0.26968405 0.07997033 0.0361003 0.3401317
000080 df e9 08 bd 27 1a 27 3d 76 6c 0a be b7 50 78 bd
       -0.03342616 0.040796425 -0.13517937 -0.06062385
000090 77 1a 47 bd c5 31 03 3d c4 e2 ec 3d 2a 48 2f be
       -0.048609223 0.032029886 0.115666896 -0.17117372
0000a0 54 f4 da 3d 82 ae 44 bc af ed fe bc 69 60 10 3e
       0.10691133 -0.0120044965 -0.031119196 0.14099278
0000b0 0a a2 aa bd 3b 85 8f bc e9 83 a6 bc 92 57 92 bc
       -0.08331688 -0.017519584 -0.020326572 -0.017864022
0000c0 22 f8 d7 3d 5c bf b6 3e 44 6f 35 3d f4 27 9a 3d
       0.105453745 0.3569287 0.044295564 0.07527152
0000d0 5b 6a cc bd d0 06 1b bd 28 ea 7a 3e 1f 1d e4 3e
       -0.09981223 -0.037848294 0.24503386 0.44553468
0000e0 2f 12 1d be c9 68 80 be 54 df 8c be b7 2b 55 3e
       -0.15338968 -0.25079945 -0.27514136 0.20817457
0000f0 e6 99 bb 3e ab 24 06 be 8d 2d 26 3d 57 b1 20 3e
       0.36640853 -0.13099925 0.040570784 0.1569265
000100 e4 22 2a 3e 5f 23 75 bd e8 b4 aa bd 5e 55 2e bd
       0.16614872 -0.059848186 -0.083352864 -0.04256188
000110 70 ea a1 bd 28 04 03 3c f7 24 98 bd 79 f8 22 3e
       -0.079060435 0.007996596 -0.074289255 0.15915097
000120 72 b1 c0 3d 09 3d 1f be 83 99 81 bd 6b aa 15 bd
       0.09408845 -0.15550627 -0.06328108 -0.036539476
000130 93 72 06 be 8b 66 19 be 5f 60 3c bc 8d 96 92 bd
       -0.13129644 -0.14980523 -0.011497586 -0.071576215
000140 21 fb 81 bd d9 b2 a7 3d 43 23 80 3c 24 85 9e be
       -0.06346727 0.08188409 0.015641814 -0.30960953
000150 fc db a6 be 23 e2 90 3d 03 f8 0b 3e e4 9b f0 bd
       -0.3258971 0.07074382 0.13668828 -0.11748484
000160 29 50 94 bd c9 1c a5 be 05 d5 46 3c cc c8 92 3d
       -0.07241852 -0.32248524 0.012135749 0.07167205
000170 78 91 34 be 1a 9b cc bd 47 55 4c bd d8 32 11 be
       -0.17633617 -0.09990521 -0.049886014 -0.14179552
000180 4b 11 3a 3d 51 05 c9 be a9 ab ee 3c da 90 15 bc
       0.045426648 -0.3926187 0.029134588 -0.009128774
000190 17 45 01 bd e8 8c 45 be 41 3d 35 bc fc 3a 1f be
       -0.03156003 -0.19292033 -0.011061967 -0.15549845
0001a0 79 98 d0 bd 0c f5 27 3d 82 1f 33 3d 12 90 42 3d
       -0.10185332 0.04100518 0.04373122 0.047500677
0001b0 1e e4 64 be f0 86 98 be 0d 1f f9 3c 5a a9 e8 bd
       -0.22352645 -0.2979045 0.030410314 -0.11360426
0001c0 c7 62 cf 3c 72 68 c1 3d 75 d9 c2 3d 5a 4f 73 3c
       0.025315655 0.094437495 0.09514133 0.014850462
0001d0 86 55 fd ba 1e d3 a9 bd da b1 b7 3d 07 66 8c be
       -0.0019327856 -0.082922205 0.08969469 -0.2742159
0001e0 35 86 5e 3d 74 69 6d be e4 15 15 be 82 f1 a0 be
       0.05432721 -0.23184758 -0.14559132 -0.31434256
0001f0 e3 1d 11 bd 98 bc 25 bd 18 61 6c be 74 6f d6 bd
       -0.035428893 -0.04046306 -0.23083913 -0.10470477
000200 f7 db e5 bc 72 f8 85 3e 3b e0 3a 3d 14 ab 1e 3e
       -0.028058989 0.2616611 0.045624 0.15494949
000210 07 2f 37 3e ad 1e 5c be 87 53 6e be 6b 33 10 be
       0.17889033 -0.21496077 -0.2327405 -0.14082114
000220 6c 46 c4 3d 00 95 0c bd a6 51 07 be 9c ea 0b bd
       0.095837444 -0.034321785 -0.1321474 -0.034159288
000230 27 fd 84 be 3e e5 01 bd f4 0d f9 3d 92 af e3 bd
       -0.2597439 -0.031712763 0.121608645 -0.11117472
000240 c2 b4 2c 3e 87 f9 38 3d 64 2d 22 3e 99 79 3d be
       0.16865829 0.045159843 0.15837628 -0.18503417
000250 e2 d6 8a 3d 1d 96 5b 3e 4b fe 07 be bb e5 25 bd
       0.06779267 0.21443982 -0.13280599 -0.04050229
000260 0e 51 25 bc f6 bd f2 3d d8 41 2e 3d b5 88 bb bd
       -0.010090126 0.118526384 0.042543262 -0.09156934
000270 79 25 2d bd 64 ad 16 be a7 82 93 3d c9 c4 02 be
       -0.042272065 -0.14714581 0.07202654 -0.1277038
000280 cb c8 3a 3e db 31 51 be d0 d8 56 bd 2e 76 e9 3d
       0.18240659 -0.20429175 -0.052452862 0.11399494
000290 71 28 9b bd b2 26 bd bb d8 5a 3a be 49 2c b7 3d
       -0.07576073 -0.005772435 -0.18198717 0.089439936
0002a0 6d af 6f 3e 06 5f 1f be 91 0b b4 3d f0 79 b2 3d
       0.23406763 -0.15563592 0.087912686 0.08714664
0002b0 23 6e 19 3e fc 87 9d bd ee fa c7 3d dc 8b 08 3e
       0.1498342 -0.076919526 0.09764658 0.13334602
0002c0 28 6c c7 3d b2 eb 83 3d e1 b3 47 3e 77 dd 01 be
       0.09737426 0.0644144 0.19502212 -0.12682138
0002d0 6c 95 6f 3e 6c 35 28 be b1 91 10 bd 8a 5f 03 3e
       0.23396844 -0.16426629 -0.035295192 0.12829414
0002e0 81 a8 13 bc 8a 33 2a 3e f1 b1 d4 bd 89 99 a2 bd
       -0.009012342 0.16621223 -0.10385502 -0.07939441
0002f0 3e 1b 5b bd 4e 84 44 be a2 8b a5 bd cb 99 00 3e
       -0.053492777 -0.19191095 -0.080832735 0.12558667
000300 5b b3 16 3e c6 56 bc 3e 16 c4 08 bf 38 76 9b bc
       0.14716856 0.36784953 -0.53424203 -0.01897727
000310 36 f9 1c be 43 97 03 be d7 3a ec be 56 42 08 be
       -0.15329441 -0.1285067 -0.4613864 -0.13306555
000320 e7 45 30 be d9 ba e2 3d 22 2a 81 be 18 f2 99 bd
       -0.17214166 0.110707946 -0.25227457 -0.07516879
000330 ca 29 e1 bd b7 54 7d be 11 48 e9 3d e9 35 f8 3c
       -0.10994299 -0.24739347 0.11390699 0.030299144
000340 b1 62 bd 3c 4f ce b5 3c 01 09 b3 be c3 5a 12 be
       0.023118349 0.022193102 -0.34967807 -0.14292435
000350 e5 84 d9 be 1b f5 23 be 93 6b d6 bd 79 61 84 3e
       -0.42484203 -0.16011469 -0.10469737 0.25855616
000360 98 59 46 be 7d e3 b4 be 6f 0c a6 be 08 af b4 3b
       -0.19370115 -0.3532981 -0.3243136 0.0055140294
000370 81 87 cd be a4 84 c6 3c 53 ac 3b 3d 7b fe d2 bd
       -0.40142444 0.02423317 0.045818638 -0.103024445
000380 10 30 2a be 8e a8 89 bc eb 23 01 bf 65 c3 a4 3c
       -0.16619897 -0.016804006 -0.5044543 0.020112703
000390 72 26 09 3e 96 ae 55 be 6e 44 9d be c9 97 9e be
       0.13393572 -0.2086738 -0.3071627 -0.30975178
0003a0 6e a9 36 39 4d 5f 2f be 86 eb 6c bd a9 06 0a bc
       0.0001741999 -0.17126198 -0.0578418 -0.0084244395
0003b0 62 80 05 be 2a a5 22 be 68 70 33 3e 0a 46 c6 3d
       -0.13037255 -0.15883318 0.17523348 0.09681328
0003c0 1d 6c 06 be 2f f5 ef bd cf ba 0c 3e f0 21 29 bd
       -0.1312718 -0.11716687 0.13743137 -0.04129213
0003d0 31 b1 a9 be 95 ac 90 3d bc 54 cf be d9 7d 8e be
       -0.33143 0.070641674 -0.40494335 -0.2783039
0003e0 29 31 85 3d 33 43 58 bd 2b d1 a5 be e4 cc 8f be
       0.06503517 -0.05279846 -0.32386145 -0.28086007
0003f0 1d d3 3a 3e bc cc 1c bd 52 82 6d be 30 f7 4f be
       0.18244596 -0.038281187 -0.23194245 -0.20309138

mp_layers.0.node_mlp.0.bias f4 [64]
000000 11 e6 49 be 47 e2 2a 3e 48 a7 5c bd bf 37 04 bd
       -0.1971667 0.1668788 -0.05387047 -0.032279726
000010 21 a3 f2 bd 34 2a f0 be 32 0b de 3b dc 89 8d be
       -0.118475206 -0.46907198 0.006776237 -0.2764424
000020 34 e2 3d be dd 5d b5 bd 77 a5 1d 3e e7 f5 42 be
       -0.18543321 -0.088557936 0.15395151 -0.19039117
000030 60 87 a6 3e 53 67 af 3e 73 e7 3e bb b4 e2 dd bc
       0.32525158 0.34258518 -0.0029129654 -0.02708564
000040 63 00 99 bc 5a c6 d9 3b 44 91 96 bd 86 c7 ba be
       -0.018676942 0.00664596 -0.07351926 -0.3648035
000050 60 74 f4 bd 0b a9 1b be 0b 34 08 3d 11 74 a9 39
       -0.11936259 -0.15201204 0.033252757 0.00032320668
000060 67 f3 0c be 2e 73 fe 3b 57 24 c8 be 04 f5 dc be
       -0.13764726 0.0077651953 -0.39090225 -0.43155682
000070 08 c3 05 be 69 fd 6a be 21 77 ca bd 7e c7 a1 3d
       -0.1306268 -0.22948231 -0.09886003 0.07899378
000080 36 a3 83 be f0 f6 08 bd c1 6d 34 3d b2 4c a0 bd
       -0.25710458 -0.033438623 0.044049982 -0.078271285
000090 54 ad 18 be b9 a9 15 3d f4 96 98 be 5e 86 92 bd
       -0.1490987 0.036538813 -0.29802668 -0.07154535
0000a0 dd d8 34 be 38 5a 00 be 03 c5 27 be 4b 7f 74 bd
       -0.17660852 -0.12534416 -0.16383748 -0.05969171
0000b0 00 3b a6 be 1b 63 fd bd 03 e6 30 be a8 85 68 be
       -0.32466888 -0.123724185 -0.17275243 -0.22707236
0000c0 91 e8 36 bc 74 52 4c be 50 bb 8d 3d 63 6c 04 be
       -0.011163847 -0.19953328 0.06920493 -0.12931971
0000d0 15 95 c6 bd bc 62 34 be ab e9 33 3d 09 c7 2b be
       -0.09696404 -0.17615789 0.043924015 -0.16775145
0000e0 2f 99 87 be 7a 5f c3 bd 4a f8 22 3e f6 c6 1c bc
       -0.26484057 -0.09539695 0.15915027 -0.00956892
0000f0 6e 0e c8 be 2c c6 2c be cd 86 cc bd f5 a9 20 be
       -0.3907351 -0.16872472 -0.09986649 -0.15689833

mp_layers.0.node_mlp.2.weight f4 [64, 64]
000000 2c d4 16 be 1f 00 71 3e e3 ab 9c bd 1a 83 7e be
       -0.14729375 0.23535202 -0.07649972 -0.24854699
000010 db 88 d1 3d ee f9 ec bd f6 b2 04 be d0 cc 55 be
       0.10231181 -0.11571108 -0.12958893 -0.20878911
000020 f1 58 85 3d 5f 1a 50 be 28 84 90 bd 12 bb 07 be
       0.06511105 -0.2032256 -0.07056457 -0.13254955
000030 5a 8f 28 3d f4 f5 db 3d 09 d0 f3 3d 97 3e 8d be
       0.041152336 0.10740271 0.11904914 -0.27586815
000040 bb c8 1e 3d 8d 40 b0 3d e9 36 90 bd 29 04 55 bd
       0.03876565 0.08606062 -0.07041723 -0.05200592
000050 e3 d3 c0 3d e7 02 c3 bc 14 e5 39 be f5 1a 91 3c
       0.09415414 -0.023805095 -0.18153793 0.01771305
000060 e3 2b d9 bd 1d 3d 39 bd 93 3a 55 be c6 64 87 3d
       -0.10604074 -0.045224298 -0.20823126 0.06611018
000070 c9 a6 1e bd ae f2 88 be e5 60 50 be ae 53 ab bd
       -0.038733277 -0.2674765 -0.20349462 -0.0836557
000080 95 2a 5b 3e 34 b4 84 bd 42 85 80 be 2d e5 c4 bd
       0.21402963 -0.064796835 -0.25101668 -0.09614024
000090 d4 26 b6 be 09 96 83 be 47 5d f4 bc 80 02 f7 3d
       -0.35576499 -0.25700405 -0.029829634 0.12061024
0000a0 5d 20 03 3e 31 2f b7 bb 0c 91 6b be cd 79 8e bd
       0.12805314 -0.0055903425 -0.2300455 -0.069568254
0000b0 fe 6a 39 bd 3f 85 9a be eb da 17 ba c0 57 71 3d
       -0.04526805 -0.30179784 -0.0005792814 0.058921576
0000c0 57 d6 47 3d 15 14 64 be c5 4c 36 bd 2b 0a 33 bc
       0.048788395 -0.22273286 -0.044506807 -0.010927717
0000d0 97 58 75 3e b3 07 df 3d c8 29 8b be 8b 4c 42 3e
       0.23959576 0.108901404 -0.27180314 0.18974511
0000e0 17 86 af bd 69 af ad be 2b 48 a1 bb e4 01 1f be
       -0.085704975 -0.3392289 -0.004921933 -0.15528065
0000f0 2c 55 3a bd 8e b4 a8 bc a4 46 23 be b5 04 5e be
       -0.045491382 -0.020593908 -0.15944916 -0.21681483
000100 80 f6 7d 3e 39 29 e4 bc 91 8d 01 3d 7a cd ed be
       0.24801064 -0.027851688 0.03162915 -0.4644583
000110 a5 8f 88 bd 21 35 4e 3e 50 d4 3f be ff c9 3d 3d
       -0.06668023 0.20137455 -0.18733335 0.046335217
000120 74 2a c1 3d 01 33 84 3e 66 8d 2f be 56 ef 36 bd
       0.094319254 0.25820163 -0.17143783 -0.044661842
000130 b7 03 6d 3c 54 9c 46 bb cc 98 59 be 8b c6 01 be
       0.014466218 -0.0030305581 -0.21249694 -0.12673394
000140 2f 67 4d 3e 94 d6 9b 3d 7d 17 16 3e 36 da 02 3d
       0.20058893 0.07609287 0.14657398 0.031946383
000150 27 95 0d 3e c1 7e f5 bc b8 c8 75 be 55 63 a2 bd
       0.13826428 -0.029967668 -0.2400235 -0.07929102
000160 d4 cb f6 bc a8 6f bd 3d f1 3b 37 3e 4e a5 f2 3d
       -0.03012649 0.09249812 0.1789396 0.118479356
000170 85 87 5c 3e 42 84 ad 3e 84 f9 ca 3e a6 56 be 3c
       0.21536072 0.33889967 0.3964349 0.023234677
000180 0f 66 cb 3d 63 4b 57 3d e8 89 8f be 0c 36 db 3e
       0.099315755 0.05256213 -0.28034902 0.42814672
000190 34 2c 29 3e b7 ca b8 be ed 56 86 3e 1d 14 16 3e
       0.16520768 -0.3609216 0.26238194 0.1465611
0001a0 cb 56 df 3e 9f a4 ab 3e 22 70 bc be c1 c2 5b bd
       0.43620905 0.33524033 -0.368043 -0.05365253
0001b0 b6 89 48 3e aa 4b 55 3e 0c 34 7f 3e 80 fc 43 3e
       0.19583783 0.20829645 0.24922198 0.1913929
0001c0 c9 fd 18 be 0d bc c7 3e ce 53 73 be 58 d5 b3 3e
       -0.14940561 0.3901066 -0.23762438 0.35123706
0001d0 35 a4 85 b9 87 a3 00 3d 59 35 a4 be d4 25 59 3d
       -0.0002549008 0.03140595 -0.3207195 0.05301459
0001e0 d4 27 ba 3e fa 91 3f 3e c1 e5 4a be ce de fc bd
       0.3635851 0.1870803 -0.19814207 -0.12347184
0001f0 40 87 a9 3e 1a 51 c2 3e 17 10 ca be da a6 a2 3e
       0.33111 0.379525 -0.394654 0.31767923
000200 1c fc cd be 10 36 38 3c 54 d4 3f bd 76 cd 50 bd
       -0.40231407 0.011243358 -0.04683335 -0.050977193
000210 f2 2e 8f bd 55 52 57 be ed 6e f8 bc 8a d3 a0 be
       -0.06991376 -0.21027501 -0.030326331 -0.31411391
000220 3b 63 9d 3d e6 64 f4 be f9 5f 28 3d 5f bf 10 be
       0.07684942 -0.4773323 0.04110715 -0.14135502
000230 15 94 8c 3e 27 5b 25 3e 43 46 25 3e ab d7 c9 3e
       0.27456728 0.16148053 0.16140084 0.39422354
000240 d2 73 8b bd 9e a5 79 3e 0f 6c 09 3e 46 3a 89 bd
       -0.068092 0.24379584 0.13420127 -0.06700568
000250 9f ea ba 3d aa 86 95 3d f2 f1 23 be 24 31 4a bc
       0.09126782 0.07301076 -0.16010264 -0.012340818
000260 c0 a0 f8 bd b1 6c c7 bc 08 ed cb be 90 c7 9e be
       -0.12140036 -0.02434382 -0.39829278 -0.3101163
000270 6a a0 ea be e0 2c d5 be bb 4c cd be d5 db ac 3d
       -0.4582551 -0.416358 -0.40097603 0.08440367
000280 52 17 30 3e d3 aa 48 3d c1 a1 0e 3d 92 57 bf be
       0.17196396 0.048991036 0.03482223 -0.37371498
000290 40 4f 8e be ca d4 10 3e c7 cc 6c be f8 b2 20 be
       -0.27794838 0.14143673 -0.23124991 -0.15693271
0002a0 f5 2f da be 42 b8 92 bd da 53 97 3e 03 95 ad 3e
       -0.42614713 -0.07164051 0.2955616 0.3390275
0002b0 57 3a 83 be 22 12 03 bf b4 a9 b9 be f8 72 85 be
       -0.25630447 -0.51199543 -0.36262286 -0.26064277
0002c0 9c 79 db 3d d6 63 ca be 17 c6 c9 3e 10 c8 9e be
       0.107165545 -0.39529294 0.39408943 -0.3101201
0002d0 1b be ae bd be bb 8a be ea 36 14 be 20 a7 0a 3e
       -0.085323535 -0.2709636 -0.14474073 0.13540316
0002e0 88 12 af be e6 e9 42 be 5f b6 00 be 69 ac 76 3e
       -0.34193826 -0.19034538 -0.12569569 0.24089207
0002f0 45 4a 13 be 2e 75 6b be 86 97 8b 3e c5 ad bb be
       -0.143838 -0.22993919 0.2726404 -0.36656013
000300 39 77 85 3d ee c7 99 3e d2 85 9f bd 32 d0 02 be
       0.065168805 0.30035347 -0.07789196 -0.12774733
000310 e3 a9 10 3e 4c 51 5e 3c ea ba ec bd ee 86 a9 bd
       0.14127307 0.013569187 -0.115590885 -0.08277689
000320 70 c2 87 3d 67 1b b0 bb f7 5d dd bb 3c f1 6b 3c
       0.06628883 -0.0053743604 -0.0067555862 0.0144007765
000330 a4 a7 43 3c aa c2 0e 3e 22 26 83 bd 6a 1e 0a be
       0.011941824 0.13941446 -0.06403758 -0.13488165
000340 b4 c7 30 3d 91 a2 c2 3d 78 23 62 bb 26 04 10 be
       0.0431592 0.09503663 -0.0034506004 -0.14064083
000350 57 15 2a 3e 35 67 e5 3d 8c 6c 00 be d0 cd 1b 3e
       0.16609703 0.11201326 -0.12541407 0.1521523
000360 5b 5d f7 3d 27 d0 b2 3d 12 cf ba bb fb 9d 2b be
       0.12078353 0.08731108 -0.0057009542 -0.16759484
000370 4d bd 50 3c a6 ff 9e 3b ac 17 68 bb 02 cb cf 3d
       0.012740445 0.004852253 -0.00354145 0.101461425
000380 ec e1 01 3e ae ba b0 be 64 d4 9e be be 99 f3 3d
       0.12683839 -0.34517425 -0.31021416 0.11894558
000390 82 95 33 3c 20 33 98 be 9e 34 94 3d 1e 9b d5 bb
       0.010960938 -0.29726505 0.072365984 -0.0065187356
0003a0 b9 44 8a 3e 84 97 75 be 39 27 a4 be 00 89 0f bf
       0.27005556 -0.2398358 -0.32061175 -0.5606842
0003b0 b9 4d b5 3c 41 e7 dd 3c ca 6c b4 3c eb 93 d2 bd
       0.022131788 0.02708781 0.02202453 -0.10282119
0003c0 c3 a9 7e bd 74 99 0a 3d 1f 9d cb be b6 a6 89 3c
       -0.062173616 0.03383775 -0.3976831 0.016803127
0003d0 62 0c ef bd 07 75 5d be 76 ce 42 be ec 87 64 bc
       -0.11672284 -0.21626674 -0.19024071 -0.013948422
0003e0 94 61 d7 bc f1 77 52 3b b4 1e 16 be bd 9a 90 be
       -0.026291646 0.0032114948 -0.1466015 -0.28243056
0003f0 20 f7 51 3c 73 11 66 3d 06 dd ba be c5 05 cd 3c
       0.012815267 0.056168985 -0.36496753 0.025027165
