gnn_h64_l3_t2.5_lr1e-03_bs32_e2.pt (torch, 346428 bytes, 36 tensors)

atom_embedding.weight f4 [20, 64]
00000000: adae 07bf 9cd9 a6bf 543b e33e 906e 9c3f
00000010: f90f 853f 22fa 753f 43bb d73e e8c5 3e3f
00000020: 4f61 ebbf 03f5 9fbf b96c 7ebe ce2e 123e
00000030: 5585 86bf 6a94 b43e c07f bbbd 1ed9 0b3d
00000040: 160a 66bf 0937 d13d dca8 29bf e939 0abe
00000050: fff3 cbbe 6c04 e5bf 64a6 a33f 1be5 aa3f
00000060: 3100 9dbe d9e4 843f fc59 a33f 748a 2b3d
00000070: 06c2 a3bf f9ec ebbf ba00 5d3f 97a7 e3bf
00000080: ffda 4ebf 8a9d 5fbf 67cc 6f3f 51ad 9dbf
00000090: dbad c33f bf3d 8dbe 96cc 5cbf 0611 44be
000000a0: e91d f6be 082b b5bf 2d51 bf3d c0cd 77be
000000b0: 53d6 83bf fd4c 50be 0b2e 30bf 37c0 91bc
000000c0: f361 993f d569 51bf 70ca 3abf 4459 533f
000000d0: f426 603f c886 973e 08b0 233f 19cb 9e3f
000000e0: a8e0 9abf 66b8 72bf 8ff6 243f e704 603e
000000f0: d677 9cbf f9a3 6ebf 362d c4be 5a8a b33f
00000100: a612 913e 21bf 7e3f 63cc 82bc 5320 2cbf
00000110: 2762 e83f 2ff1 ef3c a39f 333e 9138 edbe
00000120: 2df3 aebe b81c 72bf 0c83 1ebf 7a08 c83f
00000130: 277f 78be af19 febf 77f9 5e3d 726b b63d
00000140: 349c c13e 25a1 ba3f 8913 0dbf 3b51 c0bf
00000150: 2e3f bd3e 450a 1bbe a216 8f3e 6de4 d2bf
00000160: 072f b1be 17ef 9b3f f409 933e 61e2 a93f
00000170: 7b29 8e3f 5ff8 0c3e f402 b13d 4871 31bf
00000180: ca3a 9ebf 92f6 0c3f b023 79be 0c99 013e
00000190: 92ea 083f 489a 24bf 1d8c 0b40 8cd7 803d
000001a0: 31be a5bf ff17 7f3f a47c c0bf bf29 b13f
000001b0: c0e5 053f c03e 043f 542c 9abe db0e e0bd
000001c0: 11a2 94be 0563 b33e f535 0f3f 35ca 9fbe
000001d0: 974b 82bf 120d 043f 6f40 273f f488 54bf
000001e0: 1f58 e1bf a26e b93e 73db d73e 95d2 c0be
000001f0: cb0a db3d 6e45 573f b33d b33e 8059 523f
00000200: 58e9 89bf b53d 94bf de38 1c3f 98b4 6b3f
00000210: 674f 62be 85b7 9dbf 81db a93f 141e 25bf
00000220: b100 283f 8980 e3be 917f e23c b935 0840
00000230: 563b cf3b 023a 023f 7a1e bcbf 7b86 273f
00000240: ca3c 02be 1ad6 86bf 3789 6d3f fae0 d0bd
00000250: 9e6d 82bf 9963 9c3f 7b27 aebe 1ecb c8be
00000260: 96f5 abbf 5264 a4bd b592 adbf 14ba 7f3d
00000270: 9b81 bebe 300a b63f 6818 06c0 b616 b7bf
00000280: 4641 863f b938 353f 3693 d53f 68d8 133f
00000290: 2d45 b1be aea6 9c3f 09ba f0bc d48f dc3f
000002a0: 0c12 083e c0b2 e33e c176 cf3e 9268 be3e
000002b0: 5511 fabe e761 063f f4ef 143f 1999 f23e
000002c0: 1de6 1540 fba2 153f 1513 e83e a1b4 78bf
000002d0: 9771 693f 5063 93bf 28cc 1fbd b112 103f
000002e0: 2283 9d3e e233 e7be ba9b d03e 61d3 783e
000002f0: 4744 98be cdfa d63d 9f6e bcbf 4c51 68bf
00000300: aa7d 313f 62ec 87bf 7682 fdbe 9c32 adbf
00000310: ff9e b1be f1ef 51bf 5a81 52be 29dd 40bf
00000320: a601 56bf ee72 253e a0b0 663f 01b3 d339
00000330: 6b83 4dbe bf10 bc39 3ba9 b5be afa1 ad3d
00000340: 8e2c 2d3f 5fc7 703f 0f88 72be b970 2b3f
00000350: 6d80 233f af2f 3fbe faf1 603f 62f2 8e3f
00000360: 4110 87bf 1af4 9e3e 37ba 013e 9c07 fbbe
00000370: 602f debd a034 c53f dd3f 443f 1901 3d3f
00000380: 3032 f2be eca0 c73e b948 0340 b9d8 3f3f
00000390: 5212 9c3f f1a9 d3bf a164 81bf a2ee 54bf
000003a0: 5c89 4d3f 3a44 b8be c51a 803f 3633 cc3a
000003b0: 30b4 4dbf b192 1bbf fdc0 4b3f 40d6 98bf
000003c0: abf0 fe3e 5342 733e 5af1 8dbf 5dcf ddbe
000003d0: 2133 663f 0583 cf3b af6e 5f3e 25a0 bfbe
000003e0: 2322 603f 343e 06bf c982 4dbd 7fcf bf3d
000003f0: 857f adbf 8200 103f 9267 b2be 0441 4fbf
-0.5300091 -1.3035159 0.443812 1.2221241 1.03955 0.960848 0.42135057 0.7452073
-1.8389071 -1.2496647 -0.24846162 0.14275667 -1.050944 0.3526948 -0.09155226 0.034142606
-0.8985914 0.10215575 -0.66273284 -0.13498653 -0.39834592 -1.7891974 1.2785153 1.3351167
-0.3066421 1.0382339 1.2761836 0.041880086 -1.2793586 -1.8431693 0.86329234 -1.7785519
-0.8080291 -0.8734976 0.9367127 -1.2318517 1.5287431 -0.2758617 -0.86249673 -0.19147119
-0.48069695 -1.4153757 0.09341655 -0.24199581 -1.0299782 -0.20341869 -0.68820256 -0.01779185
1.1983017 -0.8180211 -0.72965145 0.82558084 0.8755944 0.29595017 0.6394048 1.240573
-1.209981 -0.9481262 0.6443872 0.2187687 -1.2224071 -0.9321895 -0.38315743 1.4026597
0.2833454 0.9951039 -0.0159666 -0.6723682 1.8154954 0.02928981 0.17541365 -0.4633222
-0.34169903 -0.9457507 -0.6191871 1.5627587 -0.24267255 -1.9851588 0.054437127 0.08907212
0.37814486 1.4580427 -0.55107933 -1.502479 0.36962265 -0.15140636 0.27946955 -1.647596
-0.34606192 1.218234 0.2871853 1.327221 1.1106409 0.13766621 0.086431414 -0.6931348
-1.2361691 0.55063736 -0.2433002 0.12656039 0.53482926 -0.64297915 2.1804268 0.06291112
-1.2948667 0.9964599 -1.5038037 1.3840865 0.52303696 0.5165825 -0.30111945 -0.109403335
-0.29029897 0.35036483 0.55941707 -0.3120896 -1.0179318 0.51582444 0.6533269 -0.83021474
-1.7605017 0.3621722 0.42159614 -0.3766066 0.10695418 0.84090316 0.3500801 0.82167816
-1.0774336 -1.1581331 0.6102427 0.9207244 -0.22100602 -1.2321631 1.3270112 -0.6449902
0.65626055 -0.44434002 0.027648719 2.128279 0.006324212 0.5086976 -1.4696801 0.65439576
-0.12718502 -1.0534089 0.927875 -0.10199161 -1.0189703 1.2217895 -0.34014496 -0.39217466
-1.3434322 -0.08026947 -1.3560396 0.062433317 -0.37208256 1.4221859 -2.0952396 -1.4303806
1.048867 0.70789677 1.668555 0.57752085 -0.3462309 1.2238367 -0.029385583 1.7231393
0.13288134 0.44472313 0.4052029 0.37189156 -0.48841348 0.5249314 0.5817864 0.4738243
2.34217 0.58451813 0.45327058 -0.9715062 0.9118895 -1.1514683 -0.039013058 0.5627852
0.3076411 -0.4515677 0.4074381 0.24299385 -0.2973959 0.10497055 -1.4721259 -0.9074905
0.69332373 -1.0619013 -0.49513596 -1.353107 -0.34691617 -0.82006747 -0.20557156 -0.75337464
-0.83596265 0.16157123 0.9011326 0.00040378424 -0.20069663 0.0003587063 -0.35480675 0.08478104
0.6764611 0.94054216 -0.23684715 0.66968876 0.6386784 -0.18670534 0.87869227 1.1167719
-1.0551835 0.3104561 0.12668692 -0.49029243 -0.1084888 1.5406685 0.7665995 0.738298
-0.47303915 0.3898996 2.0513136 0.7494007 1.2193091 -1.6536237 -1.0108835 -0.83176625
0.8028772 -0.35989553 1.000817 0.0015579227 -0.8035307 -0.6077071 0.7959135 -1.1940384
0.4979299 0.2375577 -1.108928 -0.43322268 0.89921767 0.0063327574 0.21819566 -0.37426868
0.8755209 -0.52438664 -0.050173555 0.093657486 -1.3554541 0.56250775 -0.34844643 -0.8095858

input_projection.weight f4 [64, 67]
00000000: 44e4 6d3d ce77 783d c209 49bc 6c52 613d
00000010: 1588 fdba 9d4e aabd bd65 b33d 941a a7bd
00000020: a5f1 9c3d 3550 343d f668 5dbc 5414 13b9
00000030: 58f3 db3d 181b a0bc 76fc dbbd 3f5a 63bc
00000040: 46a5 82bd e4ef 74bd f057 b8bc 1ad8 953d
00000050: cbec acbd c197 8dbd c7cb abbd 60f6 d8bd
00000060: bba3 13bd af4b adbd 4a04 c33d 472d 1c3e
00000070: c858 c93c 43a6 d53c 8420 8f3d 5278 573c
00000080: 2f7a 63bd 4410 c93c 01c7 eb3c bde3 a93d
00000090: 420d 003d 7bc8 833d dfea 9dbd ddb4 d3bc
000000a0: a594 f2bd baf6 c63d a8b3 d8bd 9c30 bdbb
000000b0: 83ef e23d 9a5f 763d 01c8 14bc 65ad 09bd
000000c0: 1072 9cbc 660c 403c de00 023c f41b 8e3c
000000d0: fb2e a73d 780d 92bd 8d4e f73c 8a02 5f3d
000000e0: 416e 90bd e1ec c83d b283 a1bc a234 923d
000000f0: a7fe 7d3c c19f c2bd 96f5 9a3b fd3d 1dbe
00000100: 3134 0dbe ebdb 50be 453c 82be 7fb6 d1bc
00000110: 2300 e6bd 789b 403d 157c b63c b04f 5abd
00000120: 6eac cebd adc6 cdbd c51d 933d 8b71 f2bc
00000130: ce2d ea3d f03f 773b 1cad 50bd b4ed cdbd
00000140: 3c3d e4bc ad4a 863d cd1a cfbd bf4c 4fbc
00000150: a904 7e3d b05e 78bd 8a5f fcbc 58ec 31bd
00000160: 7d77 523d fa00 67bc ccc9 21bd 8104 e13c
00000170: df6d e3bd 148f a83d 46aa e73d b7d3 bd3c
00000180: c04e 84bd f3a8 3cbd 5213 153d 0f34 a83d
00000190: cf2c c8bd 0c08 5a3d b659 22bc d027 8ebd
000001a0: 780c c13c aa21 c93d 4565 353d cf8e eabb
000001b0: b59f 0dbd d995 3dbc 0be1 dc3d 2d2e 653c
000001c0: 49fc 0bbd 7f40 bebd c664 103b 3c42 e73d
000001d0: c6f0 adbc be2f babc 5df9 d7bd 11e8 a2bd
000001e0: 3091 cb3d 92c4 b13c de9b 77bd 1b8e 96bd
000001f0: 540a 27bd 3454 c1bd 2dc3 8a3d c384 063d
00000200: 5529 75bd d7e6 b03d d3ab 7cbb 8b47 af3e
00000210: bd23 553d 9acd 8cbd 930a 08bd 858c 503d
00000220: 5265 603c c42c 913c ed02 3abd 5a0f 22bd
00000230: c0e7 1c3b 5107 d8bc 7b30 c5bd bcad 9fbd
00000240: c4be 17bd 5c3a 61bd 7b2f ccbc b265 1bbd
00000250: 4d87 dabd aedf 4b3d bbf9 d0bc 6acd a3bd
00000260: ed7f d8bb 26cb 183c d6a9 eabd e5cd 013e
00000270: 684f 17bd 46c0 853d 20fd c43d 151f ce3d
00000280: b3a7 bc3c 81d6 b0bd 21f0 1fbd 6d2d 373d
00000290: 2cac be3c 4552 73bd 32cb 0c3e 1c3e 973d
000002a0: d362 5c3c 4828 8cbd 8490 4b3d eca5 083d
000002b0: 4b44 e3bd d70c 6c3d c8bc 253d f8ca dbbc
000002c0: c058 6ebd cd35 4b3c 0d92 c5bd e23d 01bd
000002d0: f174 4fbc c84d 8b3d 80fc cd3d 9736 b13c
000002e0: 3f36 373c 0506 38bd 903b 713d 39b1 9abd
000002f0: bb33 0a3b c7c0 48bc b4c1 ccbd 71b7 e1bd
00000300: c4ca 9f3c 2495 56bd 67f8 cfbd f4a6 17bd
00000310: 3e6e f83d 3c98 963d efb3 a83e 8118 013d
00000320: 3893 70be b393 17bc 58af a4bc 3e00 f5bd
00000330: 8ece aa3c ada7 e2bb abcd 0f3e 0839 753d
00000340: 8768 373d 2983 b23d 1460 283d f676 a83c
00000350: 87fd 8dbd 0d5f 5c3c 4447 debc afff 0b3d
00000360: babb 943d 93b6 5cbd 6c0a 4abd 3b3c efbd
00000370: cf2d 6dbd c4fa 413d b9cd 8b3d f39c b9bd
00000380: 3e70 323c 6246 f2bc c6d3 093d 152e 55bd
00000390: c552 d3bd 01d0 dfbd b606 a13b aa87 213d
000003a0: 157f b03d 14e5 e0bd 0e0c 0b3d 0340 2d3d
000003b0: b3f8 8d3d 170b 743d f536 f5bd 675f 693d
000003c0: 543a 31bd 2162 5e3d e44c 11bd 0289 39bb
000003d0: 9db7 9fbd a8b9 8fbd 850c 103d 0687 71bd
000003e0: 48cc a1bd 00ef bcbd 16d0 b7bd c3b9 0b3d
000003f0: 3e40 9fbd 0f5b bdbd 3cde 09bd 535b da3d
0.05807902 0.06066113 -0.012270393 0.055010244 -0.0019342924 -0.083157755 0.087596394 -0.08159366
0.076632775 0.044021804 -0.013513794 -0.00014026585 0.107397735 -0.01954417 -0.107415125 -0.013876497
-0.0637918 -0.05979909 -0.02250287 0.07316609 -0.08443602 -0.069137104 -0.08388477 -0.10593867
-0.036044817 -0.08461701 0.095223024 0.15251647 0.024578467 0.026080256 0.06988624 0.013151245
-0.055536445 0.024543889 0.028781416 0.08295391 0.031262644 0.06434723 -0.07710814 -0.025843078
-0.11844758 0.09715028 -0.10581142 -0.005773617 0.110808395 0.060149767 -0.009080888 -0.033612628
-0.019097358 0.011721706 0.007934777 0.017347313 0.08163258 -0.07131475 0.030188823 0.05444578
-0.07052279 0.09810806 -0.019716118 0.07138945 0.015502608 -0.09503127 0.004728983 -0.15355678
-0.1378944 -0.20396392 -0.25436607 -0.025599716 -0.11230495 0.047023267 0.022275964 -0.053298652
-0.10091482 -0.1004766 0.071834125 -0.029595157 0.11434518 0.0037727319 -0.05094634 -0.10055104
-0.02786123 0.06557212 -0.10112534 -0.012652575 0.062016163 -0.060637176 -0.030807275 -0.043438286
0.051383484 -0.014099354 -0.03949909 0.027467968 -0.111049406 0.08230415 0.11311774 0.023172243
-0.06460333 -0.04605956 0.03639538 0.082130544 -0.097741716 0.05323033 -0.009909084 -0.069411874
0.023565516 0.09820874 0.04428603 -0.0071581374 -0.034576137 -0.011571371 0.10785111 0.01398806
-0.034176145 -0.092896454 0.0022032722 0.1129193 -0.021232974 -0.022727843 -0.10545609 -0.079544194
0.09939802 0.021700177 -0.06045138 -0.07351323 -0.040781334 -0.094398886 0.06775508 0.032841455
-0.05985387 0.08637779 -0.0038554564 0.3423427 0.052036036 -0.06875153 -0.03321321 0.05091526
0.013696032 0.017721541 -0.045412946 -0.03956542 0.0023941845 -0.026370676 -0.096283875 -0.07796809
-0.037047163 -0.054987296 -0.024924984 -0.03793878 -0.10670338 0.049773864 -0.025509706 -0.07998164
-0.006607047 0.009325778 -0.11458175 0.12676199 -0.036940962 0.06530814 0.09618592 0.10064522
0.023029184 -0.086346634 -0.039047364 0.044721056 0.023275457 -0.05940463 0.13749388 0.07384893
0.013451296 -0.068436205 0.049698368 0.03336136 -0.1109701 0.057629433 0.04046324 -0.026830181
-0.058190107 0.012402964 -0.096469976 -0.031553157 -0.012662158 0.06801945 0.10057926 0.021632476
0.011182367 -0.044927616 0.058894694 -0.07553334 0.0021087963 -0.012252993 -0.099978834 -0.11021317
0.019505866 -0.052388325 -0.10154801 -0.037024453 0.12130402 0.07353255 0.32949778 0.03151751
-0.2349366 -0.009251523 -0.020103142 -0.11962937 0.020850446 -0.006916961 0.140433 0.059868842
0.04477742 0.08716423 0.041107252 0.020564537 -0.06933122 0.013450396 -0.027133591 0.034179386
0.072623685 -0.053885054 -0.049326345 -0.1168141 -0.057905015 0.04735829 0.06826348 -0.09063139
0.010891018 -0.029574577 0.03364923 -0.0520459 -0.103185214 -0.109283455 0.00491413 0.03943602
0.08617989 -0.10981193 0.033947043 0.042297374 0.06932201 0.05958089 -0.11973373 0.05697575
-0.043268517 0.0542928 -0.03547372 -0.0028310423 -0.07798693 -0.07017833 0.03516819 -0.05896666
-0.07900292 -0.09225273 -0.08975236 0.034112703 -0.07775925 -0.09245884 -0.033659205 0.1066195

input_projection.bias f4 [64]
00000000: 61c7 ac3d c34e ba3d 9764 983d c224 9ebd
00000010: ed3b b4bc d545 babd 29ce 36bd f37b 5fbc
00000020: e3d4 09be a184 c23d 43ab 093e 89ea adbb
00000030: d708 2b3d bd16 313d 8069 793c 9534 ef3b
00000040: 764c 9cbc 010f 8b3c 2e16 e83d 1041 b0bc
00000050: 655d babb 6eb8 8dbd 5236 593d 8679 623d
00000060: ec70 33bd f5f9 06bd 5918 d03c bd28 053e
00000070: 2b6d 17bd ba9a 67bd 2ad4 5b3d 9351 363c
00000080: 0e92 82bd f513 52bd 089b 4f3c 4caf a83d
00000090: 4711 b6bb fc87 cbbd 3bd2 61bd 4abe c43d
000000a0: 8160 9d3c b7a6 bebd f829 b63d 3694 e83d
000000b0: 6820 6b3d 5b95 a0bd f50e a83d 0301 87bc
000000c0: 41a0 aa3d d86a bebd 4241 b8bb b0ff 303d
000000d0: ba0d 353d b2de 3b3d f336 553d ba1b 0abd
000000e0: 9fbe 973d 97ef 73bc dc7d ef3d 172c 29bd
000000f0: 75f7 4ebd 0c62 b23d 44b8 94bd 6789 d03d
0.08436466 0.09097054 0.07441061 -0.07721855 -0.022001231 -0.09095351 -0.044630203 -0.013640392
-0.13460116 0.09497953 0.13444237 -0.0053075 0.041756477 0.043234576 0.015222907 0.0072999694
-0.019079428 0.016974928 0.113323554 -0.0215154 -0.005687403 -0.06919943 0.05303032 0.055291675
-0.043808863 -0.03295322 0.025402235 0.13003822 -0.036969345 -0.056544043 0.053669132 0.011127847
-0.06375514 -0.051288564 0.01267124 0.0823656 -0.005556259 -0.09938046 -0.055132132 0.09606607
0.019211056 -0.09309142 0.08894724 0.11356394 0.057403952 -0.07840987 0.08205978 -0.016479975
0.08331347 -0.092977226 -0.0056230137 0.043212593 0.044202544 0.045866676 0.052054357 -0.03371785
0.07409405 -0.014888666 0.11693928 -0.041301813 -0.050528962 0.08710107 -0.072617084 0.101824574

mp_layers.0.edge_mlp.0.weight f4 [64, 129]
00000000: 91f0 10be b88c a13d 455c 903d 4219 f03d
00000010: 5e4e d2bd a118 fbbb 15b8 4b3d b527 bbbb
00000020: b82a 99bc e1ce e7bd 2c15 e63c d665 b5bd
00000030: b946 ccbd b33f 62bc 35dc 28bd c58d 14be
00000040: a0a8 5a3d 5a96 993d b9c4 c8bd a574 9dbd
00000050: 5a8a 6e3d a3e7 1f3d 669e 03bd 1643 3dbe
00000060: 3277 cbbd da31 a23d e661 c13d e001 7dbc
00000070: 31e6 fe3d 736a 93bb 95c4 253d 200a dd3d
00000080: 8f99 8d3c 1388 4fbd 259b 8b3c 360b a2bd
00000090: 4625 dbbc 8fc1 edbd c24b 13bd f293 113d
000000a0: 869d ac3d d176 94bd 1290 20be 342b a3bd
000000b0: aba6 543d ab91 1f3b d4f9 60bd 03ed 663d
000000c0: b4a3 a03d b30e 5c3d 6d6f 803d 7a21 fbbc
000000d0: 6d5a ee3d 6de1 ba3d 10a5 f73b 3a9e ba3d
000000e0: f8f7 863d 9bc0 77bb 8bc4 5cbd bf4c e43b
000000f0: bb48 a0bc d578 13bd 7548 4d3e 822f 2bbc
00000100: 4cd6 e23c 4133 35be 9302 e3bd 5d07 b039
00000110: 60c7 23bd 72eb 2cbd 2178 053e fcb0 853a
00000120: ca93 be3c 78ed bcbc 8f45 be3d ba15 2cbd
00000130: 1889 99bd db50 acbd 1354 103e 7b1b 203d
00000140: cdbd 08be 43d3 64bd 4dcd 19bd d94a c73d
00000150: 277a 46bd 938b d9bd d6db 253d 902b a33d
00000160: 51b3 07be 6524 603d 0532 0abc 3f8b 9c3d
00000170: bb06 843c c9f0 1b3d cea6 92bb cf7e 0dbe
00000180: afd6 953d 07ca 483d d284 7c3d 67f5 f23c
00000190: efb1 d63d e2ad d83d 85e5 be3c b453 933d
000001a0: 6785 9ebd 590b e8bd 14e7 89bb 2bac 56bd
000001b0: a72b c0bd bac1 eabc c379 b9bd addc 1d3c
000001c0: 7253 4b3a 4cc9 55be ff8f 163c 85d9 42bd
000001d0: 2a67 96bd 88e1 88bc e050 a63c 3464 ca3d
000001e0: 9efc 7e3c cd2c 0a3d 7e0e 083d 9d35 233e
000001f0: 5291 1d3e a96c 2d3e 54ba bebd ac1f 7bbd
00000200: 4cfe 38bd cbf2 bb3d 41f5 abbe 408c e4bd
00000210: 5704 97bd 5f8b 203e 7907 953d 08a6 833e
00000220: 6a96 c13d 7ca3 95be 7558 913d 00bd acbc
00000230: 9bc7 e6bd 9574 413d d48c 11be 7c4b b93d
00000240: f729 f43d 2982 afbe fa19 1dbe d0f7 82be
00000250: 1e1e e1bc 2791 fbbe a3f6 2bbe 428b 20bd
00000260: f7af 323e 5d1c 1abd cef7 5f3c 42b3 14be
00000270: 677c 9d3d 8827 fc3c 8b58 883e 8d22 303b
00000280: 5992 d3bd ab7b ba3d bb52 023e f802 153e
00000290: 4f95 37bb 6303 5b3e d5c1 0bbe c79a 9bbd
000002a0: ca49 f13b 5f44 3fbe 0cae 40bd ab84 a93d
000002b0: 3e88 b83c f2f4 f2bd bd56 a2bd b03a eb3d
000002c0: 9357 7b3e 30e0 bcbe b023 a4bd e7b2 e5bd
000002d0: 8df7 303e 3d3d 79be 6ccf 80bd 1a1b c23b
000002e0: c0d4 50bd 4c6b 0d3e e29f 343d c556 b4bc
000002f0: 80ff 14bc e83f 563e bc20 093f e80f c0bd
00000300: 99ee afbe 928d ccbc d596 fabd 8e82 33bc
00000310: 115b 843d 6541 013e 1a99 84bd 1a2b 5c3d
00000320: becc 30bc 21ef 31bd 46ba 3bbc 7ee7 073d
00000330: 778c a33d de5e 7b3d 6e36 dabc e979 d0bc
00000340: af5c ae3d 9efb d3bd 20a9 b6bd a76d 71bc
00000350: 6f45 df3c 1b60 90bd 459e 1a3b 59ef 01be
00000360: 2d7c 753d aa69 5f3d 1ea0 943d e6b0 b0bd
00000370: 834f bebd daf0 153d 93ac 773e da33 e4bd
00000380: cdf7 1bba 506c 6abd 9443 b63d 8116 b13c
00000390: 5d84 42bd 78e6 b23c b40f 16be 892c 633c
000003a0: e239 563d 7aaf f6bc afe5 22be 10fd 673d
000003b0: a574 57bb c54c bcbc e59a 3ebd 6bc7 a2bd
000003c0: 5275 d93d 2f5e debd b339 ffbd a345 1cbc
000003d0: d067 303e 7bef d7bd aa3b 76bd bc30 c03b
000003e0: bae6 8fbd 5903 d43d 40a7 423d 3eef edb9
000003f0: 3b57 e23d 0612 333e 0670 813e 9dbe aebb
-0.14154269 0.07888168 0.07048849 0.117235675 -0.102688536 -0.007662848 0.0497361 -0.0057115206
-0.018697128 -0.11318756 0.028086267 -0.08857314 -0.09974427 -0.013809132 -0.04122563 -0.14507206
0.05338347 0.074993804 -0.09803147 -0.07688264 0.05823741 0.039039265 -0.032133482 -0.18482623
-0.09934844 0.07919665 0.09442501 -0.015442342 0.12446249 -0.0044987737 0.04047068 0.10792947
0.017285137 -0.05066688 0.017041752 -0.079122946 -0.026751172 -0.11609184 -0.03596092 0.035541482
0.08428483 -0.07249225 -0.15679958 -0.07967225 0.05191676 0.00243483 -0.054925755 0.056378376
0.07843724 0.053724956 0.06271253 -0.030655611 0.11638341 0.09125028 0.007557519 0.091122106
0.06590265 -0.003780401 -0.053898375 0.0069671567 -0.01956593 -0.036003906 0.20047171 -0.010448338
0.027690075 -0.17695333 -0.11084475 0.00033574822 -0.03998506 -0.042216726 0.13034107 0.001019984
0.02326383 -0.023062453 0.09290611 -0.042012908 -0.07496852 -0.084138595 0.14094572 0.039088707
-0.13353653 -0.055865537 -0.037549306 0.09731073 -0.048456337 -0.10622325 0.040492855 0.07967293
-0.13251998 0.05472221 -0.008434777 0.076437466 0.01611649 0.038071427 -0.004475451 -0.13817905
0.07316338 0.049020793 0.061650105 0.029658033 0.10483157 0.105800405 0.023302803 0.071936995
-0.07740288 -0.113302894 -0.004208455 -0.052410286 -0.09383326 -0.02865683 -0.09056427 0.009635133
0.000775627 -0.2087757 0.009189605 -0.047570724 -0.07343896 -0.016709104 0.020302236 0.098823935
0.015563158 0.03373413 0.033216946 0.1593842 0.15387467 0.16935982 -0.09312883 -0.0613095
-0.04516439 0.091771685 -0.3358555 -0.11159563 -0.07373875 0.15678166 0.07276816 0.2571261
0.09452517 -0.2922629 0.0709695 -0.021086216 -0.112685405 0.047230322 -0.14213878 0.090476006
0.11922067 -0.34278992 -0.1534194 -0.2557969 -0.027480181 -0.4913418 -0.16793303 -0.039195307
0.17449938 -0.037624706 0.013669921 -0.14521506 0.076897435 0.030780569 0.26630053 0.0026876063
-0.10330648 0.09105619 0.12726872 0.14551914 -0.002801258 0.2138801 -0.1364816 -0.07597881
0.0073635327 -0.18678425 -0.047040984 0.082772575 0.022525903 -0.11863126 -0.079267 0.11485803
0.24545126 -0.3688979 -0.08014619 -0.112157635 0.17281933 -0.24339767 -0.062895626 0.005923641
-0.050984144 0.13810462 0.04409779 -0.022014031 -0.009094119 0.20922816 0.53565574 -0.09378034
-0.34361723 -0.02496985 -0.122358 -0.01095642 0.06462682 0.12622602 -0.06474514 0.053752042
-0.010791002 -0.04344094 -0.011457985 0.033179753 0.07985776 0.06136977 -0.026637282 -0.025448756
0.08513772 -0.103507265 -0.08918977 -0.014735616 0.027254788 -0.07049581 0.002359287 -0.1268896
0.059932876 0.05454413 0.072571024 -0.08627491 -0.092925094 0.036606647 0.24186926 -0.111427024
-0.0005949706 -0.0572322 0.08899608 0.021617176 -0.047489513 0.021838412 -0.14654428 0.0138655985
0.052301295 -0.03011297 -0.1590793 0.056637824 -0.0032875922 -0.022985825 -0.046534438 -0.07948192
0.1061808 -0.10857808 -0.12462177 -0.009538087 0.17227101 -0.10543724 -0.060115494 0.0058651846
-0.070264295 0.10352201 0.047522783 -0.00045382412 0.11051794 0.17487344 0.2528078 -0.0053327815

mp_layers.0.edge_mlp.0.bias f4 [64]
00000000: ffd8 cabc 2f94 cdbd 48df dbbd 0998 613d
00000010: 398d 0dbe 8edc 99bd 8c65 a9bd 9d31 fb3c
00000020: 757b 48be 11e5 5e3d 76f3 f0b7 24e3 efbd
00000030: 8d21 01bd be5d 87ba d75c 91bd 099d 0d3e
00000040: f6f0 4abd 7236 d0bd f1a2 ba3b 2f35 0d3d
00000050: 77a9 16be 8208 11be b9bf ef3c 1848 8cbd
00000060: 094d c03d c0a0 783d 444b c0bc 6abc ce3b
00000070: bfc9 08bd f82e 1abd 54dd 1bbe 0f4d 123b
00000080: 882c 52bd 0499 cd3c 915a 14be 3518 59bc
00000090: f492 bebc f1f7 61bd 76f4 00be 9739 31be
000000a0: 217d 40be c3bd f2bc 8072 cfbd 8fa6 193d
000000b0: a3fa 8ebd cba9 0e3d 4ae8 133d 6d3b ebbd
000000c0: 0551 03bd 2e8b 9bbd 9002 9aba c3b1 a8bd
000000d0: fb50 35bd 1521 81bd 5cab 32be 3a1b 913d
000000e0: 274c 36bd 69db 17be a5bb e3bd 6f62 f33c
000000f0: c43c d2bd 29a9 ecbd 5678 a5bd 215d 2b3c
-0.024761675 -0.100380294 -0.10735947 0.055076633 -0.13823403 -0.075127706 -0.08271322 0.030663306
-0.19578345 0.054417673 -2.87236e-05 -0.117132455 -0.031526137 -0.001032762 -0.07097786 0.13829435
-0.049546205 -0.101666346 0.0056956937 0.034474548 -0.14713083 -0.14163402 0.029266225 -0.06849688
0.09389693 0.06070018 -0.02347339 0.006309082 -0.033395525 -0.03764245 -0.15221149 0.0022323763
-0.051312 0.025097378 -0.14487673 -0.0132504 -0.023263432 -0.055168096 -0.12593254 -0.17307125
-0.18797733 -0.029631501 -0.10129261 0.03751236 -0.06981399 0.034829896 0.0361102 -0.11485944
-0.032059688 -0.07594906 -0.0011750031 -0.0823703 -0.044266682 -0.06305138 -0.17448181 0.07085271
-0.04450622 -0.14829792 -0.11119775 0.029710023 -0.102654964 -0.11555702 -0.08079593 0.010459215

mp_layers.0.edge_mlp.2.weight f4 [64, 64]
00000000: f9a0 46be d191 1abb e1d2 743c a63c a2bd
00000010: 625e aabc dc5a 883d f63a 333e 146f eb3a
00000020: 12d8 593d 4eb2 b8bd 2be1 3b3d 0f45 aa3c
00000030: 4774 793c 36f0 d5bc a4e6 3abd 5c8c d83d
00000040: 01ad 4a3e 041d d93d 93e4 1fbe 27be b5bd
00000050: 0dc8 0bbe 5ff5 0f3d dd14 0abe ebb8 4f3d
00000060: 7d59 26be 129f dc3d 57b0 96bd 87e4 c63d
00000070: 31d7 68be 6d26 e93c 856d 86bd 79b4 303e
00000080: c816 1c3d d151 9dbe 0ee7 1cbc 3eb5 7bbe
00000090: 0c80 3b3e f6f6 873d 5fd1 5cbe bf33 23be
000000a0: f9e6 b4bc 71b3 023d f16d e73d f53d 97bd
000000b0: 3915 f53d 490b 22be 8bef 4fbe c12a 423d
000000c0: 9e6a c73d 1ef4 37be 62c7 063d 15c2 0a3d
000000d0: 46da 963d cdec f7bd 06ec 443e afef a03c
000000e0: c1e4 413e b850 46ba 4420 17bc 4d03 0ebc
000000f0: 4370 a33d 89e5 7dbe 0a83 9d3d 96cb 7e3d
00000100: b1bb bfbd 2df9 03bd 2f91 e6bd d523 9f3d
00000110: e798 7b3d 9a08 123e 25fd acbe a9bf 84bd
00000120: 66c6 83be 8f8a b13c b5fe 703d 690c 9f3d
00000130: 95a3 da3d 8f4c 56bd ba3b 5abd 75fb 403d
00000140: 28ed e5bd e1bb fdbc f71d 06be eddf 033e
00000150: 8d80 d4bd 2fd8 543d 781c e93d da61 70bd
00000160: 0eea 7abe 37ac b1bd 6e01 cdbd aec1 0d3d
00000170: 9426 c3bc 0d3c 06be 0eba ddbd e138 4ebe
00000180: e30b b33b bb77 e1bd 923b 09be cdf2 983d
00000190: c71c 70be ea9a bcbc dcf2 e9bd f11c 8d3d
000001a0: 450a 31be 8561 533c 36a7 ac3a 7348 033e
000001b0: 0215 2c3e 1f2c 013e 30f7 043d 28ea 2abd
000001c0: 9871 c0bd 2af4 ecbc 0a7c 46bd 97eb a837
000001d0: eba0 1abe f06e afbd 0668 72bd 0e43 25be
000001e0: 0f06 d33d b2f6 91bd 86b6 53bc 7364 f63d
000001f0: 0b7b 003e fadc 243d 40b2 d3bc f96b 9b3c
00000200: 3ee6 adbd d937 72be 76a7 01be 7fd6 013e
00000210: 433b cebc 2e85 bf3d 58b0 fcbd 3e55 be3d
00000220: 3594 46be d648 75be a27c 863d d12a d5bc
00000230: 6d44 6cbc c6c1 acbe 2b51 efbd 1ef6 793d
00000240: 8c32 1cbe bac3 b4bb 426c 36bd 14b6 a3bc
00000250: 5e7a 32be e6ca c9bd 6b6f 3a3e 0c3c d53c
00000260: c3ee 16be ccd4 cdbd 695b 12bd 3f23 77bd
00000270: 53c9 543c 0874 0cbd 1d86 b0be a605 b9bd
00000280: bf36 a7bd 0711 0ebd 89b7 ffbd 8c98 d9bc
00000290: 9cc9 f0bb 6167 3abd 5911 d8bd 1691 0d3d
000002a0: b76d 00be 9de3 89bd b4d6 463d b926 453d
000002b0: 5b3f 533d 7ecd e93d 47e8 16be 54d1 87be
000002c0: 6102 c8bb b617 153e bdef b8bd 09cf c7bd
000002d0: d1a9 06be b5a3 6c3d 2743 1a3e 1660 14bc
000002e0: abcf 513e 22a1 c5bd d0c2 823b 083b d53d
000002f0: c131 32bd ec7e f13d d963 443d 2664 5ebe
00000300: 7a08 4c3d fe97 7bbe 31d9 b93d e625 2bbd
00000310: f51a 16bd 2e34 d23c e4cc 6fbe 095c 853c
00000320: ad07 edbd 457d edbd 0fa1 403e c41e 0f3d
00000330: f47d 1a3d 8eb3 883e 31ff 48bd 05b3 433d
00000340: cbff 35be 64e8 52bd 52b0 783d 1153 52bd
00000350: e904 55be 0e24 883d f69d 283d b290 e43d
00000360: 7876 c9be b0c0 67be ba87 4abd de30 343d
00000370: eeed fcbc 8bee 5bbe cd50 3fbe 93d1 b7be
00000380: a0b7 73bd cc80 3c3d 3709 59be 0b26 45bd
00000390: aab8 08be c5d0 c03d 678d 4dbd 9392 d9bc
000003a0: 0b36 1dbd 3b7e ec3d 301d bf3d 1bba 64be
000003b0: 2da7 47bd 0c77 b33d 0e5e fbbc 9941 923d
000003c0: 83a0 a0bd b046 e83d e8e1 15be 4149 2b3d
000003d0: 57a5 4e3e fff1 1bbe b832 1e3e 262e 23be
000003e0: cc3b 5c3d 4b59 bb3d 742b a4bd ebec 9dbc
000003f0: 6160 e83d 7518 983d 1c62 c93c 9b38 76be
-0.19397344 -0.0023585449 0.014942856 -0.07921724 -0.020796958 0.06657955 0.1750296 0.0017962181
0.053184576 -0.09018384 0.045869034 0.020784883 0.015225477 -0.026115518 -0.045630112 0.105736464
0.19792558 0.106012374 -0.15614538 -0.08874159 -0.13650532 0.035146113 -0.13484521 0.05071346
-0.16245075 0.10772528 -0.07357853 0.09711557 -0.22738339 0.028460706 -0.06563858 0.17256345
0.038107663 -0.30726483 -0.009576572 -0.24580857 0.18310565 0.06638901 -0.21564244 -0.15937708
-0.022082793 0.03190941 0.113002665 -0.07384864 0.119669385 -0.15824617 -0.20306222 0.047404055
0.097371325 -0.17964217 0.03290499 0.033876497 0.07365851 -0.12105713 0.19230661 0.01964554
0.18934919 -0.00075651286 -0.009224001 -0.008667779 0.079803966 -0.24794592 0.07691009 0.062205873
-0.09361971 -0.032220054 -0.1125816 0.07770506 0.061425116 0.14261094 -0.33786884 -0.06481869
-0.25737303 0.021672515 0.058836658 0.07766039 0.10675732 -0.052319106 -0.053279616 0.047114808
-0.112268746 -0.030973377 -0.13097368 0.1287839 -0.103760816 0.05196398 0.11382383 -0.05868707
-0.24503347 -0.086754255 -0.10010038 0.034608535 -0.023822106 -0.13108845 -0.10826503 -0.20138885
0.0054640635 -0.11009165 -0.1340163 0.074681856 -0.23448478 -0.023023088 -0.11423275 0.06890286
-0.17289074 0.012901668 0.0013172391 0.12820606 0.16804889 0.12614487 0.0324623 -0.041727215
-0.09396666 -0.02892502 -0.048458137 2.0136866e-05 -0.15100448 -0.085660815 -0.059181236 -0.1613886
0.1030389 -0.071271315 -0.012921935 0.12030878 0.12546937 0.040249802 -0.025841832 0.018972384
-0.08491181 -0.23654117 -0.12661538 0.1267948 -0.025174743 0.09351574 -0.123383224 0.092936024
-0.19392474 -0.23953566 0.065667406 -0.026021393 -0.014420611 -0.33741587 -0.116854034 0.06102573
-0.15253657 -0.0055164965 -0.044536836 -0.019984283 -0.17429492 -0.09853153 0.18206565 0.02602961
-0.14739518 -0.100503534 -0.035731707 -0.060336348 0.012987453 -0.034290344 -0.3447732 -0.090342805
-0.08164739 -0.034684207 -0.124861784 -0.026561998 -0.0073482525 -0.045508746 -0.10550184 0.034562193
-0.12541853 -0.06732867 0.0485446 0.048132632 0.051574092 0.11416148 -0.14737044 -0.26526892
-0.006103799 0.14559826 -0.090301014 -0.09756286 -0.13150717 0.05777331 0.15064679 -0.009056112
0.20489375 -0.09649874 0.0039905086 0.1041165 -0.04350448 0.117917866 0.047946785 -0.21717891
0.04981277 -0.24569699 0.09074629 -0.04178419 -0.036646802 0.025659647 -0.23418003 0.016279237
-0.1157373 -0.11596159 0.18811439 0.03494145 0.037717775 0.2669949 -0.049071494 0.04777815
-0.17773359 -0.051491156 0.060715027 -0.05134875 -0.20802654 0.06647502 0.04116627 0.11160411
-0.39348197 -0.22632098 -0.049445845 0.043991916 -0.030875172 -0.21477716 -0.18683167 -0.3590208
-0.05950129 0.046021268 -0.21194921 -0.048131984 -0.13351694 0.0941482 -0.05018368 -0.02655915
-0.038381618 0.11547514 0.09331739 -0.22336619 -0.048743416 0.08762941 -0.030684497 0.07141418
-0.07843115 0.113416076 -0.14636958 0.041817907 0.2018026 -0.15229033 0.15449035 -0.15935573
0.053767964 0.09147891 -0.080161005 -0.01927801 0.11346508 0.0742654 0.024582915 -0.24045031

mp_layers.0.edge_mlp.2.bias f4 [64]
00000000: 43a4 3ebe f19d 58bd 3dea aabd 7216 9b3d
00000010: 5039 533e e298 d93d 99ee fdbc e4e3 81bd
00000020: 5674 0bbd 04a9 f73d 30e0 c8bd acf9 c4bd
00000030: 2552 fe3d 86e8 aa3d 4ec6 4b3d 2020 c8bd
00000040: d52b 733d 5847 cdbd 2de1 843c 95b1 cebd
00000050: d800 e93d d0d5 c33d caef 92bd a305 713d
00000060: fe62 af3c d388 c7bc 55b1 01bd 0c64 aa3d
00000070: c4c5 5e3e 7489 acbd d48b 9bbd 288c b13d
00000080: 86e6 dabd cec0 f3bd 9944 62bd 7ffa 6b3e
00000090: b8a7 f33d a27a 35be f13b 05be e1d1 803c
000000a0: 3485 53be 675c a73d 2d89 333d e4a0 0cbd
000000b0: d541 603e 3053 fc3d 415f 3a3e 6d95 8ebc
000000c0: bf33 4cbc 67fe 7abd 8ed7 3dbc 8298 a4bd
000000d0: 90dc af3d cf4f 633d 2cc9 153e 2c21 5ebe
000000e0: 2691 f9bd b0ae 7d3c 6145 e53d 69e2 b7bd
000000f0: f094 673d 3d8e a93d d7c3 f13c 8a3f 6c3e
-0.18617348 -0.052885 -0.08345459 0.075726405 0.20627332 0.10624863 -0.030997561 -0.06342295
-0.034046493 0.12092784 -0.09808385 -0.09617934 0.124180116 0.083451316 0.049749665 -0.09771752
0.059367973 -0.10023373 0.016220653 -0.10092465 0.11377114 0.09562266 -0.071746424 0.058843266
0.021409508 -0.024357235 -0.031663258 0.08319864 0.21755129 -0.084246546 -0.075950295 0.08669311
-0.106885 -0.11902009 -0.0552412 0.23044775 0.11897224 -0.17722562 -0.13011147 0.015725078
-0.20656282 0.08171921 0.043831993 -0.034333125 0.21900113 0.12320554 0.18200399 -0.017405236
-0.012463509 -0.061277773 -0.011587037 -0.08036901 0.08586991 0.055496033 0.14627522 -0.21692342
-0.12185888 0.015483543 0.111948736 -0.08978731 0.056538522 0.08279083 0.029512329 0.23071113

mp_layers.0.node_mlp.0.weight f4 [64, 128]
00000000: 9c75 8a3d f4ad 4dbd f463 e83d 341f 92bb
00000010: b99f 843d dbe6 1ebe 8cfe b23b c32b 093e
00000020: 6d5d a4bd 07b7 60bc 26e1 f8bd 1c9b b33d
00000030: 0fda 0c3d 7c7d bc3d bb19 44bd 854a ac3c
00000040: aa36 1f3d 5640 1a3c ffbe 2dbd 7225 91bd
00000050: e0e6 17bd cb79 8b3c f703 8a3d d7fa 693c
00000060: 56fc 013e 28e5 51bd 85d5 74bc 4df6 3f3e
00000070: 5883 4bbe 4779 433c e468 d43b 2957 0f3e
00000080: 6027 d13c 7389 0bbd 276b 21bd c25a 44bc
00000090: c724 4a3d b17b c03c eb48 813d 8306 fabd
000000a0: adec 143d b081 3c3d 8141 b33c bbb9 c43d
000000b0: a1a7 10be 756c 9d3d 7fff fe3c 1735 113b
000000c0: d50f b63c dc57 323e a1a0 54bd 8294 583c
000000d0: e921 82bc f7e4 c03c 2e63 1a3e dafe 2e3e
000000e0: 1818 96bd fd37 bdbd 8e4c b4bd 0171 983c
000000f0: 3d8d 173e c657 adbd 9ee6 b93c 3dd3 043e
00000100: 1089 57bc ad08 52be cad1 39bd e3bc c2bd
00000110: 40d2 223c a12e 3d3d 2abe 16bc 2108 993d
00000120: 1601 6abe d5f1 b7bc 91c9 ee3c d992 f03c
00000130: 8d89 15be 03d8 3f3d 98b6 31be 561f f2bd
00000140: 3c91 0bbe 5c8e 823d 60ee a23d 208a 533d
00000150: 4bc1 01be 5e59 cdbc 3c83 e7bd 3c36 92bd
00000160: 8296 2ebd 50cc ddbd e1f2 1d3d 9c43 bcbd
00000170: fcc0 68be b55e 9dbd ed8c 483d b934 223d
00000180: daeb f83c e22a 93bd ed83 c33c 8d73 52bd
00000190: 0b41 f7bd 9548 a3bd afbe a6bd 78cf fcbd
000001a0: e39f 36bd d5f7 ddbd 17c5 cc3d 4af9 18be
000001b0: 9218 21be bdb8 a4bd f9b8 e33b a975 7bbe
000001c0: 7f7e b0bd d298 ab3b c5f8 70bc fd92 6dbc
000001d0: f42a 0f3c 2be8 22be a9a9 74bb 6c06 86bd
000001e0: 0058 a63d 6bb7 a1bd 249e 2ebe 1a02 a7bb
000001f0: 0193 0abe 21f4 52be a876 36be 77fb b4bc
00000200: 58b2 21bd 6fa9 913d d26a a93d 3d2f cc3d
00000210: f79a 223d 222c 0cbe e112 53bd c93a e8ba
00000220: fa61 7bbc 7e07 babc f3a9 6bbc 81ef 8abd
00000230: e6b7 b3bd af99 86bc 8ea8 acbd 160a 0f3d
00000240: a1ad 5b3b c64d 7dbd d37a 3ebc 90a1 b63b
00000250: 82fd 8b3c 48e3 1a3e 4412 8abd cfb0 05bc
00000260: c281 573b 4802 0f3d 2778 86bd f464 113d
00000270: 94f8 76bc 3b22 8f3d 8c5c 783d 0026 99bc
00000280: 0a3c 9a3d 06b3 c23c 1849 20bd c036 2e3d
00000290: 2504 40be c149 81bd 6d26 30be 3310 c2bb
000002a0: b757 7a3d 08f1 c5bc c165 fa3b 5e6c 9b3c
000002b0: 7316 283d 04a3 ad3b c5df a23c 7ca8 1a3e
000002c0: 10d1 97bd d57d 783c c600 c63d ca76 c93c
000002d0: a1c8 8f3d 649b 89bd 3c67 033e 4b74 f53d
000002e0: a2e1 913d 0aa3 a93d ec5e 8a3c 79b4 cf3c
000002f0: 979c a73d a19c e9bc 0940 373d 91cf 0abb
00000300: 236d d73d 628c e93d 9964 133c e20f 05bd
00000310: daa9 e539 bcc0 743d 375c 2ebb 2225 0c3d
00000320: 6986 16bc 1dde d0bc 10d4 34bc a9dc 28bd
00000330: ac25 74bd f07b 383d 6073 9c3d 8faa ab3d
00000340: b3ce d73b 38e9 423e 2036 a8bd 2563 543c
00000350: a674 2fbe 1150 bb3d e02c 37bd 9ed4 623d
00000360: f607 fc3c d955 6a3d b756 02be bbbe f5bc
00000370: 0e6d 30be 68d6 97bd d78f 423a 8a87 ecbc
00000380: 4d71 94bc 9eac 563c dcc2 d13b 35c4 033d
00000390: 7da7 29bc 6134 02bc 781d fa3b c0a2 9dbd
000003a0: 48da 143e 2ff8 4b3c 5a09 61bb 2081 c4bc
000003b0: 1c16 cebc c844 02be 99a2 1abd 69c7 b63d
000003c0: b710 95bc 7504 4b3b b9a1 c53d eaae 48bd
000003d0: 882c f23b 71b9 143d 8e47 f3bd a197 7b3c
000003e0: dfc6 333d e985 553c 0c35 47be 499d f0bc
000003f0: e05c e03d 8c70 203d 8e06 c43c e42a d33c
0.067607135 -0.050214723 0.113471895 -0.004459286 0.06475777 -0.15517752 0.0054624733 0.133956
-0.08025632 -0.013715512 -0.12152319 0.08769819 0.034387644 0.09203622 -0.0478761 0.021031627
0.03887049 0.009414753 -0.042418476 -0.0708722 -0.037085414 0.017025849 0.067390375 0.014280996
0.12693915 -0.05124393 -0.014943485 0.187463 -0.19874322 0.01193077 0.0064822305 0.13998093
0.02553147 -0.03406663 -0.03940883 -0.011984529 0.04935148 0.02349648 0.06312736 -0.12208273
0.036358524 0.046022117 0.02188182 0.09605738 -0.14126445 0.07686702 0.03112769 0.0022156888
0.022224346 0.17416328 -0.051911 0.013219001 -0.01588531 0.023546679 0.15076897 0.17089406
-0.07328814 -0.092391945 -0.08803664 0.018608572 0.14799972 -0.08464007 0.022692975 0.12971206
-0.013155237 -0.20511122 -0.045366086 -0.095086835 0.009937823 0.046187047 -0.009200612 0.074722536
-0.22851977 -0.022454182 0.029148849 0.029366897 -0.14603253 0.046836864 -0.1735481 -0.11822383
-0.13629621 0.06374809 0.07955623 0.0516454 -0.12671392 -0.025067028 -0.11304328 -0.07139251
-0.042624004 -0.10829985 0.038561705 -0.09192583 -0.22729868 -0.076840796 0.048962522 0.03960106
0.0303859 -0.071859136 0.023866618 -0.05137973 -0.12072953 -0.07972828 -0.08141839 -0.12344259
-0.044586074 -0.10838286 0.099985294 -0.14938846 -0.15732029 -0.080430485 0.0069495407 -0.24556603
-0.08617877 0.0052367235 -0.014707749 -0.014500377 0.008738268 -0.15908878 -0.003733257 -0.065441936
0.081222534 -0.07896312 -0.17052513 -0.005096686 -0.1353264 -0.2060094 -0.17818701 -0.022092564
-0.039476722 0.07112395 0.082723275 0.099699475 0.039698567 -0.1368871 -0.051531676 -0.0017717715
-0.015343184 -0.02270865 -0.014383781 -0.06783963 -0.0877531 -0.016430704 -0.08430587 0.034921728
0.003352024 -0.06184175 -0.011625963 0.005573459 0.017088655 0.15125763 -0.06741765 -0.00815983
0.0032883738 0.034914285 -0.06565886 0.035496667 -0.015073914 0.06988951 0.060635135 -0.018694878
0.07530983 0.023767006 -0.039132208 0.042532682 -0.18751581 -0.063128956 -0.17202158 -0.0059223413
0.061118808 -0.024162784 0.0076415245 0.018972572 0.041037034 0.005298974 0.019882092 0.15103334
-0.074129224 0.015166719 0.09668116 0.024592776 0.07020689 -0.067190915 0.1283235 0.11985072
0.07123114 0.0828305 0.016890965 0.02535461 0.08184164 -0.02851707 0.044738803 -0.0021180848
0.10518863 0.11403729 0.008996152 -0.03248585 0.00043804833 0.05975412 -0.0026605257 0.0342151
-0.009187319 -0.025496537 -0.011036888 -0.041226063 -0.05960624 0.04504007 0.076391935 0.08382141
0.0065859198 0.19034278 -0.082134485 0.012963091 -0.17134342 0.09146131 -0.04472053 0.05537855
0.030765515 0.057210777 -0.12728392 -0.029998174 -0.17229101 -0.074139416 0.00074219465 -0.028873224
-0.018120432 0.013102679 0.006401403 0.03216954 -0.010354874 -0.007947058 0.0076329075 -0.07697058
0.14536393 0.012449308 -0.003433785 -0.023987353 -0.025157027 -0.1272155 -0.03775272 0.08924753
-0.018196447 0.0030977998 0.09649987 -0.048994936 0.0073905624 0.036309663 -0.11878882 0.015355975
0.04389083 0.013032415 -0.1945383 -0.029371874 0.109552145 0.039169833 0.023928907 0.025777288

mp_layers.0.node_mlp.0.bias f4 [64]
00000000: 2912 81bd 3f3a 403d b796 cd3c 6eec a4bc
00000010: 7db0 b4bd f392 a5bd fd9d 21bd 43eb f4bd
00000020: 3871 11be ead6 183c e5f0 0e3d ef05 0dbe
00000030: 4974 6bbd afa2 b53d bd0d d53d 179c 74bd
00000040: da9d 1ebd 9790 b9bc c910 c6bd 67a8 14be
00000050: aa09 fbbd 25f7 04bd 9b66 553c 7ba0 8abc
00000060: 846e b6bd e91b a4bd 8241 41be fc02 cfbd
00000070: 65ff 623d 2a02 19bc d00e d6bd b51e 013d
00000080: f0c2 43be d21d f8bb c6d7 5f3d 1318 54bc
00000090: e63b a2bc db11 5f3d 40e5 93bd bb40 283d
000000a0: 4689 56bd 4b24 0dbd 47b2 eebd ef44 bbbd
000000b0: 567a 0cbe 672a 53bc c40f ddbd 93e7 89bd
000000c0: e8dc 593c 5dce d6bd c9e2 d3bc c271 11be
000000d0: 766e edbb cd9e e2bc 86cb 7a3c 2b8e b5bd
000000e0: 2059 cebd 8b29 1dbe 70bf 5f3d 4d43 b1bd
000000f0: 4e81 03be 7a3d 48bc 70e1 d2bd 1fce a03b
-0.06302292 0.046930548 0.02509628 -0.02013227 -0.08822725 -0.08084669 -0.03945731 -0.11958935
-0.14203346 0.009328583 0.034897704 -0.13771795 -0.057483945 0.0886892 0.10403011 -0.05971917
-0.038724758 -0.022651954 -0.0967117 -0.14517365 -0.12257703 -0.032462258 0.013024951 -0.016922226
-0.08907798 -0.08013136 -0.18872645 -0.10107991 0.055419344 -0.009338895 -0.10452044 0.031523425
-0.19117332 -0.0075719142 0.054649137 -0.012945193 -0.019803952 0.054460388 -0.0722146 0.041077357
-0.052377008 -0.03445844 -0.116550975 -0.091440074 -0.13718542 -0.0128885275 -0.10794023 -0.067336224
0.013297297 -0.104885794 -0.025864976 -0.14203551 -0.007245834 -0.027663613 0.015307313 -0.08865007
-0.10075593 -0.15347879 0.05462593 -0.08655415 -0.12842295 -0.012221688 -0.10296905 0.004907384

mp_layers.0.node_mlp.2.weight f4 [64, 64]
00000000: 43e4 43be 092c 8a3d cf95 de3c e77a 4b3c
00000010: 14c3 f23d c0c9 30be 0a40 5c3d 6132 f63b
00000020: acb0 873d 5306 82bd 557d d13b 7b7d 2fbd
00000030: 4db2 66bd 9041 213d eee4 f13c 0cb5 86bd
00000040: d0af 02bd 5ead 3e3d 2d0a 2dbe 394f 733c
00000050: 4b24 a5bd 46b3 aabd 2c52 91bd 9efd 663d
00000060: 1626 003a 0b23 85bd 7e88 52bd c913 3d3c
00000070: e3ab cabd 7ced 7dbe f66e 62be aa92 4abd
00000080: e7f0 183d d19b 88be 3c76 57bc f80d febc
00000090: 8722 dbbd 6a5d 6e3c ad85 92bd 7570 dc3d
000000a0: e83c 73bd aada 23bd 04df afbd faea fdbd
000000b0: 5763 86bd 935f 82be 4af7 80bc 146d c23d
000000c0: d7cd 5abd 7093 83be b00f f33d 89f7 0f3d
000000d0: c8f8 8f3d 96e7 f63d 9858 f7bd d6e4 033d
000000e0: 8825 55bd 35e7 4cbe 000d 853d 8fc5 5abd
000000f0: 5efc 743d b54a 173c bb5e 353d 5654 44be
00000100: 4651 1a3d e602 6abd 19dc e33d f724 37be
00000110: 205f acbd 5ade 0e3e a40d d3bc 5012 113e
00000120: 7c94 013e b1fe d83d 3b5f 69bc 6014 523b
00000130: ede5 e13d 7d73 c1bc 11bf 08bd 4b3e e83c
00000140: 84cf 4c3e f6f0 ff3d c6b1 623e a58c cc3d
00000150: e035 e93d 008b a8bd cd51 7ebd be53 16bd
00000160: 7d3a aebd ed4b 103e 91ca 9e3d 1dc1 ac3c
00000170: 6132 a53c 8338 933d e01b 9b3d e70d 51ba
00000180: f978 e7bc 068c 823e 19a5 a3bc 2336 c23d
00000190: 623c 1c3d 21f3 7cbd 955d 563e d486 8a3d
000001a0: b30b 3b3e b7f4 863e 48b5 d7bc 7765 653e
000001b0: 7921 033e 6f76 6a3e 56a8 4c3e 70b0 c43c
000001c0: d13d b03d 63f1 a53e 4c57 103e cd9b 863e
000001d0: 9a38 603d 0ac0 b13c 8f04 1fbe 3003 2d3d
000001e0: 6c84 4f3e fae2 1e3e e62c 8ebd eca1 2c3d
000001f0: 0ecf 533e c00c 8b3e e1ff adbd cb53 823e
00000200: 4d30 91be 26a7 9ebd cfb8 913d d393 563d
00000210: 1138 33bd 775a f5bd 8009 e9bb f72a 6cbe
00000220: de5a 153d 72f6 1dbe 7ba2 0c3e 55cd dabd
00000230: 9f52 d63d b8c4 fa3c e570 ec3d bc72 713d
00000240: e282 babd c648 12bb 8742 9abb 1eee 4b3d
00000250: d0bb 1ebc 039e 1c3e 2f3a 14be 92e6 36bd
00000260: 464d 9dbd eb0c fbbd bb8a 1cbe a3cb 7abe
00000270: d0c1 9abe a6c5 3cbe 9967 53bd 9ad5 6b3d
00000280: 34c5 b33d d7bb b9be 02c1 b43d ba95 41be
00000290: 44db abbd 920f f83b b5b0 28be 9233 a0bd
000002a0: ae60 52be 4699 abbe de71 f83d 083c d1bc
000002b0: 2199 86be b585 64be 5fcd 1abd 28e2 a8bd
000002c0: 86ce 583d 1411 21be 3ebf dabd 5449 66be
000002d0: 518d 7dbd d1c1 babd a035 8cbd 5671 a23c
000002e0: c0ce 72be 15c5 81bd 051d 16bd 5496 833d
000002f0: 28b3 cebb 9c20 abbd 95e9 103e 333e 68be
00000300: 7e9b 46bd 5e36 103e 43bd bc3d f2c9 a4bd
00000310: 16f8 e73d 5296 893d 1b63 2b3c 8c0a 903b
00000320: 4ceb 853c 88b3 cf3d a87c 8ebc ef09 81bc
00000330: 484d 92bc ee7b 743d a86f acbd 0164 ac3d
00000340: 05e2 a73d 2a83 7d3d 1cb6 10be cbbd a0bd
00000350: 2045 acbd b59b 073d 1d17 2abd 0d84 373e
00000360: aaa6 9d38 da99 ecbd 8613 91bd 7090 19be
00000370: 7463 39be be6d de3a 08d9 efbd a1e7 993d
00000380: 5061 6dbd ab4c 21bd 06bf 39be 5d8b 2f3c
00000390: 6b0a 813d a4c0 3fbe 63c6 4abe eb95 a0bb
000003a0: 5a13 a0bb e841 8abe 4cc2 96bd 86aa 13be
000003b0: 7628 763d 6475 14be 3e01 52bd 23a2 77bd
000003c0: 66f3 5c3a 2ea7 e4bd 728e 9abd 4315 87bd
000003d0: 354c 6f3d 8349 03be 323c 08be 80d9 1bbe
000003e0: 54c0 babd 9162 66bd f2c6 2ebe d43b 293d
000003f0: 98f5 ccbc 3490 e73d 65e1 98bd efd7 6bbe
-0.19130044 0.0674668 0.027171044 0.012419439 0.118536144 -0.17264462 0.05377201 0.00751333
0.06625494 -0.063488625 0.0063931146 -0.042844277 -0.056322385 0.039369166 0.029528107 -0.06577501
-0.03190595 0.046552055 -0.16898413 0.014850431 -0.08063563 -0.08334975 -0.07095751 0.056394212
0.0004888488 -0.065008245 -0.0513997 0.011540362 -0.09896066 -0.24797624 -0.2211264 -0.049456276
0.037339117 -0.26681378 -0.013150748 -0.03101252 -0.10699945 0.014548639 -0.07154403 0.10763637
-0.059384257 -0.040003456 -0.08587459 -0.12398334 -0.06561916 -0.25463542 -0.015742917 0.09493461
-0.05341896 -0.25698423 0.118682265 0.035148177 0.07029873 0.1205589 -0.12077445 0.032200657
-0.052037746 -0.20010073 0.0649662 -0.053411063 0.05981099 0.00923412 0.044279795 -0.19172797
0.037675165 -0.05713167 0.11125965 -0.17885195 -0.08416581 0.13952008 -0.02576334 0.14167142
0.12654299 0.105954535 -0.014243896 0.0032055601 0.11030183 -0.02361464 -0.03338534 0.028350016
0.20001036 0.124971315 0.22138128 0.09987763 0.11387229 -0.08229637 -0.06208973 -0.036700957
-0.085072495 0.14091463 0.0775348 0.021088177 0.020165624 0.07188513 0.07573676 -0.0007974789
-0.028255926 0.25497454 -0.019976186 0.09482982 0.038143523 -0.061755303 0.20934136 0.06763998
0.18266182 0.26358578 -0.026331559 0.22401987 0.12805738 0.22896741 0.1998609 0.024009913
0.086055405 0.32410726 0.14095801 0.26290742 0.05474148 0.021698017 -0.15529083 0.042239368
0.20265359 0.15516272 -0.069421574 0.04214661 0.20684454 0.27158165 -0.08496071 0.25454554
-0.28357163 -0.07746725 0.071153276 0.05238707 -0.04375464 -0.119801454 -0.007111728 -0.23063265
0.03646361 -0.15426043 0.13733856 -0.10683695 0.104649775 0.030611381 0.115449704 0.05894731
-0.09106995 -0.0022321208 -0.0047076377 0.049787633 -0.009688333 0.15294652 -0.1447532 -0.044653483
-0.07680754 -0.12258323 -0.15287296 -0.24491744 -0.30225992 -0.18434772 -0.05161247 0.057576753
0.08777848 -0.36276123 0.08825876 -0.18904772 -0.08391431 0.0075702155 -0.16473658 -0.07822336
-0.20544693 -0.33515376 0.121310934 -0.02554132 -0.26288703 -0.2231663 -0.037793513 -0.08246261
0.05293133 -0.15729171 -0.10681008 -0.2248891 -0.061902348 -0.09118999 -0.06846166 0.019829433
-0.23711681 -0.063364185 -0.03664877 0.06425157 -0.006307978 -0.08355829 0.14151604 -0.22679977
-0.048488133 0.1408324 0.09215786 -0.080463305 0.113266155 0.067181244 0.01046064 0.0043957885
0.01634755 0.10141665 -0.017393425 -0.015751807 -0.017859116 0.0596885 -0.08419734 0.08417512
0.08197407 0.061892666 -0.14131969 -0.078487 -0.08411622 0.03310748 -0.04152595 0.17921467
7.517387e-05 -0.11552782 -0.07083802 -0.14996505 -0.18104345 0.0016969962 -0.11711317 0.07514883
-0.057954133 -0.039379757 -0.18139276 0.010714379 0.06300815 -0.1872583 -0.19802241 -0.004900684
-0.0048851194 -0.27003407 -0.07361278 -0.14420518 0.06009718 -0.14497906 -0.051270716 -0.06045736
0.0008428603 -0.111646995 -0.075467005 -0.06595852 0.058422286 -0.12821011 -0.13304213 -0.15219688
-0.09118715 -0.056246344 -0.17068079 0.041316822 -0.025019452 0.113068014 -0.074648656 -0.23031591

mp_layers.0.node_mlp.2.bias f4 [64]
00000000: 9131 3f3d c977 a5bd 1b97 0b3e c57a 853d
00000010: d1d7 12be 678b 9e3d 36e4 33bd 7066 9bbd
00000020: 2e53 36bd b60a 6fbd 83fa a43d c520 2fbd
00000030: 2b6f 08bd adc3 3c3c 88ad ff3d 201a 343e
00000040: 4e7c ba3d 998b cbbd 09e4 c8bb b140 b2bd
00000050: 5b8e 5b3d 15af 413d 02f6 3c3d bb97 133d
00000060: a3be 2a3b 1ef3 83bd 6820 be3d 91a7 05be
00000070: 0ca2 25be 7a22 ad3d e0e1 a6bd e8f4 28bd
00000080: 68c7 753d 16e2 0fbe 64c0 d4bc 113d 08bd
00000090: 389f 50bd 0bf6 0f3e 336e c7b9 d251 a83d
000000a0: 9599 acbd e3a5 b43d b713 49bd 88c5 063e
000000b0: 894b 17be 9161 61bd 4d86 7abd dbb4 cdbd
000000c0: 9137 073e 9ad0 dfbd c6d6 a9ba 2eae 183d
000000d0: c80a 213e e125 8c3d 13cb 703d 9a93 aebd
000000e0: 5aa8 9bbc 55c3 6d3b b6c7 ca3d d97c 80bd
000000f0: d2c3 1c3c 9fa0 02bd 3482 8cbc bd41 0b3c
0.04667813 -0.08079488 0.13631861 0.06517557 -0.1434014 0.07741433 -0.04391881 -0.07587898
-0.04451292 -0.058359824 0.08055594 -0.04275586 -0.033309143 0.011521262 0.1248427 0.17588091
0.091057405 -0.099387355 -0.0061306995 -0.08703745 0.053602558 0.04728611 0.04613305 0.036033373
0.002605357 -0.06442855 0.09283525 -0.13052203 -0.16175097 0.084538415 -0.08148551 -0.041249186
0.06000462 -0.14051089 -0.025970645 -0.033261362 -0.050933093 0.14058702 -0.00038038343 0.08218731
-0.08427731 0.08820703 -0.049091067 0.1316129 -0.14774908 -0.055024687 -0.061163235 -0.10044261
0.1320479 -0.109284595 -0.0012957684 0.037275486 0.15726769 0.06843162 0.058787417 -0.085242465
-0.019001175 0.0036279757 0.09901373 -0.06273813 0.009568172 -0.03189146 -0.01715193 0.00849956

mp_layers.0.layer_norm.weight f4 [64]
00000000: bb7d 613f 29a8 673f da3b 803f 5bcc 693f
00000010: 140f 823f e976 823f 4b06 7d3f f418 843f
00000020: 13c3 4b3f c38c 7d3f d8fa 773f 9d3b 703f
00000030: 968b 533f 9a56 8b3f 1f1a 843f 1ae0 763f
00000040: 10ca 7a3f 0b90 6d3f 8056 853f e00e 923f
00000050: 44c6 743f a55a 633f ad9d 623f 36a6 6f3f
00000060: 9f9c 853f eb52 783f 41d2 893f 3137 673f
00000070: 5b6d 843f 5bf7 653f e118 843f bbab 733f
00000080: 4b77 613f 1897 7f3f 65c9 703f 62c2 8b3f
00000090: 74ec 783f ca21 693f cb82 753f f9a7 633f
000000a0: b8f0 5e3f b8a4 7c3f 0d75 623f 7d9a 803f
000000b0: 511a 6c3f fbca 723f 0009 723f bca1 7d3f
000000c0: a662 843f c89b 713f 375a 6b3f 351e 833f
000000d0: 3af6 8d3f efca 893f 2b4b 703f 84ca 8a3f
000000e0: 07d7 6e3f 93dd 803f 4e15 893f cc4b 663f
000000f0: ea0e 703f 3cc7 7d3f cb76 653f db9e 743f
0.88082474 0.9049097 1.0018265 0.91327447 1.0160851 1.0192538 0.9883773 1.0320115
0.79594535 0.9904291 0.9686713 0.9384096 0.82634866 1.0885804 1.0320472 0.964357
0.9796457 0.9279792 1.0417023 1.141079 0.9561503 0.8881019 0.88521844 0.9361299
1.0438422 0.9700152 1.0767289 0.9031859 1.0345873 0.8983056 1.0320092 0.95183915
0.8807265 0.99839926 0.94057304 1.0918696 0.972358 0.91067183 0.959027 0.8892818
0.8708606 0.9868884 0.88459855 1.0047146 0.92227656 0.94840974 0.9454498 0.9907491
1.0342605 0.9437833 0.9193453 1.0243593 1.1090767 1.0765055 0.938647 1.0843053
0.93296856 1.0067619 1.0709627 0.89959407 0.9377276 0.9913213 0.8963439 0.95554894

mp_layers.0.layer_norm.bias f4 [64]
00000000: edf4 5a3d a893 5cbd 64fe 653d 4e57 7e3d
00000010: 667e 08bd 5608 423d 50ac 49bd c07c 25bb
00000020: fd58 233d 61c3 cbbc fa99 e8bc 78a2 853d
00000030: 7ee9 90bc 387b 28bd 0921 f33c 2cd4 663d
00000040: 5740 2d3d 28de 27bc d156 183d f1fc 5abd
00000050: f068 5bbd 4861 83bd 7e66 9c3d a3fc 6c3d
00000060: 7752 29bd 08c5 e23c 587a 5a3c a5da e1bc
00000070: 8fbb 19bd 5fe8 f33c b86c 20bd bf72 e2bc
00000080: 6772 943c cb02 b5bc fbd8 2bbd 7d68 61bd
00000090: 37d2 583d e8e7 e33c bc7d 263d ab7b 013d
000000a0: c85f 353d 5207 3ebc b19b c6bd 6b2e 563d
000000b0: e174 eabc c541 483d 110a 83bc 2f0b f4bc
000000c0: 951e 443d bf0a b9bc 2125 acbd 1f51 12bd
000000d0: 1a09 1f3d 3d6e 20bd 01c1 efbc c46a a83c
000000e0: e14f bfbc 13ff 3e3d 5358 5e3c 2413 4f3d
000000f0: fba3 4d3d 080b ecbc 0d67 e5bc 4c57 d23c
0.053456236 -0.053851753 0.05615081 0.06209498 -0.033323668 0.04737123 -0.049236596 -0.0025251359
0.039879788 -0.024873437 -0.028393734 0.06525129 -0.017689463 -0.041133136 0.029678838 0.056354687
0.042297687 -0.010245837 0.03719217 -0.05346388 -0.053566873 -0.06415039 0.07636736 0.05785812
-0.04133841 0.027681842 0.013334833 -0.027570078 -0.037532385 0.02977389 -0.039166182 -0.027642606
0.018120958 -0.022096058 -0.041954976 -0.05503129 0.05293485 0.027820542 0.040647253 0.03161208
0.044280797 -0.011598425 -0.096976645 0.05229036 -0.028620185 0.048890848 -0.015996011 -0.029790489
0.047880728 -0.022588132 -0.08405519 -0.035721894 0.03882704 -0.03916763 -0.029266836 0.020558722
-0.023353519 0.046629976 0.013570863 0.050555363 0.050205212 -0.028813854 -0.02800324 0.025676392
