lstm_emb64_h128_l2_lr1e-03_bs64_e15.pt (torch, 938021 bytes, 12 tensors)

embedding.weight f4 [26, 64]
0.0 0.0 0.0 0.0 0.0 0.0 0.0 0.0
0.0 0.0 0.0 0.0 0.0 0.0 0.0 0.0
0.0 0.0 0.0 0.0 0.0 0.0 0.0 0.0
0.0 0.0 0.0 0.0 0.0 0.0 0.0 0.0
0.0 0.0 0.0 0.0 0.0 0.0 0.0 0.0
0.0 0.0 0.0 0.0 0.0 0.0 0.0 0.0
0.0 0.0 0.0 0.0 0.0 0.0 0.0 0.0
0.0 0.0 0.0 0.0 0.0 0.0 0.0 0.0
-4.94557e-40 4.9516e-40 5.40213e-40 -4.95362e-40 4.92887e-40 5.7165e-40 4.93652e-40 4.93626e-40
-4.93567e-40 -4.91068e-40 4.93386e-40 4.94472e-40 4.92199e-40 5.7047e-40 5.15585e-40 4.9147e-40
4.93764e-40 4.9199e-40 -4.92554e-40 -4.93048e-40 4.93352e-40 -4.96275e-40 4.92959e-40 -4.929e-40
-4.95646e-40 4.91779e-40 -4.94583e-40 4.93613e-40 4.94946e-40 -5.08915e-40 -4.96208e-40 4.93193e-40
-4.91978e-40 -4.90743e-40 -4.94385e-40 5.11387e-40 4.94681e-40 -4.93453e-40 -4.90826e-40 4.96745e-40
-4.93208e-40 4.91295e-40 -4.93132e-40 4.91378e-40 -4.93156e-40 -4.9209e-40 4.95695e-40 -4.91353e-40
-4.95569e-40 4.91173e-40 -4.9544e-40 -4.95761e-40 -4.93878e-40 4.92576e-40 4.90864e-40 -4.94176e-40
-4.91922e-40 -5.8182e-40 4.95275e-40 -5.26838e-40 -4.92233e-40 4.92558e-40 -4.92788e-40 4.93235e-40
-0.40076154 -1.1120431 0.6675506 0.10679397 -0.025127808 -0.8369766 1.2151989 -0.7984671
0.2934884 -0.028001139 0.04934375 1.426305 -0.03838433 0.20668136 -0.9896728 0.28086928
-0.22291417 -0.5630008 0.23908198 -0.24838191 -0.20623936 0.59871405 0.10162884 -0.246325
-0.7885031 -0.201574 -1.4534985 -0.12941119 -0.34559202 1.3752517 -1.3932488 -1.2283037
1.0136662 0.6774359 1.6881638 0.18769738 -0.14471643 1.2073072 -0.04527006 1.7122027
0.13104811 0.23539728 0.0662548 0.37359938 -0.48584855 0.426644 0.57468194 0.56648785
0.98192424 0.10440335 0.18388823 -0.14873625 0.8332865 -0.24823608 -0.15032506 0.25983346
0.2205883 -0.5467352 0.2225939 0.03602186 -0.04070882 0.19793434 -1.3227586 -0.4585668
0.74643105 -0.95090705 -0.35881177 -0.9479123 0.020367447 -0.7308441 -0.17344612 -0.7312573
-0.19075722 0.05904755 0.65643 0.012954418 -0.040507328 -0.093310446 -0.10479721 0.053871017
0.4559935 0.6217723 0.22103797 0.43093732 0.56541026 -0.017770572 0.87092876 0.7545592
-0.7165256 0.23280872 0.116790466 -0.52974206 -0.015540466 1.4360887 0.7148688 0.59138894
-0.3233864 0.41646588 1.9751394 0.62776744 1.0677067 -1.4657493 -0.65958244 -0.7365633
0.70329916 -0.18815634 0.73196405 -0.09187338 -0.64733285 -0.30144554 0.6185782 -1.0580765
0.10913175 0.13477173 -0.9330002 -0.06437955 0.76138324 0.089394756 0.18238106 -0.20946397
0.53261644 -0.5017022 0.019108566 -0.015765967 -1.147516 0.4970274 -0.3385409 -0.665663
00000000: 0000 0000 0000 0000 0000 0000 0000 0000
00000010: 0000 0000 0000 0000 0000 0000 0000 0000
00000020: 0000 0000 0000 0000 0000 0000 0000 0000
00000030: 0000 0000 0000 0000 0000 0000 0000 0000
00000040: 0000 0000 0000 0000 0000 0000 0000 0000
00000050: 0000 0000 0000 0000 0000 0000 0000 0000
00000060: 0000 0000 0000 0000 0000 0000 0000 0000
00000070: 0000 0000 0000 0000 0000 0000 0000 0000
00000080: 0000 0000 0000 0000 0000 0000 0000 0000
00000090: 0000 0000 0000 0000 0000 0000 0000 0000
000000a0: 0000 0000 0000 0000 0000 0000 0000 0000
000000b0: 0000 0000 0000 0000 0000 0000 0000 0000
000000c0: 0000 0000 0000 0000 0000 0000 0000 0000
000000d0: 0000 0000 0000 0000 0000 0000 0000 0000
000000e0: 0000 0000 0000 0000 0000 0000 0000 0000
000000f0: 0000 0000 0000 0000 0000 0000 0000 0000
00000100: a062 0580 4e64 0500 e5e1 0500 de64 0580
00000110: f85d 0500 8739 0600 1a60 0500 0760 0500
00000120: dd5f 0580 e658 0580 5c5f 0500 6362 0500
00000130: 0d5c 0500 3d36 0600 3e9d 0500 055a 0500
00000140: 6a60 0500 785b 0500 0a5d 0580 6b5e 0580
00000150: 445f 0500 6a67 0580 2b5e 0500 015e 0580
00000160: a965 0580 e15a 0500 b262 0580 fe5f 0500
00000170: b563 0500 a68a 0580 3a67 0580 d25e 0500
00000180: 6f5b 0580 fe57 0580 2562 0580 8a91 0500
00000190: f862 0500 8c5f 0580 3958 0580 b968 0500
000001a0: dd5e 0580 8859 0500 a75e 0580 c359 0500
000001b0: b85e 0580 bf5b 0580 cc65 0500 b159 0580
000001c0: 7265 0580 3159 0500 1665 0580 fb65 0580
000001d0: bb60 0580 1a5d 0500 5458 0500 9061 0580
000001e0: 475b 0580 e155 0680 a064 0500 9cbc 0580
000001f0: 255c 0580 0d5d 0500 b15d 0580 f05e 0500
00000200: 9e30 cdbe 6e57 8ebf 99e4 2a3f ccb6 da3d
00000210: d5d8 cdbc 1944 56bf a38b 9b3f 5768 4cbf
00000220: 1d44 963e a562 e5bc ac1c 4a3d 2a91 b63f
00000230: e338 1dbd 47a4 533e 325b 7dbf 19ce 8f3e
00000240: 9d43 64be d220 10bf e8d1 743e d457 7ebe
00000250: 6930 53be 5345 193f c822 d03d 9f3c 7cbe
00000260: 57db 49bf 6a69 4ebe 3d0c babf 5e84 04be
00000270: 70f1 b0be 3f08 b03f fa55 b2bf 0e39 9dbf
00000280: d0bf 813f 706c 2d3f c015 d83f be33 403e
00000290: 8b30 14be 0b89 9a3f 196d 39bd 7529 db3f
000002a0: 7a31 063e fc0b 713e 99b0 873d 6b48 bf3e
000002b0: 24c1 f8be 1571 da3e 5b1e 133f 5905 113f
000002c0: 635f 7b3f 6cd1 d53d 324d 3c3e 514e 18be
000002d0: 4452 553f 9931 7ebe d0ee 19be e408 853e
000002e0: e6e1 613e d7f6 0bbf a8ef 633e a88b 133d
000002f0: 4bbe 26bd 4daf 4a3e 2750 a9bf 45c9 eabe
00000300: 1b16 3f3f a56e 73bf 2db6 b7be 61aa 72bf
00000310: a2d9 a63c 9918 3bbf dc9b 31be ae33 3bbf
00000320: dc55 43be d8db 713d cc0b 283f c43e 543c
00000330: 03eb 25bd 8c19 bfbd eb9f d6bd dba7 5c3d
00000340: fb77 e93e 782c 1f3f c757 623e d1a3 dc3e
00000350: babe 103f 9793 91bc 30f5 5e3f cb2a 413f
00000360: 396e 37bf 6965 6e3e d72f ef3d 2d9d 07bf
00000370: 709d 7ebc c1d1 b73f a401 373f 4465 173f
00000380: e792 a5be 043b d53e 5ed1 fc3f 5eb5 203f
00000390: 9daa 883f ac9d bbbf 65da 28bf 6a8f 3cbf
000003a0: 6a0b 343f 0eac 40be ff61 3b3f 1c28 bcbd
000003b0: 9bb7 25bf 1257 9abe 245b 1e3f 0d6f 87bf
000003c0: 7880 df3d 9a01 0a3e 1ad9 6ebf 6dd9 83bd
000003d0: 03ea 423f 9914 b73d 1ac2 3a3e b97d 56be
000003e0: 8d59 083f 8e6f 00bf 9189 9c3c a127 81bc
000003f0: cee1 92bf 607a fe3e 3c55 adbe e468 2abf

lstm.weight_ih_l0 f4 [512, 64]
0.04099049 0.04956414 -0.01680717 0.06758941 0.05387674 -0.04876839 -0.052680034 -0.064748906
0.03965082 -0.028153852 -0.032193348 0.011301927 -0.08308237 -0.066580795 -0.035531368 -0.017108154
0.07718075 0.034779713 0.058278322 0.052058607 0.024051555 0.10207461 -0.044023786 0.0030751554
-0.04412243 -0.036453933 -0.0367896 -0.107722394 -0.1196548 0.11137496 0.028485013 -0.19672342
0.029677136 -0.010917256 -0.014404036 -0.04933724 -0.04003797 0.08976076 0.04366944 0.073778644
-0.0025792988 0.022043647 0.010546559 0.08130678 -0.037988983 0.053337254 0.017908828 0.064027496
0.061257087 0.026879828 -0.09104163 0.077028446 -0.016771086 0.08509172 -0.03175853 0.0014836934
0.07338627 -0.08607636 -0.029910574 0.030348228 -0.0933561 0.050136063 -0.056544565 0.073186725
-0.10885131 -0.09080481 0.09151596 0.011668418 -0.0398737 0.0210913 0.03649863 -0.11727148
-0.05846095 0.18783206 0.074402526 0.11767331 -0.071434595 0.103188485 -0.0765879 -0.06956675
0.08236812 0.0674416 -0.07146634 0.09298517 -0.09597314 0.011566555 -0.036072373 0.04177431
-0.07738646 -0.082077034 -0.19999972 0.015917253 -0.09751918 0.11567454 0.06454623 0.016716428
-0.011472558 0.04624562 0.06459655 0.051422928 -0.014247507 -0.021836026 -0.006606074 0.16260543
0.018745318 -0.0892984 -0.12793665 0.050051637 -0.11163902 0.0037593571 0.113977805 -0.052532006
0.051335655 0.01983927 -0.009710528 -0.10529101 0.039118692 -0.053234387 -0.07759386 -0.13191311
-0.016813058 -0.030181812 -0.023790378 -0.009122945 0.03614699 0.11059961 -0.12542987 0.055056915
0.020940157 0.01691492 -0.017960137 -0.015896479 0.019579226 -0.036166843 -0.028744664 -0.014385761
0.009802462 0.016985614 -0.06843057 0.0138445515 0.013208169 -0.033179794 0.018801777 0.07727473
0.015634572 -0.002492345 0.04110992 -0.030078184 0.009829833 0.061249487 0.015022654 -0.08802654
-0.0019753752 -0.13735072 -0.021505153 -0.015926313 -0.05236013 0.06308681 -0.007634375 -0.11643871
0.09049618 0.044080213 0.020615492 0.05457602 -0.13479833 0.016591802 -0.04163898 0.077123635
0.022106977 -0.06511393 0.030634785 -0.046395067 -0.015160799 0.05785026 0.082829975 -0.044497244
0.0034916238 -0.028332409 -1.2110013e-05 -0.026358753 0.057322793 -0.048715994 -0.006147842 0.027721185
-0.0068977834 0.04340584 0.08540966 -0.03340727 0.0042257486 -0.020672593 -0.04876854 -0.04396965
0.023675721 -0.033974778 0.0253748 -0.041795406 -0.05821565 0.038708683 0.048391312 -0.0033174856
-0.030537574 -0.03901623 0.071385 0.083336666 0.03215123 0.02490676 0.042063344 0.009930082
0.111289434 0.03068175 -0.04236586 0.020510737 -0.04398857 -0.018127616 -0.013305958 -0.0116206175
0.022696566 0.07989835 0.058142208 0.02246949 -0.021124844 -0.036038868 -0.020048145 0.05643934
0.0051628235 -0.015655948 -0.06169677 -0.0015471285 -0.06046143 -0.021417167 0.004099634 0.030991362
-0.050873425 0.008170764 -0.006027389 0.006192743 0.017229013 -0.04133331 -0.081846274 -0.08799109
0.034063257 0.06476578 -0.058925264 0.040153366 -0.025225965 0.03661653 0.02162598 -0.051964916
-0.024003722 -0.0057898303 0.0071146647 -0.04140949 0.0009797908 -0.039416987 0.028363388 -0.032833878
00000000: a5e5 273d c503 4b3d 31af 89bc 516c 8a3d
00000010: dbad 5c3d 5dc1 47bd 05c7 57bd 139b 84bd
00000020: e668 223d e8a2 e6bc 2cdd 03bd b82b 393c
00000030: 1727 aabd 835b 88bd 5789 11bd 6626 8cbc
00000040: f110 9e3d 2c75 0e3d 40b5 6e3d 683b 553d
00000050: c407 c53c 7e0c d13d 4952 34bd 8c88 493b
00000060: b9b9 34bd b850 15bd b1b0 16bd 8f9d dcbd
00000070: 930d f5bd 8e18 e43d 6759 e93c dd71 49be
00000080: 771d f33c 4ade 32bc e8fe 6bbc d915 4abd
00000090: dbfe 23bd 7dd4 b73d bade 323d 4219 973d
000000a0: 7409 29bb e194 b43c 79cb 2c3c 2b84 a63d
000000b0: 569a 1bbd 2a78 5a3d 89b5 923c d920 833d
000000c0: b6e8 7a3d 1633 dc3c 0974 babd 17c1 9d3d
000000d0: 8463 89bc 9144 ae3d 3b15 02bd 7d78 c23a
000000e0: 8a4b 963d cd48 b0bd 0507 f5bc d99c f83c
000000f0: 7c31 bfbd 795b 4d3d 469b 67bd ece2 953d
00000100: 70ed debd dff7 b9bd b86c bb3d e42c 3f3c
00000110: 9b52 23bd a9c7 ac3c 967f 153d 082c f0bd
00000120: c074 6fbd 0c57 403e 5a60 983d b4fe f03d
00000130: 4d4c 92bd 7c54 d33d 1eda 9cbd 0379 8ebd
00000140: 9eb0 a83d d21e 8a3d f25c 92bd 026f be3d
00000150: 918d c4bd a681 3d3c a0c0 13bd 8a1b 2b3d
00000160: cb7c 9ebd 0118 a8bd bacc 4cbe e664 823c
00000170: 23b8 c7bd c6e6 ec3d d030 843d e4f0 883c
00000180: 65f7 3bbc 0c6c 3d3d 324b 843d d9a0 523d
00000190: 606e 69bc 77e1 b2bc c477 d8bb 0a82 263e
000001a0: c88f 993c 14e2 b6bd d301 03be f202 4d3d
000001b0: 00a3 e4bd 8c5f 763b 326d e93d cd2b 57bd
000001c0: 5645 523d f785 a23c e818 1fbc d0a2 d7bd
000001d0: ec3a 203d 4d0c 5abd 88e9 9ebd 3b14 07be
000001e0: 8abb 89bc d93f f7bc 0ae4 c2bc 6878 15bc
000001f0: de0e 143d 0c82 e23d b070 00be 5c83 613d
00000200: b18a ab3c 2991 8a3c 2321 93bc 5539 82bc
00000210: 9d64 a03c af23 14bd ee79 ebbc 41b2 6bbc
00000220: 819a 203c 6a25 8b3c 5425 8cbd 42d4 623c
00000230: 1367 583c 89e7 07bd 2f06 9a3c 3742 9e3d
00000240: 1314 803c 9c56 23bb e062 283d 8666 f6bc
00000250: 4f0d 213c bee0 7a3d 9421 763c 4247 b4bd
00000260: 4c75 01bb aba5 0cbe 932b b0bc e677 82bc
00000270: 9377 56bd a833 813d c729 fabb 6b77 eebd
00000280: 1056 b93d 748d 343d d2e1 a83c 1b8b 5f3d
00000290: 9308 0abe 88eb 873c a38d 2abd fff2 9d3d
000002a0: b119 b53c 745a 85bd cdf5 fa3c c108 3ebd
000002b0: 0065 78bc 65f4 6c3d c3a2 a93d be42 36bd
000002c0: bad3 643b 5e19 e8bc 1c2c 4bb7 50ee d7bc
000002d0: 4ecb 6a3d 6c8a 47bd d673 c9bb 8a17 e33c
000002e0: cd06 e2bb 52ca 313d 43eb ae3d 10d6 08bd
000002f0: 2678 8a3b 9259 a9bc 85c1 47bd 8519 34bd
00000300: 96f3 c13c 2329 0bbd d0de cf3c a931 2bbd
00000310: 8973 6ebd ff8c 1e3d f835 463d 2c6a 59bb
00000320: ef29 fabc 7bcf 1fbd 4d32 923d 6aac aa3d
00000330: 02b1 033d 4309 cc3c 9d4a 2c3d c8b1 223c
00000340: b7eb e33d 4b58 fb3c d387 2dbd 2206 a83c
00000350: 5c2d 34bd 5e80 94bc 3c01 5abc 6764 3ebc
00000360: 26ee b93c bfa1 a33d 8626 6e3d f011 b83c
00000370: 020e adbc 7e9d 13bd 023c a4bc f02c 673d
00000380: e72c a93b e740 80bc c1b5 7cbd 05c9 caba
00000390: 68a6 77bd 0e73 afbc 3956 863b 99e1 fd3c
000003a0: a760 50bd abde 053c 6781 c5bb 7eec ca3b
000003b0: dc23 8d3c 1e4d 29bd 059f a7bd ac34 b4bd
000003c0: ea85 0b3d eca3 843d 9e5b 71bd db77 243d
000003d0: afa6 cebc 37fb 153d f828 b13c 2ad9 54bd
000003e0: 74a3 c4bc 9eb8 bdbb 2222 e93b ff9c 29bd
000003f0: 536c 803a b573 21bd 565a e83c d17c 06bd

lstm.weight_hh_l0 f4 [512, 128]
-0.031285595 -0.02243718 -0.06328101 0.029154196 -0.007890837 -0.03220923 0.0053360644 -0.03117728
-0.033036415 -0.039114237 0.04166049 -0.005553084 -0.028690325 0.0037940436 -0.01261131 -0.015049315
0.025378253 0.01854979 0.010694719 0.07612431 -0.00920891 0.0077813617 -0.06784522 -0.017406464
0.004933416 -0.005262952 -0.045344416 -0.023447143 0.008669002 -0.027984912 -0.05662377 0.06776549
-0.019466184 -0.036235694 0.09850274 -0.06573333 0.01288307 -0.03523779 0.059985686 -0.02480606
0.0057030725 -0.04044321 -0.0077443337 -0.017086107 0.01527038 0.058854386 0.00017605264 -0.054003086
0.007249007 0.0028351801 0.0038930115 0.045377735 0.008221766 -0.0025685802 -0.017888315 0.0024600674
-0.042694397 0.0065979594 -0.023511074 0.079254985 -0.019453658 -0.06634083 0.012799617 -0.012038734
0.02476155 -0.0017095971 -0.0184612 0.013558812 0.018688396 -0.03560913 0.010693531 -0.014365615
-0.0076295394 -0.025639668 0.03866986 0.014840258 0.04694796 0.009206157 0.0076850383 -0.0027951442
-0.019196928 -0.027786914 -0.008079284 0.01562879 -0.0027911367 0.032119494 0.010372185 -0.03980344
-0.006323176 0.021077672 0.011340869 0.035552643 -0.049343456 -0.1201937 -0.025253708 -0.04400879
-0.028083432 0.0024144463 0.011043885 -0.052345708 0.010462411 -0.041960813 -0.010503444 0.009333088
0.01912861 -0.02206277 -0.0109992465 0.025076438 0.034115884 -0.041815974 -0.1368517 0.044065453
-0.03569106 -0.02395589 0.013312912 0.007471404 -0.078163266 -0.00018521538 -0.010073182 0.096978575
3.551085e-05 -0.023203144 -0.011666304 -0.008004908 -0.04513011 0.0039409967 -0.0032856404 -0.0041511394
0.06393862 0.060285248 0.021210413 -0.03501493 0.052217085 0.11589045 -0.007341313 0.0037862721
0.004464824 0.024193972 -0.02101941 -0.02170691 0.008376868 0.0032826737 0.023054816 0.051557716
-0.0017869945 0.0053311354 -0.0548423 -0.0011432588 -0.015366365 -0.024487533 0.09794961 0.006907279
0.010367489 0.020751188 0.00849763 0.05284865 0.018210161 -0.015871342 0.11806718 -0.06407099
0.011354999 0.026477901 -0.030871268 0.07628159 0.03137473 -0.01593406 -0.030925004 0.008509807
0.0007243172 0.017777333 -0.056108538 0.05932486 0.004406123 -0.025309078 0.025547924 0.051569015
-0.043932438 0.019203963 0.050421346 -0.092320815 -0.030776933 0.014124477 0.000108033746 0.0058611664
0.036848366 0.006120032 -0.023266131 -0.06892876 0.010603088 0.021969844 0.0015475688 0.03231392
-0.017262317 -0.02206709 -0.011398535 -0.022683242 -0.021152567 -0.014525364 -0.048265498 -0.024489358
-0.026820328 0.008145564 -0.04403969 -0.018728092 -0.030448653 -0.00029422867 -0.0225424 0.0132319275
0.003811991 -0.005335404 0.0132276025 -0.003594397 0.0115512125 0.0146671515 0.01621115 0.009147983
-0.020031339 0.0056768716 -0.0023323726 0.048037007 0.0109356325 0.0017639372 0.03814192 0.03697756
-0.029822756 -0.001773262 0.03987335 0.027394699 -0.012351179 0.0016144487 0.014465017 0.014946769
0.038253754 0.021968035 0.107847236 0.008718612 -0.0008755114 -0.039654538 -0.029636439 0.023532417
0.02405661 0.004616673 -0.035538517 -0.020814357 0.019059945 -0.0032790385 0.02676475 -0.07892798
-0.002588774 -0.08138822 0.016490385 0.09010019 0.15501235 -0.006902622 -0.0032675245 0.008254932
00000000: 5325 00bd 2dce b7bc 7999 81bd c8d4 ee3c
00000010: 9248 01bc d3ed 03bd 27da ae3b 7f67 ffbc
00000020: 3151 07bd 4036 20bd 31a4 2a3d a5f6 b5bb
00000030: f907 ebbc 7da5 783b ab9f 4ebc 6791 76bc
00000040: 0ee6 cf3c bbf5 973c e738 2f3c 10e7 9b3d
00000050: f8e0 16bc cbfa fe3b 6ff2 8abd 0098 8ebc
00000060: 7ea8 a13b d774 acbb 11bb 39bd 3914 c0bc
00000070: 6e08 0e3c 9d40 e5bc 54ee 67bd a2c8 8a3d
00000080: 8c77 9fbc e16b 14bd cebb c93d 329f 86bd
00000090: 8313 533c 8055 10bd 8db3 753d 1436 cbbc
000000a0: d7e0 ba3b c8a7 25bd 2ec4 fdbb 2af8 8bbc
000000b0: 9e30 7a3c 4c11 713d c59a 3839 5732 5dbd
000000c0: 1489 ed3b 6ece 393b e521 7f3b 01de 393d
000000d0: 96b4 063c a055 28bb 848a 92bc 1539 213b
000000e0: 52e0 2ebd b233 d83b 4c9a c0bc 7050 a23d
000000f0: 475d 9fbc b3dd 87bd 7cb5 513c 1c3e 45bc
00000100: bcd8 ca3c 8f14 e0ba f13b 97bc c825 5e3c
00000110: 6818 993c e1da 11bd eb33 2f3c c25d 6bbc
00000120: 3701 fabb 480a d2bc 4a64 1e3d 8e24 733c
00000130: 814c 403d 6cd5 163c c6d2 fb3b bd2e 37bb
00000140: e042 9dbc 62a1 e3bc f95e 04bc f307 803c
00000150: 81eb 36bb bb8f 033d 19f0 293c ef08 23bd
00000160: a532 cfbb 15ab ac3c 0dcf 393c a69f 113d
00000170: 5d1c 4abd 1d28 f6bd dde0 cebc 9042 34bd
00000180: 3a0f e6bc b03b 1e3b 69f1 343c 7468 56bd
00000190: 886a 2b3c 1adf 2bbd a316 2cbc cfe9 183c
000001a0: 9ab3 9c3c fbbc b4bc 2f36 34bc 1a6d cd3c
000001b0: 19bd 0b3d 3a47 2bbd da22 0cbe fa7d 343d
000001c0: ca30 12bd 253f c4bc 661e 5a3c aed2 f43b
000001d0: 1014 a0bd 6036 42b9 fd09 25bc b49c c63d
000001e0: 7cf1 1438 8514 bebc 0724 3fbc 0527 03bc
000001f0: 5ada 38bd 7a23 813b e653 57bb 4806 88bb
00000200: 40f2 823d aaed 763d 76c1 ad3c d16b 0fbd
00000210: 95e1 553d f957 ed3d 668f f0bb 1b23 783b
00000220: a94d 923b 7032 c63c e630 acbc b1d2 b1bc
00000230: 223f 093c 2022 573b 74dd bc3c 2f2e 533d
00000240: 9639 eaba ceb0 ae3b 52a2 60bd 66d9 95ba
00000250: 35c3 7bbc 149a c8bc ce99 c83d 7556 e23b
00000260: 67dc 293c 65fe a93c a539 0b3c d377 583d
00000270: 7a2d 953c 9e04 82bc 35cd f13d a737 83bd
00000280: 510a 3a3c 2fe8 d83c bee5 fcbc 8639 9c3d
00000290: ca82 003d 2588 82bc 6f56 fdbc b86c 0b3c
000002a0: 1be0 3d3a c5a1 913c 11d2 65bd a0fe 723d
000002b0: 3d61 903b fc54 cfbc e149 d13c 083a 533d
000002c0: 80f2 33bd a151 9d3c 9d86 4e3d b212 bdbd
000002d0: e81f fcbc 5a6a 673c 2d90 e238 070f c03b
000002e0: 50ee 163d 8d8a c83b 9d98 bebc 862a 8dbd
000002f0: 93b8 2d3c 1afa b33c cbd7 ca3a 9a5b 043d
00000300: b469 8dbc 0bc6 b4bc ecc0 3abc 35d2 b9bc
00000310: 2648 adbc cbfb 6dbc 0bb2 45bd e89d c8bc
00000320: 4eb6 dbbc f974 053c f662 34bd a86b 99bc
00000330: 746f f9bc b442 9ab9 d7aa b8bc baca 583c
00000340: 99d2 793b 9dd4 aebb 96b8 583c fa8f 6bbb
00000350: 4c41 3d3c 7e4e 703c 3fcd 843c 6ce1 153c
00000360: c318 a4bc 0d05 ba3b b8da 18bb 74c2 443d
00000370: 5e2b 333c e933 e73a b43a 1c3d c875 173d
00000380: da4e f4bc cd6c e8ba 3d52 233d d96a e03c
00000390: 995c 4abc e99b d33a aefe 6c3c 4be3 743c
000003a0: f8af 1c3d 4ff6 b33c 03df dc3d 82d8 0e3c
000003b0: 9382 65ba cc6c 22bd 1ec8 f2bc 0ec7 c03c
000003c0: 5e12 c53c 7647 973b d690 11bd df82 aabc
000003d0: 9a23 9c3c 23e5 56bb c041 db3c fea4 a1bd
000003e0: 6ca8 29bb deae a6bd d816 873c 7386 b83d
000003f0: 8fbb 1e3e 642f e2bb f723 56bb b23f 073c

lstm.bias_ih_l0 f4 [512]
-0.046154622 -0.024209647 0.07462089 0.061047856 -0.033155665 -0.07310125 -0.12842302 -0.06294339
-0.12517904 -0.11346009 0.0016524198 -0.11135602 -0.081500866 -0.10576571 -0.06722172 0.001113359
-0.036760047 -0.03135558 -0.028468417 -0.051935803 -0.056523196 -0.08155234 0.080784254 -0.0042332923
-0.07024083 -0.16713892 -0.006420266 -0.0024688987 -0.09092245 -0.03212413 0.06415683 -0.038989246
0.024029655 0.019413907 -0.09010557 -0.014016119 0.046317622 0.027126206 -0.032445174 -0.012028886
-0.12998332 -0.034320597 -0.05508881 0.045675967 -0.05785394 0.098437265 0.01653881 0.097506
0.14927885 0.030557355 -0.06680586 -0.16319686 -0.0066242893 -0.07436308 -0.12260821 -0.10122634
-0.15901445 -0.10861913 0.04084288 0.17665747 -0.08955938 -0.05114415 0.012763341 0.019137643
-0.06691246 -0.0041141566 -0.056149147 -0.04507547 -0.09269098 0.041461434 0.021709729 0.16890499
0.056447368 0.0003555456 0.030427469 -0.11212796 -0.05278113 -0.057031795 -0.043620672 -0.10444596
-0.07390533 -0.12461925 -0.10240434 -0.106290616 0.007442626 0.009635341 -0.035180263 -0.02008704
-0.08797633 0.011771347 -0.06729315 -0.030042138 0.09824614 -0.015150484 -0.06640546 0.0128128715
0.07458906 0.012840719 -0.08474886 0.004804601 -0.11546339 -0.031180214 -0.13141815 0.005545315
-0.012797376 -0.07345263 0.07201786 -0.046927467 -0.06685017 -0.05987013 0.07828917 0.06040716
-0.06601473 -0.014361724 -0.063778594 -0.020040207 0.08592859 -0.07325713 -0.04986336 0.21296646
-0.11109588 -0.11363139 0.086375244 -0.016523628 -0.02417337 -0.12909466 -0.10685831 -0.011540001
-0.05444992 0.12741975 -0.055953797 0.0012491731 -0.008018836 0.16389881 0.012202605 0.09426987
-0.037108973 0.05447257 -0.095791295 -0.09280158 -0.040589284 -0.061403576 -0.06560733 -0.06551877
-0.04852874 0.030614292 0.10310303 -0.059288353 0.010196281 -0.010718678 0.2374983 -0.06669247
-0.040695753 0.15165251 0.0055539673 -0.051752113 0.07862885 -5.8764977e-05 -0.092248924 0.06030111
0.03800116 0.21633978 0.09411923 0.15610562 0.061413184 0.06601298 0.07072954 0.093960844
-0.032670286 0.071494214 -0.052057713 -0.069737695 0.055474266 -0.06996196 0.0057692253 -0.08204597
0.0038232838 -0.07315583 -0.018310029 0.022449436 -0.053383403 0.03494344 -0.022580564 -0.047085475
-0.038731463 -0.04368457 -0.06489784 0.042664737 0.034686808 0.052040797 -0.0009162999 -0.068382464
-0.016444976 -0.05107227 -0.007823765 -0.061754268 0.007591785 -0.06438562 -0.0486977 -0.12086436
-0.004330012 -0.054565165 -0.013437452 0.13633442 0.088738985 -0.014894003 -0.06714071 0.008234771
0.00469335 0.05336893 -0.028811174 -0.033703387 -0.036267824 -0.014438312 0.03918042 -0.02525659
0.044388067 -0.074815445 -0.032786205 -0.023666533 -0.09737968 0.19098923 0.045681357 0.033081017
-0.10936081 0.00288167 -0.0003757315 -0.030222574 -0.012009124 -0.06271789 0.060652167 0.025744904
-0.009339811 -0.059797198 0.034789182 -0.063705385 -0.06078054 -0.026456496 -0.046365887 0.07787665
0.020862754 0.009894022 0.13190302 0.051740553 0.06768298 -0.036350872 0.12452989 0.041812968
0.031728573 0.11044325 -0.0010652984 0.072860636 0.25815904 -0.07732007 -0.041474048 0.05197457
00000000: a10c 3dbd 4f53 c6bc d6d2 983d 510d 7a3d
00000010: 3cce 07bd 1cb6 95bd 5381 03be 77e8 80bd
00000020: ef2e 00be c35d e8bd 0296 d83a a00e e4bd
00000030: ede9 a6bd b19b d8bd 8bab 89bd 21ee 913a
00000040: b491 16bd b56e 00bd 9936 e9bc a3ba 54bd
00000050: de84 67bd ea04 a7bd 3772 a53d 6eb7 8abb
00000060: 6dda 8fbd 7726 2bbe 1861 d2bb 3fcd 21bb
00000070: 8d35 babd 9794 03bd a864 833d 30b3 1fbd
00000080: d7d9 c43c ea09 9f3c 4589 b8bd dda3 65bc
00000090: 8cb7 3d3d c737 de3c 3be5 04bd ce14 45bc
000000a0: 591a 05be c193 0cbd cea4 61bd b916 3b3d
000000b0: 41f8 6cbd 7a99 c93d 667c 873c 3ab1 c73d
000000c0: 8edc 183e 6b53 fa3c 83d1 88bd 141d 27be
000000d0: 9110 d9bb ac4b 98bd 031a fbbd c14f cfbd
000000e0: afd4 22be b573 debd dd4a 273d b2e5 343e
000000f0: e96a b7bd 877c 51bd 551d 513c 8cc6 9c3c
00000100: 6609 89bd 0cd0 86bb a6fc 65bd 0ea1 38bd
00000110: c5d4 bdbd 77d3 293d 9ad8 b13c 6ef5 2c3e
00000120: 5b35 673d 8668 ba39 0743 f93c 58a3 e5bd
00000130: 0731 58bd 2c9a 69bd 97ab 32bd c3e7 d5bd
00000140: ad5b 97bd 6138 ffbd 5eb9 d1bd e5ae d9bd
00000150: 46e1 f33b 8ddd 1d3c 2e19 10bd 938d a4bc
00000160: ef2c b4bd 9cdc 403c fed0 89bd ee1a f6bc
00000170: 4635 c93d bc39 78bc 96ff 87bd 14ed 513c
00000180: 26c2 983d e161 523c cf90 adbd ea6f 9d3b
00000190: 1278 ecbd a66d ffbc 7b92 06be 79b5 b53b
000001a0: 16ac 51bc 556e 96bd 1a7e 933d 0437 40bd
000001b0: bee8 88bd 623a 75bd 1356 a03d 806d 773d
000001c0: bb32 87bd 704d 6bbc 5a9e 82bd 5c2b a4bc
000001d0: 54fb af3d d607 96bd 863d 4cbd e113 5a3e
000001e0: 3d86 e3bd 93b7 e8bd 81e5 b03d 8f5c 87bc
000001f0: 3b07 c6bc 6431 04be 88d8 dabd 4612 3dbc
00000200: e106 5fbd 537a 023e cf2f 65bd 4bbb a33a
00000210: 7061 03bc 17d5 273e 6fed 473c 9010 c13d
00000220: 94ff 17bd a11e 5f3d 3a2e c4bd c10e bebd
00000230: f340 26bd 5182 7bbd 235d 86bd b42e 86bd
00000240: 12c6 46bd d3ca fa3c ae27 d33d 58d8 72bd
00000250: 4d0e 273c 659d 2fbc c132 733e 1096 88bd
00000260: 97b0 26bd cc4a 1b3e 0efe b53b 06fa 53bd
00000270: 2a08 a13d 6a7a 76b8 01ed bcbd 4cfe 763d
00000280: 1ba7 1b3d 2d88 5d3e 95c1 c03d 27da 1f3e
00000290: 648c 7b3d d031 873d a6da 903d 8b6e c03d
000002a0: 47d1 05bd 8f6b 923d 783a 55bd a3d2 8ebd
000002b0: fc38 633d 3748 8fbd c50b bd3b b807 a8bd
000002c0: 0f90 7a3b b9d2 95bd eafe 95bc e1e7 b73c
000002d0: 8ea8 5abd da20 0f3d e0fa b8bc b3dc 40bd
000002e0: e2a4 1ebd 97ee 32bd 29e9 84bd 38c1 2e3d
000002f0: c113 0e3d bb28 553d d833 70ba 1b0c 8cbd
00000300: 9db7 86bc 2831 51bd 402f 00bc 0bf2 7cbd
00000310: 82c4 f83b 9cdc 83bd 3d77 47bd bc87 f7bd
00000320: c6e2 8dbb b97f 5fbd c228 5cbc 409b 0b3e
00000330: c9bc b53d fa05 74bc 1281 89bd 22eb 063c
00000340: acca 993b 6199 5a3d 6905 ecbc 900c 0abd
00000350: 928d 14bd ab8e 6cbc a67b 203d e9e6 cebc
00000360: 43d0 353d d738 99bd d44a 06bd 51e0 c1bc
00000370: ff6e c7bd ae92 433e 601c 3b3d f67f 073d
00000380: 8ff8 dfbd 66da 3c3b d4fd c4b9 5595 f7bc
00000390: ebc1 44bc 3d72 80bd 686e 783d fae6 d23c
000003a0: 0206 19bc e8ed 74bd 1a7f 0e3d f877 82bd
000003b0: 04f5 78bd 4bbb d8bc 28ea 3dbd cb7d 9f3d
000003c0: 5ee8 aa3c 891a 223c 9611 073e e7ed 533d
000003d0: 609d 8a3d a7e4 14bd 8709 ff3d 1344 2b3d
000003e0: d2f5 013d 1230 e23d 7ca1 8bba f537 953d
000003f0: 6c2d 843e fc59 9ebd b1e0 29bd 49e3 543d

lstm.bias_hh_l0 f4 [512]
0.010522985 -0.044538815 0.07545252 0.0672722 0.017006705 -0.19085978 -0.15036795 -0.07806159
-0.08965509 -0.11429249 0.029454488 -0.051526904 -0.08777761 -0.10576725 -0.08268421 0.0026214398
-0.024212318 -0.03265822 -0.116159976 -0.041317165 -0.12501597 -0.025304293 -0.05617324 -0.03472107
-0.07024083 -0.11325212 -0.0011068947 -0.1322295 -0.14390047 -0.049165778 0.05377555 -0.15703207
-0.05969309 -0.052647516 -0.04526975 -0.05423425 -0.04424187 0.054004237 -0.033906933 -0.084626436
-0.13322948 -0.07726463 -0.04761518 0.014820504 -0.1265832 0.038918197 -0.024645025 0.11413716
0.17221236 0.028554812 -0.001962159 -0.14224781 -0.002364154 -0.047973327 -0.024633653 -0.04590882
-0.07284931 -0.09240527 -0.041534986 0.17968607 -0.11245206 0.05941361 -0.0015453517 0.006994847
-0.042453323 -0.023028634 -0.14519195 -0.029547272 -0.0399409 0.040382743 0.0046868185 0.17583962
-0.010422501 -0.011335932 -0.057986576 -0.092163995 -0.05364308 0.018290399 -0.093512975 -0.0860486
-0.057316232 -0.13014923 -0.10220574 -0.099309854 0.0038712083 -0.11764463 -0.08781001 -0.08134543
-0.041217353 0.006207698 -0.06724865 -0.03368098 0.107486196 0.034387447 -0.004207227 0.005392229
0.032052644 0.03339764 -0.09102632 -0.04120973 -0.15353768 -0.028912835 -0.13460246 0.025434861
-0.07557089 -0.07489107 0.07826726 -0.046613336 -0.07162853 -0.0682197 0.06358854 0.10531456
-0.04790528 -0.001007421 -0.17008261 0.0045973677 0.067730606 -0.07325714 -0.025589835 0.21257867
-0.12440922 -0.13503852 0.06505551 0.024345854 -0.03376791 -0.12909466 -0.05649262 -0.01782573
-0.02207322 0.11049523 -0.042419214 -0.0019864556 -0.0061943564 0.24660802 -0.00795818 0.033914577
0.03215915 -0.029679947 -0.10438093 -0.09842675 -0.040589172 -0.061403587 -0.02899783 -0.082087226
-0.05654779 0.032236416 0.10930101 -0.025910228 -0.04093741 -0.015825702 0.16007204 -0.07362601
-0.040695753 0.15489191 0.0039146943 0.0041343602 -0.0021129488 0.021263942 -0.11542075 0.087293215
0.03387333 0.09578704 0.056560546 0.097471096 0.04256296 0.0953153 0.05723637 0.020854438
-0.021063767 -0.0128206005 -0.06344335 -0.09086309 0.07356834 -0.08277635 0.06480805 -0.09511977
0.009093158 -0.087082714 -0.018423384 0.01958167 -0.04710235 0.04772121 -0.041626044 -0.035347786
0.0023719976 -0.043972902 -0.05093725 0.043291826 0.09433549 0.020956995 -0.024738204 -0.07636001
-0.017894054 -0.06758792 -0.035741348 -0.037468623 0.06637843 -0.06027082 -0.046226345 -0.11757058
0.04058248 -0.078940704 -0.011975792 0.08112471 -0.038804993 0.031266995 -0.0130921295 0.08249454
0.06548966 -0.068917535 -0.026975691 0.00080253254 -0.051044844 0.023063697 0.040894717 -0.03125284
-0.03710303 -0.078380354 -0.032786205 -0.022017045 -0.09347731 0.26543322 0.058209334 -0.0031019372
-0.101223074 -0.031579837 -0.034288384 -0.0060938494 0.026500518 -0.061750956 0.052545615 0.009920338
-0.029168839 -0.060274936 0.03020247 -0.063115716 -0.06319778 -0.021341713 -0.038278654 0.067142755
0.017993057 0.022561423 0.118096836 0.054223046 0.12807636 -0.036350872 0.13978556 0.020055654
0.048093643 0.10675167 0.057641096 0.06463699 0.20356812 -0.07732007 0.0017287609 0.07493098
00000000: 9968 2c3c 556e 36bd da86 9a3d 02c6 893d
00000010: a551 8b3c bf70 43be 0efa 19be c1de 9fbd
00000020: 169d b7bd 2e12 eabd 8a4a f13c e00d 53bd
00000030: bfc4 b3bd 809c d8bd 5756 a9bd 76cc 2b3b
00000040: e958 c6bc a0c4 05bd 48e5 edbd 303c 29bd
00000050: 3004 00be f34a cfbc e915 66bd ae37 0ebd
00000060: 6dda 8fbd baf0 e7bd 3915 91ba 2c67 07be
00000070: a55a 13be 0e62 49bd c043 5c3d 04cd 20be
00000080: be80 74bd eca4 57bd c66c 39bd bc24 5ebd
00000090: f736 35bd 8c33 5d3d ffe1 0abd a050 adbd
000000a0: 4f6d 08be eb3c 9ebd 2308 43bd b3d1 723c
000000b0: 079f 01be b068 1f3d 5de4 c9bc bec0 e93d
000000c0: 7058 303e c8eb e93c 9197 00bb 69a9 11be
000000d0: ecef 1abb ae7f 44bd 84cc c9bc e30a 3cbd
000000e0: 0532 95bd f93e bdbd 9720 2abd a0ff 373e
000000f0: 444d e6bd af5b 733d 668d caba 0835 e53b
00000100: 89e3 2dbd 8ca6 bcbc 33ad 14be 1f0d f2bc
00000110: 1299 23bd 6068 253d e293 993b 4d0f 343e
00000120: 23c3 2abc 58ba 39bc 5583 6dbd 7ac0 bcbd
00000130: d9b8 5bbd bfd5 953c bb83 bfbd 403a b0bd
00000140: 6dc4 6abd d745 05be 3e51 d1bd f762 cbbd
00000150: 19b4 7d3b abef f0bd bcd5 b3bd 6f98 a6bd
00000160: 87d3 28bd f269 cb3b a9b9 89bd 11f5 09bd
00000170: b921 dc3d dad9 0c3d c7dc 89bb 4cb1 b03b
00000180: a249 033d f7cb 083d 026c babd 89cb 28bd
00000190: fb38 1dbe 9cda ecbc 3ad5 09be c55c d03c
000001a0: e9c4 9abd 7d60 99bd 964a a03d a0ed 3ebd
000001b0: fbb1 92bd c5b6 8bbd b53a 823d 29af d73d
000001c0: 5438 44bd 700b 84ba 232a 2ebe 84a5 963b
000001d0: 58b6 8a3d d707 96bd c6a1 d1bc 39ae 593e
000001e0: 43ca febd 8a47 0abe d33b 853d f570 c73c
000001f0: 3850 0abd 6431 04be ce64 67bd 4407 92bc
00000200: e6d2 b4bc 534b e23d c5bf 2dbd 322f 02bb
00000210: 07fa cabb d086 7c3e 0763 02bc 03ea 0a3d
00000220: 50b9 033d 5c23 f3bc abc5 d5bd f793 c9bd
00000230: d540 26bd 5482 7bbd db8c edbc 591d a8bd
00000240: a89e 67bd 550a 043d 35d9 df3d b041 d4bc
00000250: fcad 27bd e7a4 81bc ede9 233e 3cc9 96bd
00000260: 97b0 26bd fc9b 1e3e d646 803b 8779 873b
00000270: 6679 0abb b831 ae3c b761 ecbd c9c6 b23d
00000280: c3be 0a3d ff2b c43d 08ac 673d ed9e c73d
00000290: 8056 2e3d ab34 c33d af70 6a3d edd6 aa3c
000002a0: ec8d acbc 7f0d 52bc 96ee 81bd 6d16 babd
000002b0: ffaa 963d a686 a9bd 15ba 843d 27ce c2bd
000002c0: 78fb 143c 6c58 b2bd a3ec 96bc bd69 a03c
000002d0: 65ee 40bd 5177 433d 1280 2abd d7c8 10bd
000002e0: 8473 1b3b ee1c 34bd 94a3 50bd c552 313d
000002f0: f732 c13d 01ae ab3c c6a7 cabc a362 9cbd
00000300: 8d96 92bc 896b 8abd 8565 12bd b378 19bd
00000310: 6af1 873d 89de 76bd d657 3dbd d8c8 f0bd
00000320: d139 263d aaab a1bd 1d36 44bc b624 a63d
00000330: fcf1 1ebd d211 003d 5f80 56bc e6f2 a83d
00000340: 711f 863d a324 8dbd 20fc dcbc 0c61 523a
00000350: 6614 51bd 14f0 bc3c 3881 273d fa02 00bd
00000360: 59f9 17bd e185 a0bd d44a 06bd 175d b4bc
00000370: 0871 bfbd dde6 873e e96c 6e3d df49 4bbb
00000380: 0b4e cfbd dc59 01bd fa71 0cbd eaae c7bb
00000390: 9d17 d93c 92ee 7cbd 123a 573d ea88 223c
000003a0: 7df3 eebc dae2 76bd 2c6b f73c d042 81bd
000003b0: d66d 81bd d1d4 aebc 14ca 1cbd 2482 893d
000003c0: 2d66 933c bcd2 b83c c1dc f13d fc18 5e3d
000003d0: 7326 033e a7e4 14bd f223 0f3e c14b a43c
000003e0: d7fd 443d 9fa0 da3d 1219 6c3d 6660 843d
000003f0: 2974 503e fc59 9ebd 9797 e23a 6a75 993d

lstm.weight_ih_l1 f4 [512, 128]
-0.011734686 0.022403387 0.016861811 -0.015800275 -0.011218371 0.02072814 0.0145353675 0.033315226
0.0034570475 0.0033181754 0.0005539863 0.007858986 -0.0046545863 -0.0008013093 -0.0067996085 0.018986318
0.006881057 -0.013471631 6.8814086e-05 0.0047735507 -0.0020878962 0.015067457 0.025832273 0.017273666
0.0036572716 0.012458052 0.014397659 -0.04137459 -0.0042056437 -0.042149972 -0.0033316957 -0.03811685
0.033230044 0.055386662 -0.041323118 0.040812794 -0.029096076 -0.012510273 0.008222232 -0.00162204
-0.0066092755 -0.019813534 0.013645583 -0.00360743 -0.008221003 0.022817811 0.0067217895 0.0162551
-0.019316366 0.028615568 0.00432323 -0.02489447 0.0065803006 -0.0048460723 0.006304429 0.015071622
0.027565438 0.014601617 -0.017608963 0.041023016 -0.0134701785 0.03349911 0.0025649816 -0.009265
0.017812716 0.00038207805 -0.0025992105 -0.014456552 -0.012204198 -0.02131347 -0.008156168 0.032695767
-0.01700837 0.009318454 0.0062146536 -0.063504905 -0.0346936 0.016456168 0.018610727 0.022505486
-0.0049067433 0.017833682 0.0072626346 0.013141323 -0.002565805 -0.036930405 -0.0010509747 -0.0022934421
-0.006287273 0.01157928 0.0025129123 -0.0077937855 0.012533619 0.014303708 0.0492365 0.0017312105
0.006774423 0.0045479573 0.0023733985 -0.010931799 0.0082779005 -0.0005930215 -0.0055310996 0.00868092
0.000813831 -0.0017846667 0.019935451 -0.003331004 -0.012333474 0.0027998888 -0.022749737 -0.00975108
0.02474463 -0.019248148 -0.004744212 -0.012769261 0.04643433 0.00011337258 0.037084438 -0.01796851
-0.0037239364 -0.039718974 -0.012977551 0.006040918 0.04843823 -0.0032287298 0.012827499 0.0038799918
0.023231817 0.02123687 0.015458653 -0.035174716 0.016614005 -0.0015500535 0.034956906 0.07060847
0.019839784 -0.020501029 -0.030187255 -0.012697801 -0.006775289 -0.0057762265 0.007975693 0.025728688
-0.009970237 0.016673144 0.022110451 0.02997215 -9.407819e-05 -0.033069503 0.092730135 0.00048604456
-0.004640416 0.0010315066 0.008281205 -0.0452221 -0.0070248093 -0.008928734 0.03850117 -0.069702245
0.11739333 0.025925193 -0.056843046 0.017668659 -0.021595707 -0.034277286 0.017377444 -0.020105114
-0.04075791 -0.055360254 -0.015966011 0.013420168 0.022353929 0.07702219 0.07809961 0.043266796
-0.07640563 0.06721161 0.046892237 0.0011632586 -0.0024430656 -0.0085284645 0.0031885263 0.103534184
-0.02157676 0.011538976 0.0020260366 0.010559222 -0.05186732 0.0649198 0.06493813 0.041126754
-0.0110047 -0.075413905 -0.007122109 -0.056206033 0.0014512615 -0.0957713 -0.03343078 0.04779359
-0.044296633 0.05212215 -0.05443688 -0.027438495 -0.022611726 0.058630273 -0.0056718276 0.0117332805
0.04302724 0.016096152 0.0053224 -0.004463182 0.057028618 -0.03442585 -0.008451248 -0.03135321
-0.06218488 0.048639696 0.004458854 0.057161447 0.0067378534 0.06904091 0.07618841 0.009569835
-0.029393058 0.06566956 0.0049558925 0.047391765 0.010247253 0.0057416144 -0.010508149 0.093578964
0.053045493 0.0075665717 0.09600014 -0.012357075 -0.0032246122 -0.023694972 -0.060583476 0.047037434
0.042331368 -0.015411093 -0.02564505 -0.061810825 0.059894614 0.0031101112 0.0438444 0.005763053
-0.007277328 -0.0082765035 -0.07262951 -0.010443025 0.054328036 -0.0012229598 0.07182472 0.027624011
00000000: d742 40bc 4f87 b73c c821 8a3c 946f 81bc
00000010: 42cd 37bc 0fce a93c c025 6e3c 8c75 083d
00000020: a28f 623b bf75 593b 6439 113a fac2 003c
00000030: 8085 98bb f50e 52ba 40cf debb 3289 9b3c
00000040: 7d7a e13b 1eb8 5cbc 4850 9038 726b 9c3b
00000050: 16d5 08bb 7fdd 763c 349e d33c 8181 8d3c
00000060: d6ae 6f3b db1c 4c3c 29e4 6b3c 6778 29bd
00000070: 7fcf 89bb 73a5 2cbd 9458 5abb 6a20 1cbd
00000080: 3a1c 083d 20dd 623d 6e42 29bd 512b 273d
00000090: e55a eebc e3f7 4cbc 8ab6 063c a29a d4ba
000000a0: 9f92 d8bb fe4f a2bc b991 5f3c a26a 6cbb
000000b0: 63b1 06bc 6bec ba3c 7542 dc3b 6a29 853c
000000c0: 5b3d 9ebc 326b ea3c e2a9 8d3b 7def cbbc
000000d0: 909f d73b cdcb 9ebb 6295 ce3b f7ee 763c
000000e0: ead0 e13c 9f3b 6f3c ac40 90bc c007 283d
000000f0: 06b2 5cbc 5d36 093d 4019 283b 3acc 17bc
00000100: f9eb 913c a651 c839 8457 2abb 2ddb 6cbc
00000110: 1ef4 47bc 9699 aebc 73a1 05bc ffeb 053d
00000120: 2355 8bbc 6eac 183c 4ba4 cb3b dc0e 82bd
00000130: e01a 0ebd 16cf 863c 8675 983c 6d5d b83c
00000140: bfc8 a0bb f117 923c 65fb ed3b b44e 573c
00000150: 1127 28bb 5644 17bd dcc0 89ba 934d 16bb
00000160: 7805 cebb 05b7 3d3c acaf 243b 0363 ffbb
00000170: cf59 4d3c 1a5a 6a3c 36ac 493d c9e9 e23a
00000180: fbfb dd3b 0807 953b 058b 1b3b 4a1b 33bc
00000190: 08a0 073c 0075 1bba 3a3e b5bb 6b3a 0e3c
000001a0: 4657 553a 7aeb e9ba ac4f a33c f94c 5abb
000001b0: 5712 4abc 577e 373b a85d babc fec2 1fbc
000001c0: 40b5 ca3c 4bae 9dbc 5675 9bbb 2a36 51bc
000001d0: ed31 3e3d 71c2 ed38 dae5 173d b232 93bc
000001e0: 490d 74bb 5db0 22bd cb9f 54bc e5f2 c53b
000001f0: 2a67 463d 1999 53bb 6e2a 523c 7647 7e3b
00000200: a750 be3c f2f8 ad3c 4a46 7d3c 5d13 10bd
00000210: 181a 883c 2a2b cbba f92e 0f3d 2c9b 903d
00000220: 0b87 a23c c6f1 a7bc 434b f7bc 700a 50bc
00000230: 3e03 debb 8046 bdbb 7bac 023c f8c4 d23c
00000240: 345a 23bc 1e96 883c fa20 b53c 2888 f53c
00000250: d84b c5b8 e373 07bd 4ce9 bd3d ccd3 fe39
00000260: a10e 98bb 9e33 873a e4ad 073c cf3a 39bd
00000270: 5f30 e6bb d349 12bc 67b3 1d3d 0dc0 8ebd
00000280: ea6b f03d 1261 d43c 41d4 68bd ddbd 903c
00000290: 7be9 b0bc 5766 0cbd 245b 8e3c 7bb3 a4bc
000002a0: c4f1 26bd 6fc1 62bd 27cb 82bc 44e0 5b3c
000002b0: 961f b73c cfbd 9d3d b0f2 9f3d 8638 313d
000002c0: 8e7a 9cbd 3ea6 893d 1312 403d 7b78 983a
000002d0: d71b 20bb f9ba 0bbc 98f6 503b bb09 d43d
000002e0: bfc1 b0bc f90d 3d3c 41c7 043b 9600 2d3c
000002f0: d472 54bd acf4 843d 48fe 843d 8774 283d
00000300: 0f4d 34bc 9b72 9abd 9560 e9bb 4c38 66bd
00000310: 4138 be3a be23 c4bd b7ee 08bd 36c3 433d
00000320: 6370 35bd 097e 553d 35f9 5ebd b2c6 e0bc
00000330: 3a3c b9bc 4c26 703d bdda b9bb f23c 403c
00000340: 553d 303d 14dc 833c 8767 ae3b e23f 92bb
00000350: d796 693d 1f02 0dbd 1a77 0abc 396c 00bd
00000360: 93b5 7ebd 6b3a 473d 941b 923b 1f22 6a3d
00000370: 36c9 dc3b 5265 8d3d ab08 9c3d ccca 1c3c
00000380: b6c9 f0bc c37d 863d 0a65 a23b de1d 423d
00000390: 18e4 273c 2724 bc3b 5f2a 2cbc 54a6 bf3d
000003a0: 3b46 593d 01f1 f73b b99b c43d 5475 4abc
000003b0: 0454 53bb f51b c2bc 6126 78bd 53aa 403d
000003c0: a863 2d3d cf7e 7cbc 9115 d2bc 592d 7dbd
000003d0: 0e54 753d 02d3 4b3b 3096 333d fed7 bc3b
000003e0: a776 eebb 2c9a 07bc c8be 94bd 3919 2bbc
000003f0: 1387 5e3d b94b a0ba d718 933d c04b e23c

lstm.weight_hh_l1 f4 [512, 128]
-0.0271081 -0.0035160955 -0.032244768 0.05158491 0.064256586 0.082379445 -0.0047784126 -0.007272972
0.0085636955 0.0054573407 -0.0089167515 -0.0128351655 0.05100754 0.02606956 0.04133674 0.032421745
0.013135013 0.038476083 -0.019757586 0.00803677 0.011450065 -0.09011983 0.03262284 -0.01758689
0.002872714 0.09299038 0.07223469 0.020745413 -0.0148654245 0.09672441 -0.0066616186 -0.028119879
0.037111416 -0.0039051007 -0.010023473 0.011647071 -0.02353452 0.042054232 -0.0626567 0.040537555
-0.106695354 0.0117670335 -0.0044455994 0.008971196 -0.007260156 -0.0039669224 -0.01354316 -0.031939067
0.10480202 -0.018274143 0.006049318 0.03969994 -0.00022684083 0.021078503 0.040278766 0.0049900673
0.029551664 0.11109674 0.026114743 -0.018597117 0.113008246 0.01562973 -0.013496308 0.0323648
-0.10955318 -0.006234586 -0.008895726 -0.07582382 0.029920455 0.00029378547 -0.030234393 0.011017256
-0.07768262 -0.011083714 -0.0045431214 -0.0051154946 0.07521119 -0.004273372 0.039844606 0.09744146
-0.08904559 -0.04918349 0.011954656 -0.0045309425 0.0041829976 0.0039963755 0.006788393 -0.04670953
-0.011452222 -0.024652768 -0.021848818 0.025976028 -0.040832926 0.012868758 -0.05948671 0.01352359
-0.006108557 -0.015751114 -0.06988331 -0.0014678233 -0.09254773 -0.030333608 0.030109543 -0.030961243
-0.007391754 0.01836156 -0.0026777496 -0.008667517 -0.06980058 -0.017006246 0.05373789 0.013413593
0.025893059 0.03936402 -0.05098671 -0.0154070975 -0.10804604 0.021679193 -0.02836103 -0.045769375
0.013386587 0.032097716 -0.04051835 0.007355607 -0.008486703 -0.021279246 -0.011428333 0.07492619
-0.006331424 0.009441057 -0.0071898536 0.020560348 0.075625755 0.009338916 0.005994352 -0.0021268756
-0.032673627 0.009925184 0.0023634366 0.0064167385 0.019003056 0.015747279 0.009669659 0.014695397
-0.0033236751 0.004205542 0.009127774 -0.005702221 -0.007724808 -0.093980104 0.014488409 0.0054585487
0.010407718 0.09444404 0.054554857 -0.005273518 -0.0023954033 0.086111166 0.0003287092 0.002176217
0.019119283 0.009489564 0.008266733 0.023974368 -0.0034053447 0.037939306 -0.112239875 0.007941509
0.08886577 -0.013598713 0.010344066 -0.0020825912 0.003916084 -0.0014915074 0.014504069 -0.007384213
0.051138684 -0.015753144 -0.0053617395 0.0430056 -0.0009694863 0.0060134055 0.0027611477 0.02296267
-0.00073967036 0.05932235 0.0011801989 -0.0013498347 0.066810854 -0.00030738732 -0.026507769 0.037003532
-0.08407584 -0.001227095 -0.009109292 0.014339498 -0.004519348 0.008002931 -0.0112551395 0.0018359977
-0.03812323 0.005331009 0.008259926 0.0062091765 0.044961 -0.005444135 0.009936073 0.028977975
-0.0710117 -0.05472522 -0.005656613 0.00985018 0.007732139 0.0016234576 -0.012405113 -0.0077507584
-0.030673817 0.021823898 -0.027888365 0.018013507 -0.018547906 -0.010577395 -0.05454046 -0.009371594
-0.00811952 0.010196176 -0.0006368486 0.00899963 0.0086481655 -0.02539566 0.009247773 -0.007460721
0.0063715363 0.019883636 0.004711754 -0.015552451 -0.0075981473 -0.014266251 0.07635559 -0.0006417369
0.011551955 0.027646165 -0.0321412 0.0054266145 0.021264818 0.01572761 -0.022688394 -0.011166798
-0.0085026 0.013412295 -0.019696983 0.016480858 0.005805639 -0.022755792 0.01785761 0.11734145
00000000: ce11 debc 4b6e 66bb 1713 04bd b34a 533d
00000010: f598 833d 8eb6 a83d 3b94 9cbb 1c52 eebb
00000020: be4e 0c3c 7ed3 b23b 9117 12bc 964a 52bc
00000030: 48ed 503d d48f d53c b750 293d aacc 043d
00000040: 3d34 573c 1999 1d3d a9da a1bc a8ac 033c
00000050: 0e99 3b3c bf90 b8bd 879f 053d 6212 90bc
00000060: 2544 3c3b be71 be3d c8ef 933d 49f2 a93c
00000070: 1c8e 73bc 7317 c63d b549 dabb a95b e6bc
00000080: 2402 183d b8ec 7fbb 7e39 24bc 5bd3 3e3c
00000090: 77cb c0bc 0f41 2c3d 2852 80bd b50a 263d
000000a0: 1883 dabd 84ca 403c 64ac 91bb ecfb 123c
000000b0: 9ae6 edbb f5fc 81bb 21e4 5dbc 8ad2 02bd
000000c0: 71a2 d63d a8b3 95bc 5b39 c63b 679c 223d
000000d0: 1fdc 6db9 d3ac ac3c 59fb 243d b883 a33b
000000e0: 5516 f23c b086 e33d 96ee d53c fb58 98bc
000000f0: de70 e73d eb09 803c 9e1f 5dbc f490 043d
00000100: 6b5d e0bd 7f4b ccbb 61bf 11bc 8549 9bbd
00000110: be1b f53c 3807 9a39 1eae f7bc b981 343c
00000120: 1118 9fbd 7798 35bc 77de 94bb e19f a7bb
00000130: 5308 9a3d a407 8cbb 1934 233d 638f c73d
00000140: 895d b6bd a174 49bd 76dd 433c 4d78 94bb
00000150: 8711 893b 07f4 823b 2b71 de3b 7e52 3fbd
00000160: 1aa2 3bbc 9af4 c9bc 4bfc b2bc aecb d43c
00000170: 6d40 27bd 7cd7 523c 56a8 73bd 0c92 5d3c
00000180: 4a2a c8bb 7b08 81bc fb1e 8fbd fa63 c0ba
00000190: aa89 bdbd 307e f8bc 4aa8 f63c 6fa2 fdbc
000001a0: 8736 f2bb fb6a 963c 2f7d 2fbb 3402 0ebc
000001b0: 9bf3 8ebd af50 8bbc 431c 5c3d b0c4 5b3c
000001c0: ae1d d43c 2b3c 213d 71d7 50bd 0d6e 7cbc
000001d0: 3e47 ddbd 9098 b13c 6455 e8bc ab78 3bbd
000001e0: 6a53 5b3c e578 033d 92f6 25bd 4e07 f13b
000001f0: d00b 0bbc d051 aebc e73d 3bbc e772 993d
00000200: d677 cfbb aaae 1a3c dd98 ebbb 2d6e a83c
00000210: ade1 9a3d 4102 193c 456c c43b 0d63 0bbb
00000220: c8d4 05bd 3d9d 223c e3e3 1a3b 8143 d23b
00000230: 4cac 9b3c 7000 813c 7d6d 1e3c f6c4 703c
00000240: 04d2 59bb a5ce 893b a98c 153c b2d9 babb
00000250: 6320 fdbb a478 c0bd cb60 6d3c a0dd b23b
00000260: 2285 2a3c e06b c13d ea74 5f3d 7acd acbb
00000270: 33fc 1cbb 0d5b b03d 9a56 ac39 dd9e 0e3b
00000280: 0ba0 9c3c 1e7a 1b3c 3171 073c e565 c43c
00000290: 342c 5fbb 3f66 1b3d 05de e5bd 1a1d 023c
000002a0: 42ff b53d 23cd 5ebc 287a 293c 157c 08bb
000002b0: 7e52 803b af7e c3ba 7aa2 6d3c 45f7 f1bb
000002c0: cc76 513d bd0c 81bc 88b1 afbb a426 303d
000002d0: 2025 7eba 1a0c c53b 5ff4 343b 361c bc3c
000002e0: 70e6 41ba fefb 723d e7b0 9a3a f0ec b0ba
000002f0: 21d4 883d d428 a1b9 d226 d9bc 0491 173d
00000300: f42f acbd 7ad6 a0ba 243f 15bc 37f0 6a3c
00000310: 0a17 94bb ba1e 033c 7a67 38bc dca5 f03a
00000320: 1b27 1cbd bfaf ae3b a454 073c 5976 cb3b
00000330: 0729 383d b764 b2bb e9ca 223c 3863 ed3c
00000340: 956e 91bd 8d27 60bd 1c5b b9bb a662 213c
00000350: e25d fd3b 33ca d43a d13e 4bbc 13fa fdbb
00000360: a847 fbbc 08c8 b23c 2476 e4bc 1091 933c
00000370: c7f1 97bc cf4c 2dbc d165 5fbd 508b 19bc
00000380: bc07 05bc dd0d 273c 30f2 26ba 2f73 133c
00000390: 09b1 0d3c 8f0a d0bc f983 173c 1079 f4bb
000003a0: 52c8 d03b 02e3 a23c 0f65 9a3b b5cf 7ebc
000003b0: e1f9 f8bb febc 69bc 5260 9c3d 3c3a 28ba
000003c0: 6944 3d3c 367a e23c 7ea6 03bd bed1 b13b
000003d0: 8e33 ae3c 30d7 803c 03dd b9bc f2f4 36bc
000003e0: 7d4e 0bbc 3ebf 5b3c 915b a1bc dd02 873c
000003f0: 3b3d be3b 5b6a babc 1f4a 923c b750 f03d
