lstm_emb64_h128_l2_lr1e-03_bs64_e2.pt (torch, 938009 bytes, 12 tensors)

embedding.weight f4 [26, 64]
00000000: 0000 0000 0000 0000 0000 0000 0000 0000
00000010: 0000 0000 0000 0000 0000 0000 0000 0000
00000020: 0000 0000 0000 0000 0000 0000 0000 0000
00000030: 0000 0000 0000 0000 0000 0000 0000 0000
00000040: 0000 0000 0000 0000 0000 0000 0000 0000
00000050: 0000 0000 0000 0000 0000 0000 0000 0000
00000060: 0000 0000 0000 0000 0000 0000 0000 0000
00000070: 0000 0000 0000 0000 0000 0000 0000 0000
00000080: 0000 0000 0000 0000 0000 0000 0000 0000
00000090: 0000 0000 0000 0000 0000 0000 0000 0000
000000a0: 0000 0000 0000 0000 0000 0000 0000 0000
000000b0: 0000 0000 0000 0000 0000 0000 0000 0000
000000c0: 0000 0000 0000 0000 0000 0000 0000 0000
000000d0: 0000 0000 0000 0000 0000 0000 0000 0000
000000e0: 0000 0000 0000 0000 0000 0000 0000 0000
000000f0: 0000 0000 0000 0000 0000 0000 0000 0000
00000100: 3c5d a338 ffcb 7a3d e5e1 0500 1b05 afbc
00000110: f16b 153f 8739 0600 1ded 8731 5fd4 19ba
00000120: 8e9c 00b7 ac89 81bd e726 6ab9 3abe c53e
00000130: b191 9aa7 bc2c 40bf 3e9d 0500 cecc 0822
00000140: fd7e 4437 79ef bf3e 64f7 e0bb dbb0 bcbe
00000150: b19a 0c38 717b 861a 292a 8030 f325 0bbf
00000160: 6acc 49b7 cbd8 4f3e 3b04 8134 60a2 683e
00000170: 63cd e53d 3325 2b80 e23c 0800 fa5e baba
00000180: 2832 2fbe 9a68 9f38 4390 4cb6 e536 0400
00000190: 50b2 ec3b bdea 06bc 4f88 683f 2f43 7407
000001a0: 81f4 47be 82f6 a43d 16a8 c9be 90f6 a03e
000001b0: 01ef 843a c42c 833a e5cc 12b9 cd94 63ab
000001c0: 8811 71b8 d460 1d38 adc9 b738 ea9b bf1f
000001d0: 0e57 71bd 4b64 733c 40c3 453c 921a 84bc
000001e0: 0c02 eebe a4d0 7b38 b216 1938 3b0e a8b5
000001f0: 69ad b42d 4dda 8b3c 99aa f53a 8ca9 6c3c
00000200: f465 7bbf 99d3 9ebf 429a 273f 24b4 3d3f
00000210: 02f8 6bbe a608 a1bf 5d51 b23f 2362 3abf
00000220: 2469 333f dc97 8ebe 6dc6 223b 53d9 0b40
00000230: 25fe 83bd 72b7 c03e 31eb bfbf 53dd 0a3f
00000240: c32b 63be b70c 83bf ab9f 5a3f cb60 55be
00000250: cd02 74bf 12b7 8b3f d720 a7be a9d7 c6be
00000260: 9ca1 a2bf 7b58 6dbd 0ef3 b7bf 2366 b53c
00000270: 5cd4 c9be ab33 be3f 1f1a f8bf 1805 b7bf
00000280: fa6a 8b3f 2406 323f 250b dd3f c891 fa3e
00000290: 0379 73be f376 a43f beec a93c 2195 e13f
000002a0: 6b28 043e 6626 fb3e b01a 8d3e d355 cb3e
000002b0: 95c8 0dbf b7fe 0b3f 917d 1c3f 8e83 0d3f
000002c0: 9a8c 1340 dbf4 ed3e 1707 c83e de13 5abf
000002d0: 3fbd 773f 2efa 85bf 9e7f e1bd 47e5 f23e
000002e0: 2e0e 823e 02d9 01bf 7959 a73e 8be0 553e
000002f0: 9ac3 59be 2c86 f63d 72da babf 82c0 41bf
00000300: 951f 413f 77df 85bf 9dde dfbe ab74 a5bf
00000310: 2583 86be ef02 53bf d671 54be 415f 3dbf
00000320: 8b90 46bf 70c5 463e 299d 623f c44a 8bbb
00000330: 6b50 54be cf45 b4bc 68f8 a6be e074 ab3d
00000340: 315f 113f 6863 573f 9755 02be 2e0c 1a3f
00000350: 427c 2c3f fc63 31be c1cf 693f 373b 883f
00000360: 706c 84bf 2b49 8a3e 5472 073e b1e7 0abf
00000370: ff94 cfbd fb69 c33f b3b8 423f e421 2f3f
00000380: 7418 d7be 5d10 d03e f061 0140 1ca3 3c3f
00000390: 8219 9a3f 0b8a d0bf a520 62bf 00cc 4dbf
000003a0: 21c8 4d3f 051b a8be 5b8e 763f 3e33 01bd
000003b0: 9543 4bbf ed12 04bf d78f 433f bbab 97bf
000003c0: db47 e23e 89c8 813e 66b1 8bbf 24a3 cbbe
000003d0: 41aa 603f 91e9 e13c 3006 5b3e a138 b7be
000003e0: e47b 483f 4b6f 04bf 63e8 4cbd 5dd7 123c
000003f0: ee7f abbf f299 163f 03be c2be 26cb 48bf
0.0 0.0 0.0 0.0 0.0 0.0 0.0 0.0
0.0 0.0 0.0 0.0 0.0 0.0 0.0 0.0
0.0 0.0 0.0 0.0 0.0 0.0 0.0 0.0
0.0 0.0 0.0 0.0 0.0 0.0 0.0 0.0
0.0 0.0 0.0 0.0 0.0 0.0 0.0 0.0
0.0 0.0 0.0 0.0 0.0 0.0 0.0 0.0
0.0 0.0 0.0 0.0 0.0 0.0 0.0 0.0
0.0 0.0 0.0 0.0 0.0 0.0 0.0 0.0
7.789812e-05 0.061229702 5.40213e-40 -0.02136474 0.5836783 5.7165e-40 3.9559738e-09 -0.00058681326
-7.665845e-06 -0.06325087 -0.00022330471 0.38621694 -4.2901545e-15 -0.7506826 5.15585e-40 1.853986e-18
1.1712077e-05 0.3748739 -0.0068654288 -0.3685368 3.352267e-05 5.562053e-23 9.325208e-10 -0.5435478
-1.20281275e-05 0.20297544 2.40312e-07 0.22718191 0.11220815 -3.962271e-39 7.56525e-40 -0.0014218979
-0.17108977 7.6011944e-05 -3.048234e-06 3.87034e-40 0.007223405 -0.008234677 0.9083299 1.8376263e-34
-0.19526865 0.0805483 -0.39386052 0.31438112 0.001014203 0.0010007848 -0.00013999974 -8.0853103e-13
-5.7475205e-05 3.7521895e-05 8.763685e-05 8.1149585e-20 -0.058920912 0.014855455 0.012070477 -0.016125951
-0.46485937 6.0037375e-05 3.649918e-05 -1.2521117e-06 2.054064e-11 0.017071867 0.0018742859 0.01444472
-0.98202443 -1.2408324 0.65469754 0.74103 -0.23043826 -1.2580764 1.393108 -0.72805995
0.70082307 -0.27850235 0.002483751 2.1851394 -0.064449586 0.37639958 -1.499365 0.54243964
-0.22184663 -1.0238255 0.85399884 -0.20837705 -0.95316774 1.0915244 -0.32642242 -0.3883641
-1.2705569 -0.05794571 -1.437105 0.02214343 -0.3941983 1.4859518 -1.9382972 -1.429843
1.0892022 0.6954062 1.7269026 0.48939347 -0.23776631 1.28488 0.02074277 1.7623636
0.12906043 0.49052733 0.27559423 0.39713916 -0.5538419 0.5468554 0.611291 0.5527886
2.3054566 0.46475872 0.3906791 -0.85186565 0.9677314 -1.0466974 -0.11010669 0.4744055
0.25401443 -0.5072175 0.3268545 0.20886438 -0.21266022 0.1203731 -1.4597914 -0.7568437
0.75438815 -1.0458821 -0.43724528 -1.2926229 -0.2627193 -0.8242635 -0.2074655 -0.7397347
-0.77564305 0.19411254 0.8852106 -0.004250856 -0.20733802 -0.022005944 -0.32611394 0.083719015
0.56785876 0.84136057 -0.12727962 0.60174835 0.673771 -0.17323297 0.9133263 1.0643071
-1.0345592 0.27008948 0.13227206 -0.54259783 -0.101358406 1.5266718 0.7606308 0.6841109
-0.42010844 0.40637484 2.0216026 0.73686385 1.2039034 -1.6292127 -0.8833106 -0.80389404
0.803835 -0.32833114 0.9631097 -0.03154301 -0.79399997 -0.5159138 0.7639136 -1.1849283
0.44195446 0.2534831 -1.0913513 -0.39772904 0.87759787 0.027577193 0.21389079 -0.35785392
0.7831404 -0.5173232 -0.05002631 0.008962479 -1.3398416 0.5882865 -0.38035592 -0.7843498

lstm.weight_ih_l0 f4 [512, 64]
00000000: 4e72 603d 403d 893c f783 1cbd 5774 ac3d
00000010: 9afe eabd fe53 9bbc 7885 a9bc c628 c5bd
00000020: d116 933d 7a36 553d 8a5c a5bc 5aa0 483d
00000030: 5c33 b4bd 0558 6bbc 56d4 acbd cf44 5fbd
00000040: 8b80 493d 2e09 393d 39ba 503d 3160 2d3d
00000050: 081f 093d e274 e43a ee6a 4cbd 3d6e 463d
00000060: 52fe f7bc 236a 5cb9 aa4b 98bd cfda c0bd
00000070: a3ec c8bc ba28 bd3d b95c 883d 78e4 8dbc
00000080: 95f2 bebc 45ee bbbc a7c6 4dbc c777 8fbd
00000090: d4a2 ffbb b673 863d e4c1 063d f9dd 43bd
000000a0: 56bf 0bbc bd11 21bd 9270 cb3b ac92 a5bb
000000b0: 48f4 67bd 92c1 c93b 6f56 a7bc eeb6 8a3d
000000c0: 069b ce3c 5665 013d f1c5 b43c ec43 8c3d
000000d0: 6340 c1bc b650 1abd 1228 b4bd d200 50bd
000000e0: 7c40 ac3d 047e 9dbd 3704 31bd 644a 0d3d
000000f0: df1e c6bd d280 c03d 72b8 cbbc f187 b03d
00000100: 3bdd 39bd 18bd b7bd 6321 d23c f48e 40bd
00000110: ecfc a1bd 71a2 0ebd 1352 883d 3656 6ebd
00000120: 32a8 e3ba 8d1b f63d 4571 37bd 3419 01bd
00000130: 6f7a 0cbd 0aea 47bd 73c2 bbbb 154f 09bd
00000140: 9cfd 1b3d 3036 4fbd eb64 c6bc eff5 d4b9
00000150: a8a1 78bd 2b5d 34bc 5bd7 3dbd a186 743d
00000160: c6cf dcbd f0af 7fbd 3f09 62bd ffb3 953d
00000170: fd4e 5ebd 7df1 853d d110 c03b 8775 b83d
00000180: 5294 1ebd 0a8d 5ebd 4234 dbbc b56a 92bd
00000190: 81a4 7cbc e262 82bd 1c33 953c 2bef 09bd
000001a0: 4230 2ebd c54e 823d b7fc cfbd 3289 9f3d
000001b0: 4431 fab6 6b10 b43d a822 cf3d 9a62 f13a
000001c0: 9d57 2c3d bc4e 90bb a152 083d 438e bbbd
000001d0: d637 d13c 0207 103d d93b f1bb e7a0 24bd
000001e0: 0c82 a5bd ca44 bb3c 7f9d d2bd bf0f adbd
000001f0: 4316 fb3a 1ec9 dcba d24c 483d 7207 983d
00000200: 4983 343d 1fff 583d 9096 4cbd 4be2 60bd
00000210: e41d f8bb 37df f4bc 127e 123d 3bcd fe3c
00000220: 1c26 88bb 46ad 9a3d 6e39 98bc ee9c f7bb
00000230: afd3 96bc 3655 a4bc cce7 363c cb32 ce3c
00000240: ede1 cb3c b374 103d 18f5 4ebd 16d9 67bc
00000250: 58cd 69bb 0d68 10ba 367c e23a 16a3 80bd
00000260: 8dd0 0a3d 5713 443d 9e54 3d3d 7283 9a3c
00000270: 33f9 1ebd 0d6a 44bd a2cc 093d 2e1b e3bc
00000280: b692 ce3d 803c 133d 24ce 83ba d11f 323d
00000290: f1f2 a1bd 4864 63bd 7a7c 65bc 562f 1fbd
000002a0: 26af 1abc f6d2 f93c 6289 0a3d 871e 9dbd
000002b0: 8e40 6abc a2f6 ac3b 7400 3a3d 90f7 88bd
000002c0: 60e7 b63c fd8f 1e3d b860 8b3d 6b57 89bd
000002d0: 49ad 0abd 18a0 47bd 5af8 36bd b3d0 563d
000002e0: cb81 e3bc 2268 9d3d ce62 8f3d 1d16 4cbd
000002f0: 062b 8bbc 0605 c5bc 5296 e93c e0ee 9bbd
00000300: 2bb2 483d 85b7 6a3d 97f5 1d3d 6dac 61bd
00000310: 21ad 38bd c5a6 c33d 9552 1a3c 3436 d03c
00000320: f71d 7e3d 654e 41bc eadd e23c 107d 8c3c
00000330: 3514 8cbc f1f3 ac3c 4029 cc3d 84e5 923c
00000340: 079a 9a3d ba21 153d d1dc c8bc b70e 25bd
00000350: 39d0 66bb 1862 7e3c 2456 933c fc23 29bd
00000360: 01d3 363d f35f bf3d f353 ec3d 1ed4 723b
00000370: d917 203c 5890 193c 8850 9abc f160 8f3d
00000380: 8c1e b4bc 0583 afbc 79ec 95bd bec9 13bd
00000390: 8fc1 7dbd c083 b6bd 0a56 8c3c bbdf 963c
000003a0: 6783 3dbc 5863 96bc 9b92 20bd 050a 623c
000003b0: 3e1f af3b d70e a4bd a02c c5bd 91cb afbd
000003c0: 0e3f f1bc 16a4 993d cfe4 a23b 560c 16bb
000003d0: b2b5 dabd 4a6f 1d3d f7cf c63c 445b cdbd
000003e0: 2bc8 9fbd 8513 ad3c 2483 e63c 144a 96bd
000003f0: 0d02 12bd 9091 8fbd f492 8f3d 2fd1 933c
0.05479651 0.01675284 -0.03821179 0.084206276 -0.11474343 -0.018960949 -0.020693526 -0.096269175
0.07182086 0.052053906 -0.020185728 0.04898105 -0.087988585 -0.014364247 -0.08438937 -0.05450898
0.049194854 0.04517477 0.050958846 0.042328063 0.03347686 0.0017429853 -0.049906664 0.048444975
-0.030272637 -0.00021020374 -0.07436307 -0.094167344 -0.0245269 0.092362836 0.066583104 -0.017320856
-0.023309032 -0.022940764 -0.012559569 -0.070052676 -0.007801393 0.06565039 0.032899752 -0.04781911
-0.008529505 -0.039323557 0.006208488 -0.005052885 -0.05662945 0.0061571086 -0.020426957 0.06773172
0.025220405 0.031590782 0.022067042 0.068488926 -0.023590272 -0.03767463 -0.08796705 -0.050782032
0.08410737 -0.07690051 -0.04321691 0.034494773 -0.09673857 0.093995705 -0.024868224 0.08619679
-0.045376997 -0.08971614 0.025650686 -0.04701133 -0.07909569 -0.034822885 0.066562794 -0.058187686
-0.0017368852 0.12016974 -0.044785757 -0.031518176 -0.03429645 -0.04880718 -0.0057299673 -0.033522684
0.038083658 -0.050588787 -0.024218043 -0.00040619026 -0.060701042 -0.011008541 -0.046347957 0.059698705
-0.10781817 -0.062423646 -0.0551846 0.07309722 -0.054274548 0.06540201 0.0058613797 0.090067916
-0.038715668 -0.054333724 -0.026758317 -0.07149259 -0.01542008 -0.06366517 0.018212847 -0.033675354
-0.04252649 0.0636268 -0.101556234 0.0778984 -7.456316e-06 0.08792194 0.10114032 0.0018416226
0.042075742 -0.004403917 0.033281926 -0.09157994 0.02553932 0.035162933 -0.0073618707 -0.04019251
-0.08081445 0.02285995 -0.10283946 -0.08450269 0.0019156415 -0.0016844606 0.048901387 0.07423295
0.044070516 0.052977677 -0.049948275 -0.05490331 -0.0075719226 -0.029891593 0.03576476 0.03110372
-0.0041549336 0.075525805 -0.018582072 -0.0075565493 -0.018411485 -0.020060163 0.011163663 0.025170704
0.024888003 0.035267543 -0.05052671 -0.014150878 -0.0035675373 -0.0005508669 0.0017279449 -0.06281106
0.033890296 0.047870006 0.046223275 0.018861506 -0.038811874 -0.0479527 0.03364242 -0.027722921
0.10086577 0.03594637 -0.0010055942 0.043487374 -0.079076655 -0.055515558 -0.014006728 -0.038863502
-0.009441173 0.030496102 0.033822425 -0.07671838 -0.014297618 0.0052784244 0.04541059 -0.06687844
0.022327125 0.038711537 0.06805557 -0.06706127 -0.033856664 -0.04873666 -0.04467044 0.052445125
-0.027771851 0.076858774 0.070012674 -0.049825776 -0.016988289 -0.024050247 0.028514061 -0.07613921
0.04899804 0.057303924 0.03856429 -0.05509608 -0.045086984 0.09553293 0.009419103 0.025416471
0.062040295 -0.011798476 0.027693707 0.017149478 -0.01709948 0.021112414 0.09968805 0.017931707
0.0754891 0.036409117 -0.024519356 -0.040297236 -0.0035219325 0.015526317 0.017985411 -0.041294083
0.044634823 0.09344473 0.115394495 0.0037052701 0.009771311 0.009372793 -0.018837228 0.07000912
-0.021987222 -0.02142478 -0.07320494 -0.03608107 -0.06195217 -0.08911848 0.01713087 0.01841723
-0.011566973 -0.018357918 -0.039202314 0.013796334 0.0053443005 -0.08010643 -0.09627652 -0.08583749
-0.029449012 0.07502 0.0049711238 -0.0022895536 -0.10679187 0.03843621 0.024269087 -0.10027173
-0.07801851 0.021127472 0.028138705 -0.07338348 -0.035646487 -0.07010186 0.07010451 0.018044082

lstm.weight_hh_l0 f4 [512, 128]
00000000: 59dc f6bb 5a6b 3fbd 1540 3abd fd70 e1bb
00000010: c981 d43c db9b 85bd 161b c93d 4c8d b5bd
00000020: a977 08bd 9390 b0bd c485 8f3d c1b4 cdbc
00000030: 4f9b 0dbb bdf3 1b3d 1e46 ba3c 6bba 2dbc
00000040: 6465 afbc e4d0 8d3d b898 b93c 5add 6b3d
00000050: 844d 5abd d5ec 84bb 0708 22bd 10e2 d3bd
00000060: 625c e8bb 9d8b b63d d71b d1bc 3dd1 80bd
00000070: a5a8 bc3c a487 a13d 4f18 7bbd 208c 1c3d
00000080: 7dc1 abbd 89bd 2cbb 9179 ef3c 587e c2bd
00000090: 6e13 133d 31bd 1bbd 5c28 b63d da60 1fbd
000000a0: 78e1 583d b9fb 54bc 7cc2 26bd 68f4 09bb
000000b0: 12b2 6a3c 2b3a 2d3d 58b6 ddbc 6ed8 3abd
000000c0: 9bc1 153c d6a5 79bd 26da e9ba 08b4 9c3c
000000d0: c35b 5c3d ae2b 5ebd 689a a8bd 2667 debc
000000e0: e59e b5bd 141b c6bd b731 55bc 75e3 4d3d
000000f0: 5394 f6bc 5a49 8abd 7371 0dbd da38 803d
00000100: ddd4 4a3d e14a 923c 680f 1abd 4a9e 8d3c
00000110: e825 103d 3216 383d 696a 06bd d1b1 723c
00000120: 0db1 80bc 9736 82bb fd68 903d c05e f13c
00000130: 1d5d cd3d a530 29bd e178 8b3c ac64 24bd
00000140: ed1a ccbc 887d 9cbd d9d4 44bd c3c7 a0bc
00000150: e6d9 54bd bcfb 5c3d 11ca 82bd 3f3a d33c
00000160: 330f 2ebc effd cc3b b2d6 e33c 5ee0 893c
00000170: 3f59 23bc c3e2 4e3c d2cc e439 f5be bcbd
00000180: 3342 12bd dcb0 7abc 3336 083c f0f3 aabd
00000190: b6ac 8f3c 9702 ce3a 59c3 b2bc bda6 393c
000001a0: 9084 9fbb 4e48 3cbc 8fc0 abbd 6392 5d3d
000001b0: 3ca3 603b 895e 1f3d 0072 683b 8843 363c
000001c0: f180 0bbc d055 f0bc 8015 283d 2fe1 3f3c
000001d0: fcf8 0bbd 8410 cbbc 8c22 c63c 7bef a83d
000001e0: 2a02 9bbc b4c6 3a3c 80a9 04bd 6b3f 5b3d
000001f0: 3554 b93a 594d dcbc b8d4 71bc 0b08 40bd
00000200: e01b 9c3c 17c8 573d 0b94 18bd e78f 913c
00000210: 876f 233c 4bd3 753d 67f4 bebc 4bd1 293d
00000220: 7355 213c 7845 893c b00b e13b 2b38 15bd
00000230: 52cb 253d 2220 fb3c 3b18 13bc dbf3 8dbd
00000240: 0a88 0abd 620f bd3c 892c 843d e669 743c
00000250: d136 afbc 0967 76bc e274 523c 593a 8abc
00000260: a675 763b 4720 a3bc 8cab e83c 29a0 51bd
00000270: ff1f abbc 5c76 debc e7e0 34bd 0c54 92bd
00000280: d17a 3a3c d3d3 94bd a441 223d 1e47 42bd
00000290: 0fa1 453d ef6a 4a3d bcb9 f7bc 2c87 35bd
000002a0: d51f 483d b0fe 833d 53f5 ed39 99cd 883c
000002b0: a9c4 f0bc a21c 3ebd 8854 953d b9ef 9f3a
000002c0: b2b0 53bd daa5 c33c 51a7 8e3d 600a 8d3a
000002d0: 809d 0dbd 225c d03a f533 07bd 1c5d 203a
000002e0: 53d4 0ebd 26e2 8b3b c843 fe3c 2391 093d
000002f0: 1ffe 023d b111 7e3d 449d b43c 3b85 b93c
00000300: dcf3 073d b2df a7bc 62b4 a5bc 7d72 2abd
00000310: 61c5 1a3d 35da 40bc 9126 9dbc e7c3 38bd
00000320: f220 473b ea0a 143d c1f6 ac3a 24e6 243b
00000330: 9dc4 2b3d ffd6 af3b a403 493c 0b4f 443d
00000340: 0868 a1bc fc51 6dbc 88e2 74bc 2328 0abd
00000350: 61c3 1a3d 4cbc c4bc 5501 293d eaed 84bc
00000360: 7493 50bd 7af4 1e3c 9f40 62bd 1d94 c7bc
00000370: 3b79 b33c ea1b 37bc 3daf 943c 4a68 3c3d
00000380: 94fd 903c 5267 6e3d 46f4 10bd c66d 84bd
00000390: eb7f 3e3d decc b5bc 0363 48bd 24d1 403b
000003a0: dcba 813d 7c66 0abd 8318 c4bc 2ac5 f53c
000003b0: f0dd 353d 7b69 36bd 1e69 0f3d cdbc ecbb
000003c0: 7fda 5d3d 7944 69bd 78bc 153d eca2 0b3d
000003d0: 5e46 82bd 2467 573d 70c6 613c 403d 14bd
000003e0: 2290 843c 5a9f 0cbc 362b 77bd 7648 e63c
000003f0: 77c8 80bc f8a1 083c 98b3 02bd 41ec 7e3c
-0.0075335917 -0.046733238 -0.04547127 -0.0068799243 0.025940793 -0.06523868 0.09819619 -0.08864841
-0.03331724 -0.08621325 0.07007936 -0.025110604 -0.0021607464 0.038074244 0.022738513 -0.010603528
-0.021410652 0.06924608 0.02265583 0.057584144 -0.05329658 -0.004056553 -0.039558437 -0.103458524
-0.007091091 0.08913348 -0.02552597 -0.06289909 0.023029635 0.078871995 -0.06130248 0.03821957
-0.08386514 -0.002635809 0.029232772 -0.094967544 0.0359072 -0.038022224 0.08894417 -0.038910724
0.0529494 -0.0129994685 -0.04071282 -0.0021050218 0.014324682 0.0422918 -0.027064487 -0.04561656
0.009140397 -0.06094917 -0.0017841503 0.019128814 0.05379845 -0.054240875 -0.08232576 -0.027148794
-0.08868197 -0.096731335 -0.013012341 0.050265748 -0.030100023 -0.06752272 -0.03453202 0.062608436
0.04951941 0.01785797 -0.03761235 0.017287392 0.0351924 0.044943042 -0.032816324 0.014812903
-0.015709424 -0.003973793 0.07051275 0.029464126 0.100275256 -0.041306157 0.017025413 -0.04013507
-0.024915183 -0.07641131 -0.04805455 -0.019626504 -0.051965617 0.05395101 -0.06386197 0.02578461
-0.010623741 0.006255857 0.027812336 0.01683062 -0.009970008 0.012627306 0.00043640152 -0.0921611
-0.035707664 -0.015300956 0.008313703 -0.08347309 0.01753841 0.0015717325 -0.021821665 0.011331257
-0.0048680976 -0.011491848 -0.08386337 0.054094683 0.0034276983 0.038908515 0.003546834 0.011124499
-0.008514629 -0.029337794 0.04103613 0.011711403 -0.034172997 -0.024788149 0.024186395 0.08248802
-0.01892193 0.011399914 -0.03238821 0.053527277 0.0014139476 -0.026892351 -0.014760189 -0.04688267
0.01905626 0.052681055 -0.03725056 0.017768813 0.009975321 0.060015958 -0.0233099 0.041459363
0.009847033 0.016756758 0.0068678483 -0.03643052 0.040477104 0.03065497 -0.008977945 -0.06931277
-0.033821143 0.023078624 0.06453807 0.014917826 -0.021388443 -0.015039214 0.01284525 -0.016873525
0.0037606745 -0.019912852 0.028402112 -0.05117813 -0.02088928 -0.027156048 -0.044159796 -0.07144937
0.011381821 -0.07266965 0.03961338 -0.047431104 0.0482493 0.049418386 -0.030239932 -0.044318363
0.048858482 0.06445062 0.00045386943 0.0166996 -0.02939065 -0.046414025 0.07291514 0.001220218
-0.05168218 0.023882795 0.06965507 0.0010760538 -0.03457403 0.0015896598 -0.033008534 0.000611739
-0.034870457 0.0042689024 0.03103818 0.03358568 0.03198063 0.06202859 0.022047646 0.022646537
0.033191547 -0.020492408 -0.020227615 -0.04161309 0.03778589 -0.011770775 -0.019183429 -0.045108702
0.0030384627 0.03614322 0.0013196097 0.0025161589 0.041935552 0.0053662057 0.012268934 0.047926944
-0.019702926 -0.014484879 -0.014946587 -0.033729684 0.037783984 -0.024015568 0.041261036 -0.016226728
-0.050921872 0.009701842 -0.05523741 -0.024362618 0.021908393 -0.011176089 0.018149966 0.045997895
0.01769904 0.058204003 -0.035389207 -0.0646625 0.04650871 -0.022192415 -0.04892255 0.0029421533
0.06334469 -0.033789143 -0.02393747 0.030001242 0.04440111 -0.044534188 0.035012357 -0.0072246552
0.054163452 -0.056950066 0.03655669 0.03409092 -0.06361078 0.052588597 0.013780221 -0.036191225
0.01618201 -0.008582914 -0.060343944 0.028110724 -0.01572059 0.008339398 -0.031909555 0.015559257

lstm.bias_ih_l0 f4 [512]
00000000: 216f b4bd 4ed5 8c3b a7ec af3c 049a 933d
00000010: 0cde 88bd 14dc 013d 6e37 32bd 8c40 c3bc
00000020: 6271 3fbd 8b56 fbbc c164 ebbd 2041 a2bd
00000030: 40d5 3fbd 0576 b4bd 9f3b 703d 7400 6cbd
00000040: 0ba8 b6bc c0ee 83bc f2b0 843c 2ad0 a8bd
00000050: 60f6 7b3d 415a b8bd b4ac c43d 3eef 2b3d
00000060: a460 d6bd a230 86bd 5b8b 0e3c a8de 5b3d
00000070: 2059 d7bc 2ded 983c 00ff 903d 61fc ff3c
00000080: 7be8 683d 148d 7d3d f091 a5bc 8c40 a7bb
00000090: b193 2d3d 4d51 653c 7849 683d b25a d63c
000000a0: 5c96 59bd 8aee 843c 726a 7bbd 4df5 623d
000000b0: 2dba e93c 495d 763d 94b2 383b 6764 b6bc
000000c0: e523 bebd ddf9 65bb e68c ccbd d1ce adbd
000000d0: 96fb 84bd 2f01 5cbd 2e2e b3bd 4b6b d5bd
000000e0: c996 9fbd d9ec b4bd 60b7 753d e21f 95bd
000000f0: 0be2 dfbc 8292 94bd 9018 903d 41fb 253d
00000100: 4348 6dbd b519 a53c 057f 783d 2d3e cbbd
00000110: cf3b f4bc ddea 8abd 3901 71bc 26e7 2cbc
00000120: 7feb 523d 4793 51bb 6165 8d3d e005 a5bd
00000130: 6550 053d da41 44bd b822 fe3b e716 66bd
00000140: 5e30 d4bb b18a 9cbd 125f bbbd 4f6b 9ebd
00000150: 57b2 0ebd 72bc 853d 3fbb 623d 480f 0c3c
00000160: 4346 9fbd 5d8f 8dbb 120a 273c 8694 04bd
00000170: 6e90 c6bd ee3a 15bd 8e0c 6cbc 9c7b 893c
00000180: 0fa8 513c 8f60 6d3c b67a dabd bcdc 083c
00000190: 2aa4 a73a 4a80 97bd b161 13bd 5f30 43bd
000001a0: d816 a53c bb1d 6f3b 63f2 9abc 136b bcbc
000001b0: e242 9bba 85cb 88bd 41d4 043d b841 d3bd
000001c0: c04a 413d 3aa3 a5bd 87e1 b13c 2e01 c0bd
000001d0: 9ceb 2b3d c7c7 8c3c c78a 79bc be61 23bc
000001e0: b869 08bc 6787 19bd 5279 ae3c fec3 90bd
000001f0: e575 3d3d 6f8d 8ebd 08d9 83bd 0ae9 123d
00000200: 3be2 16bd e8d7 663d 5dc7 a9bd a2e7 d8bc
00000210: 86d8 9dbd 4374 a83c b002 983d 99c7 af3d
00000220: 2312 4abd bdf5 993d a17f 603c 9f20 89bd
00000230: c2e3 acbc 4001 b9bd b054 91bd a3ab 8bbc
00000240: b6ef 533d cd1d 57bd 7677 cebb 4fcd 5ebd
00000250: 9694 4c3d ba0f 2cbd b8ee 173e 10ca 763d
00000260: 1c94 bebd 88ae 8d3d 54b9 4cbd d365 6cbd
00000270: ad8d 083d 13a2 2fbc a843 b3bb f3e8 bc3c
00000280: e5dc cb3c 6d8b fb3d f66f 8e3d db16 a73d
00000290: bda8 053d 7ede e83a e5ce 9b3c 94be 9a3d
000002a0: 2277 84bd f135 963d ea26 f7bc 1701 7fbc
000002b0: 1f1a f53b 5cf5 98bc 8c3e 69bd 757f 91bd
000002c0: 111f 13bd e165 7eba c8a7 873d 8177 02bd
000002d0: daf1 3ebd 5748 afbc b59c e1bc 4fe1 c1bd
000002e0: c028 4fbd 5ca6 243d a3ca 41bd d368 35bd
000002f0: 2b24 27bd 2d54 a1bb 115a 0cbd 10e0 2d3d
00000300: 4b1f 863c 2617 b23c 0ffa 833d 2ff2 05bc
00000310: b63f 48bd 4958 97bd 8f9b d13b de4d 5fbc
00000320: 3496 6abc 6776 fe3c 349d bdbd 1238 203d
00000330: 62e4 e53d ef47 8bbd addd bcbd 74bf 553b
00000340: 3d77 91bd 0550 b73d 785b 76bd 034e 18bd
00000350: 78b4 093d ef78 0abd 215c 8e3c c5cd 73bd
00000360: 7c81 2f3d 5bf5 60bd 9520 90bd 80c2 2dbd
00000370: 436b b1bd ef6d 05bd 2158 00bd 197c af3d
00000380: f370 92bd 4611 3c3d 4ec5 623d d3a2 0bbd
00000390: 609e 463b e371 91bd 068c 723d 3b03 323c
000003a0: 5fbb b83c 468f 64bd 389b 0c3b 9a74 f2bc
000003b0: ff58 f73c 13fc b8bd a188 64bd df93 453d
000003c0: 1998 04bd e84a 99bd 691b 763d d2b8 9cbd
000003d0: c044 243c 2cb2 5cbd 9b47 263d 7401 9f3c
000003e0: 9ccf 243d e3ea c03d 386f 2cbd d207 943b
000003f0: 4fb5 263e 974c 2c3c 4d0c 59bd a9aa 7e3d
-0.08810259 0.004297889 0.02147515 0.072071105 -0.06682977 0.031704023 -0.043509893 -0.02383449
-0.04673899 -0.030680915 -0.11493827 -0.07922578 -0.04683423 -0.08811573 0.05865061 -0.05761762
-0.022296926 -0.016105056 0.016197655 -0.08242829 0.06151426 -0.090015896 0.09603253 0.041976206
-0.104676515 -0.06552245 0.008700217 0.05367914 -0.026287615 0.018667782 0.070798874 0.031248273
0.056862336 0.06190212 -0.02021119 -0.00510413 0.042377178 0.013996434 0.05671069 0.026166294
-0.05312191 0.016227026 -0.06138081 0.05540972 0.028531158 0.060147557 0.0028182613 -0.022264672
-0.0928419 -0.0035091557 -0.09987812 -0.08486713 -0.06493299 -0.053712066 -0.087490425 -0.10420855
-0.07792432 -0.088342376 0.059989333 -0.07281472 -0.027329465 -0.07254507 0.07035935 0.040522818
-0.057930242 0.02015386 0.06066801 -0.099239685 -0.029813675 -0.06783078 -0.014709764 -0.010553157
0.051494118 -0.0031978653 0.06904102 -0.08057761 0.032547373 -0.047914363 0.0077556036 -0.056174185
-0.0064754924 -0.07643641 -0.091489926 -0.07735311 -0.034838047 0.06530084 0.055354353 0.008548565
-0.07777073 -0.0043200688 0.010195272 -0.032368205 -0.096955165 -0.036433153 -0.01440729 0.016782574
0.012796416 0.014488353 -0.106679365 0.008353408 0.0012790014 -0.07397516 -0.035981838 -0.047653552
0.020152494 0.0036486227 -0.018914407 -0.023000276 -0.0011845494 -0.06679443 0.032428984 -0.10315269
0.047190428 -0.080877736 0.021713985 -0.09375225 0.04197274 0.017185105 -0.015230841 -0.009972034
-0.008325987 -0.037482645 0.021298084 -0.070686325 0.04625501 -0.0696057 -0.0643788 0.035866775
-0.036836844 0.056358248 -0.08289979 -0.026477639 -0.07707314 0.02056325 0.074223876 0.08582992
-0.049333703 0.07517574 0.013702304 -0.06695675 -0.021104697 -0.090334415 -0.07096231 -0.017049616
0.051742278 -0.052518655 -0.006300862 -0.054395016 0.04994639 -0.042007186 0.14837158 0.060251296
-0.09305593 0.06918055 -0.04998143 -0.057714295 0.033338238 -0.010719794 -0.0054707117 0.023060298
0.024885604 0.12282453 0.069549486 0.08158656 0.032631624 0.0017766503 0.019019553 0.07555881
-0.06468035 0.07334507 -0.030169923 -0.015564225 0.0074799205 -0.018671684 -0.056944415 -0.071043886
-0.0359183 -0.0009704512 0.066237986 -0.03185225 -0.046617366 -0.021396799 -0.027540544 -0.09466802
-0.05057597 0.040197715 -0.04731239 -0.04428942 -0.040805977 -0.0049233646 -0.03426558 0.04245001
0.016372344 0.021739554 0.06444179 -0.008175417 -0.048888884 -0.07389886 0.006396718 -0.013629405
-0.014318038 0.031062318 -0.092585 0.039115973 0.11225201 -0.068008296 -0.09221969 0.0032615336
-0.07102821 0.089508094 -0.060145825 -0.037183773 0.033619374 -0.033806738 0.017377915 -0.05952241
0.042848095 -0.05492149 -0.070374645 -0.042421818 -0.08663037 -0.032575544 -0.031334046 0.085685916
-0.071504496 0.04591491 0.055363946 -0.03409083 0.0030306801 -0.071018 0.059215568 0.010865028
0.022550283 -0.0558007 0.0021454822 -0.029596616 0.030193804 -0.09032454 -0.055794362 0.048236724
-0.032371614 -0.0748499 0.060084734 -0.07652439 0.010026157 -0.053880855 0.040595632 0.019409873
0.040237054 0.09419801 -0.042098254 0.004517534 0.16280101 0.010516307 -0.052990247 0.062174473

lstm.bias_hh_l0 f4 [512]
00000000: 36d0 893c 4c57 43bd f152 c53c e55a ae3d
00000010: c799 f83c 2a58 c4bd e442 bfbd 1ce5 58bd
00000020: ce5c c3bb d31b 02bd 637f 7db9 8f53 423c
00000030: 0856 f5bd e456 babd bcbd 373c 823a 60bd
00000040: 0de5 c13c 77b3 09bd b525 d4bd cc4e 53bd
00000050: d4d2 84bd 3f73 2e3d 0b93 43bd 7664 c8bc
00000060: 877f 9ebc f7d8 e03c 1021 6d3d 5ef7 ccbd
00000070: a0d8 c1bd a2b2 c3b8 b205 f43c 4f23 bdbd
00000080: 0ef8 95bd adfe 6cbc cfb2 003d 786b 44bd
00000090: d0aa 7abd b90f 573d 4566 613d 8633 8cbd
000000a0: c586 73bd 5c94 36bd bfa4 26bd 1fbf 8bbb
000000b0: 4e82 74bd a89c 42bd e9c8 95bd 8e67 8d3c
000000c0: 1fb0 a5bb 31c0 04bc dd93 f63c 7382 77bd
000000d0: b7d3 60bd 1a4c 8b3c ab59 0d3d 60d1 6abc
000000e0: ccc2 073d 1fbb 5ebc 2987 b4bd 3039 83bd
000000f0: 179f 66bd 5156 803d 8015 3c3d db21 92bd
00000100: 340f b63a 6c13 7ebd 0de5 bebd e83b 5fbc
00000110: 5823 3b3d a7b5 8fbd ee1d 43bd b6f1 d63c
00000120: 0e23 12bd c82e 7abd 1f82 a7bd 93b1 74bd
00000130: e80d 013d 327f 813d 9bc4 a9bd ff5f 11bd
00000140: c531 ba3c 8fb9 aabd b0cb b2bd d87d 6dbd
00000150: 7b8a 47bd a5ef b8bd d1aa 69bd 47c5 b6bd
00000160: eae8 c6bb e68f 63bd f9b1 a33c d679 4ebd
00000170: 95fc ddbc c4f3 2c3d 1af1 733d 86d1 ebbb
00000180: 3b1f acbd 27b4 773d 1ad9 fdbd ef1a 7dbd
00000190: 1359 b5bd 5072 023c d074 26bd cb0e 2d3c
000001a0: 137f d6bd ccab d9bd faa1 97bb 6fd6 b5bb
000001b0: d1fb d2bd 10c0 bdbd df35 30bd ec36 373d
000001c0: 7000 8f3d b68f 64bd 3e4a e5bd b4e6 15bd
000001d0: 2cfa a13c c0bf ebbb 7647 213c e7b8 51bc
000001e0: 6bd8 dabc a7d0 7dbd 420e 40bc 18ce bd3b
000001f0: 0a15 153d 4661 113c 3c67 cb3c c6e1 c43c
00000200: ba96 323d 04ad 0e3c 866a 0ebc e40f 01bd
00000210: e377 94bd df2c ee3d 4e0b d23b c716 19bc
00000220: bf16 193d 00b5 41bd cff4 6bbd 7d0a 9cbd
00000230: f429 8b3b 5a3d 1d3d 3d63 623d 79ff e8bd
00000240: 5d47 c4bd 41ee 8b3d a23e 4c3b 1a43 033d
00000250: e04e 31bd da13 5abd 2261 8d3d 32a5 333d
00000260: 0d33 febc b5b6 973d e5d0 97bd eb99 163c
00000270: 9f6e 90bd 6bad 573c a52b c3bd ba9d 543d
00000280: 0579 8e3c a805 d8bb 584f ee3c bd60 943c
00000290: e12c 023c 1fcc 173d c10e 913b 592c 48bd
000002a0: 4879 14bd 76d5 1ebd df7d 55bd d79f e3bd
000002b0: 5b08 0b3d 26a7 99bd e0a9 633d 0896 0dbe
000002c0: fc2a ae3c dade c0bd 1c24 873d 85a7 0fbd
000002d0: 51d1 233c a775 973c f3fa 56bd 615e 66bd
000002e0: 5158 113c 517f 863c 446f 14bb 6656 15bd
000002f0: 82c5 393d 85e2 19bd 7a4a 97bd 3fc2 edbb
00000300: 61f2 053c cc2f 3ebd b85c 02bb fe8e 593d
00000310: e555 313d bc51 22bd 28af a43c fddf af3a
00000320: 76d2 683d 596f cdbd dba8 b5bd c7dc adbc
00000330: b273 50bd 5ce3 de3b 8ae9 5dbc 9cee bf3d
00000340: 3d46 a33c d777 99bd 0d97 8d3d c085 bb3d
00000350: 3e2d c8bc 25a5 1d3c ba21 b83c 361e 9fbd
00000360: af85 8bbd ff45 c8bd 5ba8 8dbd 2576 a2bc
00000370: 5910 b33c d0d6 cc3d 0735 96bc 9af8 4bbd
00000380: 1deb d8bc bb5c e6bc ba0b bcbd dedb 553c
00000390: 9908 be3d c31c 143c 8238 423d 0282 70bc
000003a0: 9db6 78bd 2ebb bdbd e650 c0bc f342 acbb
000003b0: 4ee7 38bd 0ccb 87bd ab35 b0bc 0877 113c
000003c0: cb60 11bd cf62 57bd c33f 2c3d ce93 8abd
000003d0: 376c 973d b934 3738 d321 6a3d f16b babd
000003e0: c67f 8c3d e80f b83d e904 473d 10a5 eabc
000003f0: ff72 d73d 3ffc ecbd ca01 313c 8238 cc3d
0.016822916 -0.047690675 0.024087401 0.085134305 0.030346764 -0.095871285 -0.0933893 -0.05295287
-0.005961991 -0.031764816 -0.00024175415 0.011860742 -0.119793 -0.09098604 0.01121467 -0.054743297
0.02366879 -0.033618417 -0.103587545 -0.05158882 -0.06485525 0.042590376 -0.047747653 -0.024461966
-0.01934792 0.027447207 0.05789286 -0.10008119 -0.09465146 -9.3315975e-05 0.029787872 -0.0923525
-0.07322703 -0.014465016 0.031420525 -0.047954053 -0.061198056 0.05250523 0.055029172 -0.06845765
-0.059454698 -0.04457508 -0.040684458 -0.004264727 -0.05969458 -0.04751268 -0.07313711 0.017261293
-0.0050563957 -0.008102463 0.030099804 -0.06042714 -0.054889407 0.017004061 0.034509342 -0.014332145
0.033144757 -0.013594418 -0.08814842 -0.06407392 -0.056304064 0.062664635 0.04591894 -0.07135364
0.0013890029 -0.06203024 -0.09321032 -0.013625123 0.045688003 -0.07017069 -0.047635965 0.026238304
-0.035677962 -0.06107977 -0.081791155 -0.05973966 0.031507403 0.06323089 -0.08289453 -0.03549194
0.02272881 -0.08336174 -0.087302566 -0.057981342 -0.04871605 -0.090300836 -0.05704767 -0.089243464
-0.006070246 -0.055557154 0.019982325 -0.05040916 -0.02709798 0.04222466 0.059556104 -0.007196608
-0.08404394 0.06047454 -0.123949245 -0.061793264 -0.0885488 0.007961825 -0.040638745 0.010562609
-0.10473456 -0.10628471 -0.0046274634 -0.005549244 -0.103019364 -0.09265149 -0.043020125 0.044730112
0.06982505 -0.055801116 -0.11195801 -0.03659697 0.019772612 -0.0071944892 0.009843698 -0.012800432
-0.026714524 -0.061966565 -0.011722149 0.0057923906 0.036397018 0.008873289 0.0248295 0.024033438
0.043600775 0.008708242 -0.008692389 -0.031509295 -0.07249429 0.11629652 0.006410039 -0.009343809
0.037375208 -0.047291756 -0.057606515 -0.07619188 0.0042469446 0.038388588 0.055270422 -0.113768525
-0.09583924 0.06832553 0.0031165262 0.032046415 -0.04328811 -0.05324159 0.06903292 0.043858714
-0.031030202 0.074078955 -0.0741289 0.00919197 -0.07052349 0.013163905 -0.09529809 0.051908232
0.017391691 -0.006592471 0.029090568 0.018112535 0.00794527 0.0370599 0.0044268076 -0.04887042
-0.036248475 -0.03877779 -0.052121993 -0.111144714 0.033943515 -0.07502584 0.055581927 -0.13826764
0.02126073 -0.094175056 0.06598684 -0.03507187 0.009998635 0.018488718 -0.052485418 -0.05624235
0.008871154 0.016418131 -0.0022649327 -0.03645935 0.045354374 -0.03756954 -0.07387252 -0.007255822
0.008175463 -0.0464323 -0.001989169 0.053114884 0.043294806 -0.03962873 0.020103052 0.0013418194
0.056841336 -0.100310035 -0.08870097 -0.021223439 -0.050891586 0.0068020057 -0.01354445 0.09371683
0.019930953 -0.07493561 0.06913576 0.0915637 -0.024435636 0.009621893 0.02247702 -0.07769434
-0.068126075 -0.09778976 -0.06916877 -0.019831726 0.021858381 0.1000191 -0.018335832 -0.04979763
-0.026479298 -0.02812039 -0.09181924 0.013052909 0.092789836 0.00904006 0.04741717 -0.014679434
-0.06072103 -0.09264217 -0.023476075 -0.0052570044 -0.045142464 -0.06630525 -0.021509966 0.008878477
-0.0354927 -0.052584466 0.042052995 -0.06766473 0.07393687 4.36797e-05 0.057161164 -0.091026194
0.06860308 0.08987409 0.048588667 -0.028643161 0.10519981 -0.115715496 0.010803649 0.099717155

lstm.weight_ih_l1 f4 [512, 128]
00000000: 26db 7bbb 8deb 493d d22c 4dbd dc21 333d
00000010: 2a5b 98bd 0af9 333d 5a42 583c 8006 723b
00000020: 810d b83c e236 8abc 09ee 673b 298a 193d
00000030: 3307 ac3c 2c05 6e3c e04a a23b 8506 bebc
00000040: 991d 683d f4bf e3bc b75b 3f3d ebed 90bc
00000050: aca3 9f3c 71c9 10bd 7d6f 17bd 3a9a 473d
00000060: 13b5 f1bc 4742 553c 5d7d 563d bec7 bf3b
00000070: 67ee 81bd 9837 bd3c 1124 d9bc 7978 08bd
00000080: 95ad dabb 1297 5f3d 535b 53bd e046 64bd
00000090: a5fc f4bc a954 e8bc 7e58 b7bd c878 fd3b
000000a0: 297f a9bc 843c a93d 68bf 18bc 6fff 433d
000000b0: 0caf 963b 05f1 e6bc 6b03 8bbd 8674 163d
000000c0: 7b20 f2bc baa9 73bd f2fb e8bc cb51 d7bd
000000d0: 921d 49bd 3741 9e3b 777e 53bd 50bc edbc
000000e0: fcd0 06bd 81f2 b53d 0032 6f3c 2873 1b3d
000000f0: b427 08bd be11 16bd 3bd9 133d 58fb b63d
00000100: ac94 b03c 6fac 56bd 825e 1f3d d417 b3b7
00000110: d852 14bd 6e1f 6fbd 6f92 20bd 2f2d b9bc
00000120: 623b 7dbd c115 22bc 331e 123d 1680 33bc
00000130: 896c 90bd 60f9 2f3d f069 ac3d a742 da3b
00000140: 9cc0 02bd cc38 d83b 1ce5 733d 3a9b 923d
00000150: 9264 313c affa 3f3d da8c 8c3d 6712 b8bc
00000160: 1a88 563d 4294 63bd 9178 b8bc 7757 0ebd
00000170: be7e bcbc 9052 f23c 82ac e43d 2cc5 0c3d
00000180: 7c93 0b3d ca46 a13c a6d4 09bd 5666 38bd
00000190: 2756 2cbc 7398 93ba e617 4b3d e714 1d3b
000001a0: 6d98 ef3b 5290 253d 4537 3f3d f00d 4cbd
000001b0: 2fb3 943d f6e8 e0b9 7321 ebbc 225c 0d3d
000001c0: dcb6 fabb 2954 76bc 56e4 6bbd db26 f33b
000001d0: 2a9c b0bc c438 72bc 38c0 0cbd 6d82 98bb
000001e0: 5a48 e4bb ffcb 833c 7095 cb3c 9c12 b0bc
000001f0: 15a6 e6bc da5b 34bd 1cfc 5b3d 6819 bf3c
00000200: d6f1 88bc bdda fe3b aa07 443d 9f29 893d
00000210: 6809 293d 452b 95bc 0c56 0a3d 77f0 653d
00000220: 2b03 5a3c 8bef 30bc f47f 64bd 0153 db3c
00000230: 2c78 60bd 29fd 83bd 7c79 1c3c 6f4c 873c
00000240: 6b4a 7a3d 7cc5 2c3c 345d c8bd 6e95 89bb
00000250: a1c8 093d 1016 de3c a489 5e3d 6459 123d
00000260: 6369 3c3d 2b20 283d 1600 183d 7358 53bd
00000270: 71e4 f93c bb82 1f3c 52ca 2a3d 5505 48bd
00000280: 8e92 6e3d 0dfc 753c 095f 9abd 8571 31bd
00000290: 1132 3cbd 37b9 a7bc 4ee1 9a3d 52ff 0bbd
000002a0: e987 e0bd 2fa9 a7bc 3ae6 6b3d 28ae 2bbd
000002b0: c24b e4bb e71b 5b3d cbba 89bc 66c7 553c
000002c0: fa5d abbd 7d9b 113d 41d1 2b3d 47eb 853d
000002d0: d5e2 1a3d c853 403d 5782 1a3d 5a45 cc3d
000002e0: 9b05 83bd f371 e83b f10a 6ebc 1c77 913d
000002f0: aa5a b8bd 9383 07bc 7260 863d 7cf5 7e3d
00000300: fa6e a6bd b485 cfbb 42ed 97bd e336 c3bd
00000310: bc13 91bc 3b22 413c 3775 19bc 9181 1a3d
00000320: 6354 b0bc 0ab7 773d b627 76bb 47af 2d3d
00000330: 6d24 a3bd 9498 703d 6c33 253d d1b0 cfbc
00000340: 30ef 04bd 0065 91bc a031 053d d116 34bc
00000350: 2a33 323d 8507 9a3d 611a c63d 9b48 8cbd
00000360: f357 61bd 817a 5f3d 15e5 50bb b0f3 e93c
00000370: 9554 0bbd ec35 a83d 3e2b 9e3d a39a a43d
00000380: 1048 52bd c62b 863c 46bd d83c 9426 2e3d
00000390: ecb0 d83b 46ac 483d 2ead bdbc 55b7 e93d
000003a0: 99f5 413d 5738 853c 9e7c 923d 6b2e a5bd
000003b0: 6fb5 713a 2d48 40bd aff4 8ebd 453c 24bc
000003c0: 93ba 653d 7ca7 1cbd e819 9e3c 86e9 c23c
000003d0: 200b 36bd f14d c2bc 77f9 5d3c 7276 83bd
000003e0: b6f7 9d3c c888 7a3d f4dc 01bd 3023 cdbc
000003f0: 1ce9 3b3d 76d2 c33c 7084 32bc d1b6 27bd
-0.0038430183 0.049296904 -0.050091572 0.043733463 -0.07439263 0.043938674 0.013199413 0.0036930144
0.022467377 -0.016871873 0.0035389683 0.037485275 0.020999527 0.0145276 0.0049527735 -0.023196468
0.05666885 -0.027801491 0.046718325 -0.017691573 0.019487225 -0.03534836 -0.036971558 0.048731066
-0.029505288 0.01301629 0.05236565 0.0058526685 -0.063443 0.023097798 -0.026506456 -0.033318017
-0.0066735246 0.05458743 -0.051600765 -0.055731654 -0.029905627 -0.028360682 -0.089524254 0.0077353455
-0.020690518 0.082634956 -0.009322979 0.047851022 0.004598504 -0.028191099 -0.06787761 0.03673222
-0.029556504 -0.059488036 -0.02844045 -0.10513648 -0.049100466 0.0048295516 -0.05163428 -0.029020458
-0.032914147 0.088841446 0.014599323 0.03795162 -0.03324099 -0.036638014 0.03609584 0.08934659
0.021555267 -0.05241054 0.03890849 -2.1349559e-05 -0.03621182 -0.058379583 -0.03920215 -0.022604553
-0.06182421 -0.009892882 0.03567333 -0.010955831 -0.070519514 0.042962432 0.084186435 0.0066607776
-0.031921968 0.0065985676 0.059544668 0.07158513 0.0108272005 0.04686993 0.06862803 -0.022469712
0.05237589 -0.05556131 -0.022518428 -0.03475138 -0.023009654 0.029580384 0.11165716 0.034367725
0.0340762 0.019687075 -0.033650063 -0.04501947 -0.010518587 -0.0011260643 0.04958334 0.0023968758
0.0073118717 0.040420838 0.04668357 -0.04981798 0.07260739 -0.0004289818 -0.028702473 0.034511693
-0.007651193 -0.015034714 -0.057590805 0.0074204034 -0.02155884 -0.014784042 -0.034363 -0.00465422
-0.006966633 0.016088484 0.02485153 -0.021493249 -0.028155366 -0.04403291 0.053707227 0.023327544
-0.016716879 0.0077775405 0.04785887 0.06697392 0.041268736 -0.01820911 0.033773467 0.05613753
0.013306419 -0.010799299 -0.055786088 0.026772978 -0.054802105 -0.06444771 0.0095504485 0.016515939
0.061106127 0.010545131 -0.09783402 -0.0041987216 0.0336386 0.02711013 0.054330483 0.03572978
0.045998942 0.041046303 0.037109457 -0.051598024 0.030504437 0.009735758 0.041696854 -0.04883321
0.058245234 0.015013707 -0.07537658 -0.04332115 -0.045946185 -0.02047406 0.07562505 -0.03417904
-0.10963423 -0.020466415 0.057592608 -0.041914135 -0.006967039 0.053493407 -0.016812703 0.013048029
-0.08367534 0.035548676 0.041947607 0.06539016 0.03781398 0.0469549 0.037721958 0.09974165
-0.063975535 0.007093662 -0.014528976 0.071027964 -0.09001668 -0.008271116 0.06561364 0.06224583
-0.08126636 -0.0063330773 -0.074183 -0.09531953 -0.017709605 0.011787946 -0.009366325 0.03772122
-0.021524614 0.060477294 -0.003756029 0.042403486 -0.07965932 0.05873926 0.040332243 -0.025352867
-0.03245467 -0.017748356 0.03251803 -0.010991768 0.043505825 0.075209655 0.09673 -0.06849786
-0.055015516 0.05456019 -0.0031874825 0.028558582 -0.03401621 0.0821341 0.077230915 0.08037307
-0.051338255 0.016378295 0.02645744 0.04251726 0.0066128876 0.048992418 -0.023153868 0.11411921
0.04735336 0.016262216 0.07152675 -0.08065494 0.0009220456 -0.046943832 -0.069802634 -0.010024135
0.056086134 -0.038245663 0.019299462 0.023792993 -0.044444203 -0.023718806 0.013548247 -0.06419076
0.019283157 0.0611656 -0.031704858 -0.025041193 0.045876607 0.023904067 -0.010895833 -0.04094583

lstm.weight_hh_l1 f4 [512, 128]
00000000: a7fe 6e3c 3f29 8fbc 730c 6fbc 7554 a23c
00000010: f9a3 dc3b 90ee 2e3d c139 843d 87ad dcbc
00000020: 0fc7 eb3c 900b 7ebc ac04 8d39 fa50 0dbd
00000030: 665c c23c 10fc ca3d 6563 2b3c 3ffc 253b
00000040: cfc2 03bc 13af afbc 6a36 00bd 53ed b0bd
00000050: 22f0 d03c f53e a6bd d83a c73c 42a9 863c
00000060: de8b febb 57ec 9f3d 1909 92bc b101 c8bb
00000070: 9287 9cbd 04de a13d 760d 4e3d d483 70bc
00000080: b3e2 a2bc e665 043c 7838 f13c 042c c73d
00000090: 04a9 30bd 6502 f9bc 21d0 d9bb 997c f83c
000000a0: 957e 3b3d 57b3 58bc 794b ea3c 8517 33bd
000000b0: 0908 cbbc b565 5b3c 362b 663b 9504 dbbb
000000c0: e4bd c23d f7a7 5cbc c926 9dbd 1ec0 fcbc
000000d0: 93d7 8ebd f072 e13b 63be fb3b ffe8 b2bb
000000e0: 04c2 21bd a408 f03d 814d 1ebb 68c9 8dbd
000000f0: 78cc d93d 9bc1 ccbc e82d 943c b70d 2cbd
00000100: 3cd1 b2bd 1409 863d 323a 53bd bb9d 97bd
00000110: 3188 8cbd 6212 203d 9f8b 143c f2c7 173d
00000120: c9aa 75bd 4544 98bd f1e1 2d3b 608d 0cbd
00000130: f83a b23d 1250 093d a0c1 64bd 3870 d73d
00000140: 7739 5ebd 5438 20bd 30f4 cb3c 9b49 223d
00000150: 9d1c 113c 7f0a 49bc c4cc 303c b09c 2a3d
00000160: 4ea7 c1bc 6b7b eabc 911b 8dbc 668d a73d
00000170: 2d86 a4bc e8d7 0ebd 65e0 abba 5418 0f3c
00000180: 1782 3c3c 1b2f dbbc ba90 ddbd 85ff 143d
00000190: 1b2d 88bd 0dbd 0f39 a529 e93c 0d11 89bc
000001a0: 742d 5e3c bc0b e7bc aa26 edba 07ba 4ebd
000001b0: f783 07bd d45b 8cbd 8795 b83c e7de 81bb
000001c0: 08c6 5dba 3b2a d9bc a131 2cbc c8ae 0a3c
000001d0: eda9 ebbd e695 cb3c da3b 963b b598 8e3c
000001e0: e96b bc3c 04b6 d2bc 139b b0bd 7996 08bd
000001f0: 1135 293d 8ac4 23bd bdfd 1d3d e405 b83c
00000200: 07b8 8c3c 1d9d 5abd 6342 88bd 0424 923d
00000210: 70a4 253d c17d 88bd 0b0f fbbb 25de 4ebb
00000220: 1ceb e4bc 9c29 633d 21dd 9e3c 2124 77bc
00000230: 5127 e13c fc4a cc3b 82cc e03c 294a 143d
00000240: 8ed4 e03b e465 833d d526 95bd ad35 99bc
00000250: 18a6 8d3d bb91 acbd 984c 9d3d 9719 a3bd
00000260: b33b afbc b6fc 2e3d 9fef 0b3d 1138 8dbc
00000270: e1f2 a53c 1d4a 9b3d 84d1 023d 032a 1dbb
00000280: 8902 673d bff4 93bd fe53 793c 6a06 3f3d
00000290: b631 253d b591 0e3d 6dd5 e4bd c2c8 bb3d
000002a0: 7f53 cfbc 4fe4 52bd bb59 ea3c d304 2ebd
000002b0: 1472 db3c e457 4f3d c6a9 07bd 0973 4bbd
000002c0: 99bb 5bba 0948 2bbd eea9 8e3b 0b6b 753c
000002d0: 748e 2a3c 1a42 62bd 05da f03c 35e6 b1bd
000002e0: dec9 283d ff6a d43c a2ba 01bc 6689 903c
000002f0: bb9f 563d 170e 87bc 4399 1bbd 648d 3bbd
00000300: 569d 4ebd e4bd bf3c 37e5 3cbd 34ea a63d
00000310: 8468 48bd 1e0c b93c 255a 2fbd 5048 b6bd
00000320: 474c 04bc 2a2e 35bd 0e96 7a3d 450d 07bd
00000330: abda 893a e441 e6bb 3b2f ca3d 41e3 35ba
00000340: 64d0 6dbc 750d a6bb 37ff 813d 53cd ff3c
00000350: b4c3 603d 3550 a63c 8c99 eebc 5270 4e3c
00000360: 6d7b e23c 5daf 4fbd 4b33 93bd 9fcd 5dbd
00000370: bb47 763c 8eca fbbb b1b2 4abb 60ce 413d
00000380: 605e 06bd 8460 f5bc 2e8f 853d 8b1e 913d
00000390: cb95 703d 8362 5bb8 36d8 d43b 0fef 5b3c
000003a0: 9fc0 c33c 5089 843d 78bf b5bc cf6f 423d
000003b0: a3f7 833d 626b 4bbc 6674 a33d 726c d0bb
000003c0: 74e9 eb3c ebc6 963c 46c7 163c f271 13bd
000003d0: c5ee b43d b5b5 d1bc 9ee9 01bd 66ff 2e3c
000003e0: ae61 073d 1055 b83d 8a24 12bd f0b6 06bd
000003f0: 0ed1 bebc c19a f63b 1eff 59bd 18bc db3d
0.014587081 -0.017475722 -0.0145903705 0.019815663 0.0067334143 0.04270798 0.06456328 -0.026938213
0.028781442 -0.015505686 0.00026897097 -0.034501053 0.0237257 0.09911358 0.010460709 0.0025327352
-0.008042051 -0.021445787 -0.031301893 -0.08639016 0.02550513 -0.08117477 0.024320051 0.01643813
-0.0077681383 0.0780875 -0.017826604 -0.0061037173 -0.076430455 0.07903674 0.050305806 -0.014679868
-0.01988349 0.008080935 0.029445872 0.09725192 -0.043129936 -0.03039665 -0.0066471254 0.03033285
0.045775015 -0.013226352 0.028600441 -0.0437236 -0.024784105 0.013390948 0.003512097 -0.006683896
0.09508875 -0.01346778 -0.07673413 -0.030853327 -0.06974711 0.0068801567 0.007682608 -0.005459904
-0.03949167 0.11720398 -0.0024155083 -0.06923181 0.106347024 -0.024994662 0.018088296 -0.042005267
-0.087313145 0.065447 -0.05156917 -0.074031316 -0.06861914 0.03908003 0.009066491 0.037055917
-0.059977327 -0.074348964 0.0026532377 -0.034314513 0.08702654 0.033523627 -0.055848718 0.10519451
-0.05425402 -0.03911622 0.024896711 0.039620977 0.00885692 -0.012270569 0.010791007 0.041653335
-0.023639347 -0.028623303 -0.017225059 0.081812665 -0.020083511 -0.034873873 -0.001311314 0.008733828
0.011505625 -0.02675586 -0.1081862 0.036376495 -0.06649228 0.0001370797 0.02846224 -0.016731763
0.013560642 -0.028203838 -0.0018093188 -0.05047038 -0.033084836 -0.06853452 0.022532238 -0.0039633396
-0.000845999 -0.026509395 -0.010509879 0.008464523 -0.1150702 0.02485175 0.0045847716 0.0174068
0.023000674 -0.025721557 -0.08623328 -0.033346627 0.041310374 -0.039982356 0.03857206 0.022463746
0.017177595 -0.05337249 -0.06653287 0.07135776 0.040440023 -0.06664611 -0.0076617054 -0.0031565514
-0.02794414 0.055459604 0.019392552 -0.015084297 0.027484568 0.006234525 0.027441267 0.036203537
0.006861276 0.064159185 -0.07282797 -0.018702352 0.069164455 -0.084262334 0.07680625 -0.07963865
-0.021390771 0.042721473 0.034164067 -0.017238649 0.020257415 0.07582495 0.03193809 -0.002398134
0.056398902 -0.07224416 0.015217779 0.046636976 0.04033061 0.034806926 -0.1117352 0.09169151
-0.025308369 -0.051487263 0.02860724 -0.04248507 0.026787795 0.05062093 -0.033120893 -0.049670253
-0.0008382141 -0.041816745 0.0043537533 0.014979134 0.01040994 -0.05523882 0.029400835 -0.08686487
0.04120814 0.025929926 -0.007918032 0.017643642 0.052398425 -0.01648621 -0.03798796 -0.045789137
-0.050443016 0.023405977 -0.046117034 0.081501395 -0.0489278 0.022588786 -0.042810578 -0.08900511
-0.008074827 -0.04423348 0.06117826 -0.03297164 0.0010517439 -0.0070268977 0.0987229 -0.00069384655
-0.014515016 -0.005067522 0.063475065 0.031225836 0.054874137 0.020301918 -0.029125951 0.012600021
0.027646745 -0.05070435 -0.07187518 -0.054151174 0.01503175 -0.0076840585 -0.0030929262 0.047315955
-0.032804847 -0.029953249 0.0652145 0.07085904 0.058736604 -5.2305415e-05 0.006495501 0.013423695
0.02389556 0.06471503 -0.022186026 0.04746991 0.06443717 -0.012415739 0.079811856 -0.006360584
0.028797843 0.018405398 0.009202784 -0.03599734 0.08834604 -0.02559934 -0.031716935 0.010681009
0.03305214 0.090005994 -0.035679378 -0.032889307 -0.023293044 0.0075257723 -0.053221814 0.107292354

lstm.bias_ih_l1 f4 [512]
00000000: df5a 8ebd 87f7 29bd 3f61 eebc 67e9 5b3d
00000010: bc19 80bc ecfa 593c a040 63bd 6b59 2e3d
00000020: 6f8e a13b f5ef 19bd 26b2 f03c 3ef4 923c
00000030: 2a54 0c3c beab ccbd 7c85 043d 085c 95bd
00000040: 72bc 3cbc 0793 acbd c8aa 94bd 4499 fbbc
00000050: e1e7 213c 352d 483d 1289 8fbd fd11 d8bc
00000060: bfea 42bd 264d a43c 1d9c 823d f12e ad3c
00000070: 3bbc 93bd b379 8d3d d27e 5abd 5e27 4ebd
00000080: 7392 55bd f8c0 673c 82e4 36bd 5d57 70bd
00000090: a5f2 b8bb c181 f1bc adef a53d c63c 46bd
000000a0: d396 b9bd 3b09 b9bd 015a 11bd 230d 10bd
000000b0: ab15 afbd 4dc8 9abc 1fd9 9cbd de49 10bd
000000c0: ced8 a8bd 4b1c 6cbd e539 1ebb 6836 7fbc
000000d0: 0018 9d3d fce1 923c da26 43bd 13c5 68bb
000000e0: ac5a 5f3a 2d01 93bd 0614 5fbd 7e2c c6bd
000000f0: 8c7a cc3c 02f4 2c3c 5b53 563d 673c 673d
00000100: f2c3 603d 97c9 06bd dbaf 3bbd d278 eebc
00000110: 65d2 9ebd 4a9e b4bd e893 7fbd 5f0f a4bd
00000120: 6dcf f1bc 8984 d6bd f339 20bc 5c51 92bd
00000130: bc25 1a3c 38e8 8b3c d67a 973d 4ef7 6f3d
00000140: 0a48 83bd 2f03 4cbd 7f6f 9bbd 4626 98bd
00000150: 0dd6 b6bd b834 94bd 74e2 183d b858 7cbc
00000160: 4686 493c 0cdf 0cbc 0b8f efbc cae0 8038
00000170: d21d 503c f4d1 8bbd 0de9 15bc adb0 d93c
00000180: b602 f6bc 309d d9bd 2881 4bbd 97a0 c3bd
00000190: e4ae 043b 3eea 80bd 5fcb 77bd 0da7 75bd
000001a0: 62a5 3cbd 3c1d 1e3d 4a83 323d e076 923d
000001b0: 98dc 243d 2ac0 7c3d 14db 9dba 9c5c 32bd
000001c0: 3ffe 373d e590 3c3d e864 db3d 074d 93bd
000001d0: e86e 83bd 1a3a f3bc 3e0a 17bc 76c3 1c3b
000001e0: 52bf 6f3d 9b97 a5bd ffb0 15bd 1f2e 5cb9
000001f0: b45a f3bc e808 0bbd 5ce7 46bd 5bf0 36bd
00000200: 8ce1 853b 172e 3fbd a508 243d 8445 b53b
00000210: d1cd fabc 86ab 843d e283 143d 193d 9bbd
00000220: 993b e83d 839a 173d 8597 ad3c a0a0 1abb
00000230: 56a7 67bd b849 07bd 0ef6 713d ddf3 5abd
00000240: 59ef 94bd 8ec8 8c3c ae46 1cbd 08b8 563d
00000250: 752e 2e3d ada6 89bc 8128 183d 9062 a0bc
00000260: 6c03 8d3d 9895 5b3d baed 0abc cd3b fbbc
00000270: 0b38 65bd e18b 733d bf41 3a3d 8769 3f3d
00000280: b614 cd3d 33ab 83bd 349f c2bc 8b66 013e
00000290: 4f5d 2dbd b8b6 5b3c dad7 3c3d b024 6abc
000002a0: 9cc4 0d3d 406b a7bd e722 a43c c611 80bc
000002b0: d7fb ddbd 53bd e3bc bf81 ae3a 8b17 13bc
000002c0: bb75 b23d 5660 0a3d 4b9e a3bd 4150 833d
000002d0: 9232 1d3c e578 6cbd e9af 04bd 75a0 6f3d
000002e0: aabd 0abd a612 cc3d deca d73b f983 443d
000002f0: 648b 9f3c fa89 2ebc 7eb1 2fbc 8433 e03d
00000300: ad31 27ba 7e2d 93bc c9fd aabd 8b4a 223d
00000310: b801 913d 73d8 863d bdd1 9f3d 4deb 603d
00000320: 41b0 733d 3640 523c c7de c5bc 186d 0b3c
00000330: a31a 233d d0e2 803d 2d50 843d 963e d63d
00000340: 0f7a 123e 5e8b 0c3d 3ae6 3b3d 548f 0f3d
00000350: 3ab8 903d a5c6 4c3d 96b6 77bd 7abb de3c
00000360: 5ac9 413d b1e8 f23d 7447 c0bc 2a90 b5bc
00000370: 2e34 1bbc 185f 6bbd 1457 133d ec14 60bc
00000380: 0a72 d0bc 04a5 9fbd 02a4 8d3d 6695 333c
00000390: 005f baba 23ba a23d 9812 94bc e898 583d
000003a0: c5b4 56bd 495b 03bc 9f97 79bd dd47 4fbd
000003b0: 4b3b 133d 6e30 6b39 e8cb 943d 76a5 22bd
000003c0: 7196 d9bb 712f 633d 04ae b73d e9b4 903d
000003d0: c538 8cbb 292e 8ebc a0ad 0f3d 7f59 ba3d
000003e0: 3556 c8bd 950e 8a3d c7fa 113d 276a 77bc
000003f0: ce4d e4bd 3faf d53d 0157 4fbb 2f89 c63c
-0.06950926 -0.041495826 -0.029099105 0.053689387 -0.015637271 0.013304453 -0.055481553 0.042565744
0.0049303095 -0.037582356 0.029381823 0.01793873 0.008564988 -0.09993695 0.032353863 -0.07292944
-0.011519538 -0.08426481 -0.072591364 -0.030712731 0.009881944 0.048871238 -0.07008566 -0.026375765
-0.047587153 0.020056318 0.063774325 0.021140547 -0.072136365 0.06907978 -0.0533436 -0.050330512
-0.052141618 0.014145128 -0.044651516 -0.058677066 -0.00564416 -0.029480817 0.08102355 -0.0483978
-0.090619706 -0.09034964 -0.035486225 -0.03516878 -0.08549055 -0.018894339 -0.076586 -0.035226695
-0.08244477 -0.05764417 -0.0024143395 -0.015576936 0.07670593 0.017930023 -0.047644474 -0.0035517856
0.0008520286 -0.07177959 -0.054462455 -0.09676455 0.024960779 0.010556223 0.052325588 0.05645409
0.054874368 -0.032907095 -0.045822006 -0.029110346 -0.07754973 -0.08819254 -0.062396914 -0.08010744
-0.029517854 -0.10474498 -0.009779441 -0.07144424 0.009408411 0.017078504 0.07396476 0.058585458
-0.06410225 -0.049807724 -0.075896256 -0.07429175 -0.08927546 -0.07236618 0.037325338 -0.015402012
0.01230008 -0.0085981 -0.029243013 6.145386e-05 0.012702422 -0.06827155 -0.009149802 0.026573503
-0.03003059 -0.10625684 -0.04968372 -0.095521145 0.0020245844 -0.06294678 -0.060496684 -0.059973765
-0.04605616 0.0386021 0.04358224 0.0715158 0.040249437 0.0617067 -0.001204344 -0.04354535
0.044920202 0.04603662 0.10712606 -0.07192426 -0.06417638 -0.02969079 -0.0092187505 0.0023920215
0.058532067 -0.08085557 -0.03654575 -0.00020998016 -0.029706337 -0.03394404 -0.048560485 -0.044662815
0.004085725 -0.046674814 0.040047307 0.0055319685 -0.030615719 0.06478028 0.036258586 -0.07580013
0.11339492 0.03701259 0.021190414 -0.0023594275 -0.05655607 -0.033029288 0.059072547 -0.053455222
-0.072722144 0.017185476 -0.038153343 0.0524216 0.042524774 -0.01680311 0.037148003 -0.019578248
0.06885418 0.05360946 -0.00847953 -0.030668164 -0.05596165 0.05945957 0.045472857 0.046731498
0.10013716 -0.06429138 -0.023757555 0.12636773 -0.042325314 0.013410263 0.04610429 -0.014290974
0.03461133 -0.08174753 0.020036174 -0.015633475 -0.1083905 -0.027800238 0.0013313814 -0.008977781
0.087138616 0.03378328 -0.07989176 0.064117916 0.009594576 -0.05773248 -0.032394323 0.058502633
-0.033872284 0.099644944 0.006585463 0.04797742 0.019475646 -0.010653013 -0.01072347 0.10947326
-0.00063779467 -0.017966028 -0.08349187 0.03962187 0.07080406 0.06584253 0.07803676 0.0549119
0.05949426 0.012832692 -0.02415408 0.008509897 0.039820325 0.06293261 0.06460605 0.10461156
0.14304374 0.0343126 0.045873858 0.035048798 0.070663884 0.04999413 -0.060476862 0.027189005
0.047311164 0.118607886 -0.023471572 -0.02216347 -0.00947289 -0.057463735 0.035971716 -0.013676863
-0.025445003 -0.07795146 0.06916048 0.010960912 -0.0014218986 0.07945659 -0.018075272 0.052880198
-0.05241849 -0.00801737 -0.060935613 -0.050605644 0.035945218 0.00022429388 0.072654545 -0.039708577
-0.0066402485 0.055465166 0.08968738 0.07065756 -0.0042792284 -0.017355995 0.03507769 0.09099101
-0.09782068 0.067410626 0.03563955 -0.015100992 -0.111476526 0.10433816 -0.0031637552 0.024235336
